Assets/ML-Agents/Models/RabbitTimid.onnx (onnx, 81702 bytes, 8 tensors)

network_body.observation_encoder.processors.0.normalizer.running_mean f4 [13]
000000 28 43 0b 3f 33 81 f5 3b 2a 5c 47 3e 9d c7 a4 43
       0.5439935 0.0074922084 0.19468752 329.55948
000010 00 00 00 00 00 00 00 00 26 00 c2 be 9e b8 fa 3d
       0.0 0.0 -0.37890738 0.12242244
000020 bf af e7 bc 63 35 9e 42 1f 80 74 bd 53 ab f7 3a
       -0.028282044 79.10427 -0.0596925 0.0018895663
000030 8e e7 80 3c
       0.015735414

network_body._body_endoder.seq_layers.0.weight f4 [128, 13]
000000 ac 0e 13 bd e4 4a 59 bc 52 c5 6f 3e 78 34 2d 3d
       -0.035902664 -0.013262484 0.23415115 0.042286366
000010 b0 74 16 be 85 2a 0d be ea 16 5a bf cd 06 f8 3d
       -0.1469295 -0.13785751 -0.85191214 0.12110672
000020 16 ff a9 bb ac cb 88 be d7 8e d6 bd c2 41 27 3e
       -0.0051878793 -0.2671789 -0.10476463 0.16333678
000030 f7 84 69 be ee 0d 16 bf 2f 85 37 3e bc 91 0d bf
       -0.22804628 -0.58615005 0.179219 -0.553005
000040 b1 fb 13 bd 4c 11 9f 3e c2 8e 84 be c7 e0 fa be
       -0.036128704 0.31067884 -0.25890166 -0.48999617
000050 e8 76 33 3e 13 35 68 3e 94 5f e2 3d 6c 36 5d be
       0.17525828 0.22676496 0.11053386 -0.21602792
000060 72 07 87 be 25 e2 85 be f5 e3 26 bd a8 e3 53 3e
       -0.26372868 -0.26149097 -0.04074474 0.20692313
000070 89 72 70 be 57 c1 1a 3e 4c 90 ac bd 8f 6b d7 3e
       -0.23481192 0.15112816 -0.0842596 0.42074248
000080 5f 62 fd be 82 cd 5b be fc d7 c8 3e af 0c 35 3e
       -0.49489114 -0.21465114 0.39227283 0.1768062
000090 0d 0c 47 3d 16 8a fa 3e 1e 03 28 be 07 0d ad bd
       0.048595477 0.48933476 -0.16407439 -0.084497504
0000a0 34 08 96 3d bf 8d c7 be 2c 3b a0 be 44 78 ae bd
       0.07325783 -0.3897533 -0.31295145 -0.085190326
0000b0 6b 6a 93 3e c0 24 47 3e df 3e e7 3d 45 86 c9 3d
       0.28792128 0.19447613 0.112912886 0.09840063
0000c0 a7 c5 3f bd 49 f1 ac be 7e b5 c1 be 07 90 29 3d
       -0.046819355 -0.33777836 -0.3783378 0.04139712
0000d0 0f 1a aa 3d 2b b8 93 3e 8d fb 6c 3e c9 76 dc be
       0.083057515 0.28851447 0.23142834 -0.43059376
0000e0 d3 49 fa 3e 9e a1 28 bd 37 57 ec 3d cb 4d c8 3d
       0.48884448 -0.041169755 0.115400724 0.09780463
0000f0 05 c3 34 bf 68 75 50 3d 66 75 d2 3e 1c ce 89 3e
       -0.70610076 0.050893217 0.41105193 0.2691506
000100 41 7b 8d 3e ae be 64 3d 66 e0 2d 3e f9 65 26 bf
       0.27633098 0.05584591 0.16980132 -0.6499935
000110 91 61 88 3d d7 df 0e 3e d1 e7 b6 3d fe a9 de 3c
       0.06659234 0.13952576 0.08930934 0.027180668
000120 4d 42 3b 3e 1f ff d8 be 78 76 6a be 95 87 f4 be
       0.1828701 -0.42382142 -0.22896755 -0.4775969
000130 71 96 bb be 2c 18 39 3e 8a c0 f6 3b 53 00 8a 3e
       -0.36638215 0.18075627 0.0075302767 0.26953372
000140 fc a2 7a bd 1c 8e ba 3c bc c0 f5 3c 89 9c 4f 3e
       -0.06119059 0.022772841 0.02999913 0.20274557
000150 f7 2c cc 3d ce 97 2f be e9 51 7f be ea af a1 be
       0.09969514 -0.17147753 -0.2493359 -0.31579524
000160 44 c7 ad bd a1 a2 e6 bc c6 aa 8b be f5 26 8b be
       -0.084852725 -0.02815372 -0.27278727 -0.2717816
000170 f8 6d 62 3e 37 b3 99 3e 23 73 0d 3c 40 5f 5b 3d
       0.22112262 0.30019543 0.008633408 0.053557634
000180 5c 1d c6 be 36 ae 72 bd 48 17 5b 3e f4 f8 33 3c
       -0.38694274 -0.05924817 0.213956 0.010984648
000190 cf ca 07 3f da c1 67 3e 13 ec 69 3d 7b 57 a3 bb
       0.53043836 0.22632542 0.057109904 -0.0049847937
0001a0 48 73 da ba b5 b6 20 be e6 08 bd 3d 26 d9 b4 3e
       -0.0016666437 -0.15694697 0.09230213 0.3532192
0001b0 6a 5b 6e 3d e0 a3 b2 3e 73 be 90 bd 8d 05 91 be
       0.058192648 0.34890652 -0.07067575 -0.28324547
0001c0 b1 4b 86 be c9 e0 98 be 77 ad e9 3c 36 28 d4 3e
       -0.26229623 -0.29858997 0.028525097 0.4143693
0001d0 9c 61 0b bf b5 94 0f be 09 a5 76 be 39 bc 56 3d
       -0.54445815 -0.14021571 -0.24086393 0.052425597
0001e0 72 a1 ef 3c 6a 2b 65 be 54 1b be bd 23 be 8f 3e
       0.029251788 -0.22379842 -0.09282556 0.2807475
0001f0 52 b9 c7 3e c4 b3 a5 3d 68 64 fd 3d 33 e1 96 be
       0.39008576 0.08090928 0.123726666 -0.29468688
000200 b3 7e c7 3e a7 6a fa be ba 1d 6a be d7 47 71 3e
       0.3896385 -0.48909494 -0.22862902 0.23562561
000210 a1 de c3 be a3 bf 9a 3d 90 ec 29 3e 05 bd de be
       -0.3825579 0.07556083 0.16594148 -0.43503585
000220 a2 45 7f 3d 5c 66 54 bc 46 64 b3 bd ce b3 9b bd
       0.062322266 -0.0129638575 -0.0875936 -0.076026544
000230 81 75 c9 bc 19 b5 de be 3c e0 34 3e 2f 82 b4 3d
       -0.024592163 -0.43497542 0.17663664 0.08813893
000240 e7 d8 a3 be 08 d8 b2 be 10 70 8a bd 87 8f e8 3e
       -0.3200142 -0.34930444 -0.067596555 0.45422003
000250 bb c7 83 3e bd 82 34 3c d5 23 7a 3e db 9b d9 3e
       0.2573832 0.011017499 0.24427731 0.4250172
000260 1b 43 72 bd 90 01 2e 3e 05 fa 88 3d 86 75 0a 3e
       -0.059146028 0.16992784 0.066883124 0.13521394
000270 0a 8a c9 be 61 ef 45 3e 53 e2 84 3d bf fb 6f 3f
       -0.39363128 0.19329597 0.064884804 0.9374351
000280 27 d3 95 3d d8 43 b2 bd e0 8e fe 3e fb 55 f5 bc
       0.07315665 -0.087043464 0.4971838 -0.029948225
000290 31 66 82 be e5 9a 93 bd 6f 96 77 3e b5 b9 88 3e
       -0.2546859 -0.07207278 0.2417848 0.26704183
0002a0 0c 3f e8 3e 9c 3b ff bd 91 09 83 be 8a e0 a2 3c
       0.453606 -0.124625415 -0.25593236 0.01988246
0002b0 33 a4 b7 bd 99 09 71 be 9d c4 5d 3c f5 50 8d 3e
       -0.089668654 -0.23538817 0.013535646 0.27600828
0002c0 c0 4f 9d 3e 59 e8 4a 3d ed eb f2 bd 87 9b af be
       0.30724907 0.04953799 -0.118614055 -0.34298345
0002d0 67 56 f8 3e 02 87 7d 3e b0 14 37 3f df 77 c2 be
       0.4850342 0.24758533 0.7151594 -0.3798208
0002e0 2c 71 85 3d 5e 6e 09 bd 71 04 50 be b1 6c 26 3f
       0.065157264 -0.03355252 -0.20314194 0.650096
0002f0 8a 20 88 3e ba 48 90 3d 0f 6a 89 3e 35 f3 db be
       0.26587325 0.070451215 0.2683873 -0.4295899
000300 5d b4 9f 3e 4b 5e 0e be ee ce 15 be 79 8f 06 3e
       0.31192294 -0.13903157 -0.14629719 0.13140668
000310 f4 d2 e6 3d 5e 68 f9 bd b2 c3 a8 bb 03 06 27 be
       0.11270705 -0.121781096 -0.005150282 -0.16310887
000320 69 92 12 bd 46 94 7d bd 64 38 bd bc af a5 fa bd
       -0.03578416 -0.061908983 -0.023098178 -0.12238633
000330 8b 02 f3 3d 42 65 88 3b 19 87 5b 3e 32 33 be 3e
       0.118657194 0.0041624615 0.21438254 0.37148434
000340 b9 76 ec bd be 86 f3 3d 95 ad dc 3e 61 55 8e be
       -0.11546082 0.118909344 0.43101183 -0.27799514
000350 92 e0 af bc 5c 63 e1 3d 8a 34 48 be 37 e6 a6 3e
       -0.021469388 0.110052794 -0.19551292 0.32597515
000360 e8 b2 35 3e ea 3e 67 3d 33 f3 fa be 47 ad d0 be
       0.17744029 0.056456484 -0.4901367 -0.407572
000370 93 a5 45 3c 36 15 7a bd d6 d6 a6 bc f8 4b 3d 3c
       0.012063402 -0.061055385 -0.020366114 0.011553757
000380 61 25 07 3d 6d 80 d0 be 1a 25 aa 3e d4 25 ba bc
       0.03299463 -0.4072298 0.3323143 -0.022723116
000390 53 fe 11 be a6 25 99 3e e5 d5 7f bd ec 79 52 3f
       -0.14257173 0.29911536 -0.062459845 0.8221729
0003a0 7e d4 1a 3d 44 3a 62 3e aa ed c9 3d 3b 46 ea 3e
       0.037800305 0.22092539 0.09859784 0.45756707
0003b0 e1 00 95 3e e4 8a 18 bf 79 4c 98 bd d5 2c 62 bf
       0.29102233 -0.5958693 -0.07436461 -0.8834966
0003c0 87 82 78 3e 52 63 f6 bc 8b 1f b6 3d 26 1d aa 3e
       0.24268542 -0.030076656 0.08892735 0.33225363
0003d0 90 2e 9b bd af 7f 22 3f 32 dd 9e 3e 26 ec 1b bf
       -0.075772405 0.6347608 0.31028134 -0.6090721
0003e0 14 b5 d7 3c b4 7c 5c 3e 96 2f 28 be 62 34 0d 3f
       0.026331462 0.21531945 -0.16424403 0.55158055
0003f0 3b ef f5 bd 17 34 84 be 0d 3b 1a be 03 ad 02 be
       -0.1200852 -0.2582099 -0.15061589 -0.12761311

network_body._body_endoder.seq_layers.0.bias f4 [128]
000000 ab 0b 9e 3d 0a 42 10 3d 05 9f 14 3d fd 34 fa bc
       0.07717069 0.03521923 0.036284465 -0.030542845
000010 37 29 22 bd 91 7b 57 3d 38 64 50 bc fa 2a 18 bd
       -0.039590087 0.052608076 -0.0127192065 -0.03715036
000020 46 33 6f 3d ea 43 b8 3d a3 bd bf bc 71 64 46 3d
       0.058398508 0.089973286 -0.023405856 0.048435632
000030 53 c3 7b 3d c3 78 7c 3b 9a 3c 21 bc 41 d8 1d 3d
       0.061465573 0.0038524128 -0.009841109 0.038536314
000040 a6 a6 d5 3b 19 8d 6b 3d 87 d5 c8 3c 4b 2b 0a 3d
       0.00652011 0.057507608 0.02451588 0.033732694
000050 78 1f fe bc 38 33 0e bd 50 26 87 bc 76 04 a2 bd
       -0.031020865 -0.034716815 -0.016497761 -0.07911007
000060 0a 6b 35 3d 3b a2 42 bb 30 4c f9 bc 65 e2 bb 3c
       0.044291534 -0.0029698748 -0.030431837 0.022935102
000070 78 14 79 3d ae b8 d8 3c b9 ae 01 3d dc 9b 89 3c
       0.060810536 0.02645525 0.03166077 0.016797952
000080 8a fc f1 bc 3d 4b 36 3d f2 df b1 3c af 77 35 3d
       -0.029539365 0.044505347 0.02171323 0.044303592
000090 64 03 0f 3a 55 28 2e bc 04 f4 f3 3c fa dd 19 3d
       0.00054555223 -0.010629733 0.029779442 0.03756521
0000a0 8b 34 94 3c 82 4d a7 3c a9 ba ef bc ee 75 8b 3d
       0.01809146 0.0204227 -0.029263811 0.06809603
0000b0 d2 58 df 3c d3 3c 89 3d 88 09 42 bb c9 33 47 bd
       0.027264033 0.067010544 -0.0029607732 -0.04863337
0000c0 99 17 4f bc 21 f2 45 3d 2a f3 bb 3c 33 d6 df 3c
       -0.012639903 0.048326615 0.022943098 0.027323818
0000d0 00 34 47 3d 3c 12 01 bd 90 1a a5 3d 93 8c 8d 3d
       0.048633575 -0.03151153 0.08061707 0.06911578
0000e0 0b 8a 9d 3c 5c e9 ea 3b 11 94 12 3d 6e 72 c5 3c
       0.019230863 0.007168932 0.03578574 0.024102416
0000f0 51 16 01 bd b3 05 9a bd 03 97 48 3d df 5a b4 3c
       -0.031515423 -0.07520618 0.04897214 0.022015987
000100 e1 13 e3 3b 0a 25 80 3d d4 7b 1f bd b9 f3 4e bc
       0.00692986 0.06257065 -0.03893645 -0.01263135
000110 e9 31 84 3d b2 78 9b 3d 46 cd e4 3b ae 23 56 3d
       0.06454832 0.0759138 0.0069824783 0.05228012
000120 e2 79 40 3d a0 a9 49 3c 26 f2 33 3d 6a 3a 80 3b
       0.046991237 0.012308508 0.043932103 0.0039132135
000130 f1 1f 6e 3c 2a b4 e9 3c 3b ee 55 3a fe 57 fe bc
       0.014533983 0.028528292 0.0008160804 -0.031047817
000140 65 c7 ae 3b 90 01 1c 3b 83 4e e2 3c a9 c1 2b 3c
       0.0053338283 0.0023804642 0.027625328 0.010483184
000150 82 3d a5 3c f6 db 5c 3d af 80 1b 3d 25 ba 99 3c
       0.02017093 0.05392071 0.03796452 0.018765518
000160 b5 7b 92 bc 85 c3 d0 bc 8b 1c ce bc 9c f5 4c 3d
       -0.017881254 -0.025483856 -0.025160095 0.05003892
000170 b1 c8 3c 3d fd 5d f5 3c 6f a3 c4 3c 2e 4c 6f 3d
       0.04608983 0.029952044 0.024003712 0.05842226
000180 bb 58 0e 3d 32 6a 86 bc 52 2a 2e 3d 79 20 be 3c
       0.03475259 -0.01640806 0.04252083 0.023208844
000190 cc 36 cf 3c c4 29 09 bd 7e 4a a0 3c 48 cc 6f 3c
       0.025294684 -0.033487096 0.01956677 0.014636107
0001a0 6f cb 91 bb 1c f2 80 3c d6 b4 92 3d b1 85 2f 3d
       -0.0044493 0.015740447 0.07163398 0.042852107
0001b0 48 cc af bd 29 f5 2a 3d 8c c6 9f 3c 5f 90 07 3d
       -0.085838854 0.04173771 0.019503854 0.033096667
0001c0 50 e7 2d 3d 36 29 61 bd f6 c5 3a 3b d7 55 ed 3c
       0.042456925 -0.054970942 0.0028499342 0.028971596
0001d0 d3 52 20 3d 51 32 b1 bc 25 53 4f 3d 5b 16 8b 3c
       0.039141487 -0.021630438 0.050616402 0.016978433
0001e0 15 0a 05 bd e9 d3 72 3d b3 22 87 3d 07 0e a2 bc
       -0.032480318 0.059284125 0.06598415 -0.01978208
0001f0 94 c0 bf 3c a3 51 95 3c 85 18 ab 3c e6 55 5d 3d
       0.023407258 0.018227404 0.020885715 0.054036997

network_body._body_endoder.seq_layers.2.weight f4 [128, 128]
000000 d0 bf f7 bd 75 09 0c bc 13 38 04 3e 91 e8 37 bd
       -0.12097132 -0.008547177 0.12912016 -0.044899527
000010 a6 c4 37 bc 48 8b 6a bd 6c 76 ff 3d c7 f1 5f 3d
       -0.011216318 -0.057261735 0.12473759 0.054673936
000020 aa 6f ae bc 79 71 1a 3c 02 a4 0a bc 05 43 ea bc
       -0.02129348 0.009426468 -0.008461954 -0.02859641
000030 85 cc 31 3b b7 48 d8 bc 1a c8 d3 3c 82 ef 5a be
       0.002712996 -0.02640186 0.025852252 -0.21380427
000040 92 27 a7 bd e7 5f 37 bd 39 65 19 3e b7 66 8e 3d
       -0.08161844 -0.044769194 0.1498002 0.06953185
000050 49 c0 34 bc be d3 dd 3d 63 ce 77 bd 1f 3e a1 3d
       -0.0110321725 0.10831402 -0.06049956 0.07873177
000060 0c 90 a3 bd 4c 85 2b 3d f0 e8 c1 bd 8e ca d1 3b
       -0.07986459 0.04187517 -0.094682574 0.00640232
000070 7f f3 64 3e ac 50 c6 bd 9b f1 13 3d 06 39 ad 3d
       0.22358511 -0.09683356 0.036119085 0.08458142
000080 da 2f b9 3d 29 f6 fc 3c 47 7d e9 3d 8f ee 1b be
       0.0904233 0.030879097 0.11400848 -0.15227722
000090 21 29 3d bd e0 93 a1 bd 04 b9 18 3e 11 a4 18 3e
       -0.0461818 -0.07889533 0.14914328 0.14906336
0000a0 cc 3b c8 3d df 83 80 be ec e5 64 bc d4 8a 4f 3c
       0.0977703 -0.2510061 -0.013970833 0.012667377
0000b0 25 bb a7 bd c1 b0 95 bb a6 5e 54 3c cf 3d 8a 3d
       -0.08189992 -0.00456819 0.012962019 0.0675007
0000c0 2a f1 b6 3d 96 ee 6e bc 7e 7f 87 3c b1 7a 3f be
       0.08932717 -0.0145832505 0.016540285 -0.18699147
0000d0 59 06 e4 bd 02 f9 cb 3d f0 8c 7d 3d 3b 6c 36 bd
       -0.11134023 0.09959604 0.061901987 -0.04453681
0000e0 c1 e4 7a 38 28 e0 e9 bd 5c 23 bd bd 4c 71 54 3d
       5.981769e-05 -0.114197075 -0.0923526 0.05186586
0000f0 94 80 45 3e 38 09 1b 3e a9 59 48 bd 91 cb 46 be
       0.1928733 0.15140235 -0.04891363 -0.19413592
000100 f4 78 0d bd 53 74 61 bd f1 0d bd bc 49 ef 7d 3d
       -0.034539178 -0.055042576 -0.023077937 0.06199578
000110 63 69 1d be e0 23 cd bd fd d0 3a be 1f 47 56 3d
       -0.15372233 -0.10016608 -0.18243785 0.05231392
000120 12 62 34 be b7 22 22 3d d6 02 d8 bd 7a d2 c1 3d
       -0.17615536 0.039583888 -0.10547416 0.09463973
000130 51 12 f1 3d 9c c1 e6 3c 86 f5 55 be 89 6e 92 be
       0.11771072 0.028168492 -0.20894441 -0.28599957
000140 46 c6 b1 bd c6 58 a9 3d 87 c6 2d bc b3 98 2f 3d
       -0.08680396 0.08268885 -0.010606415 0.042870235
000150 c2 ee 15 be b8 b7 6e 3d 2c 2a 60 3d 45 3f 64 3d
       -0.1464186 0.058280677 0.05472772 0.0557244
000160 94 22 e4 bc d5 7e 0a 3e a2 a5 18 3d ce 2f 14 bd
       -0.02784852 0.13524945 0.037267335 -0.036178403
000170 bf 14 1a bd dd 86 ed bc b9 e4 45 bd 61 1f 8b 3d
       -0.03761744 -0.028994972 -0.04831383 0.067930944
000180 06 21 67 3b f7 31 8c 3d 69 b5 49 bc 2d 95 14 3e
       0.0035267486 0.068454675 -0.012311318 0.14510031
000190 4d 4b 1f bc e9 e9 e2 bd d6 b8 4c 3d 9f 28 0e 3d
       -0.009722543 -0.11079771 0.04998096 0.034706708
0001a0 d4 74 01 bb d1 1a b7 bd 39 1d d9 3d dc c2 30 3e
       -0.0019753473 -0.08940662 0.10601277 0.17261833
0001b0 26 d2 47 3c 54 55 c2 bd e5 c0 5a bd 60 72 bf bc
       0.012196099 -0.09488931 -0.053406615 -0.023369968
0001c0 c4 b3 1c 3d a6 6f bf 3d ab 58 13 3e 53 2d 0f 3e
       0.038257375 0.09347467 0.14389293 0.13982134
0001d0 d8 4c 9a 3d 68 97 af 3d 8e 7d 3d be ca 6f 59 be
       0.07534188 0.085738 -0.18504927 -0.2123405
0001e0 69 ae d5 bc d9 b7 a9 3c 76 26 02 3d b7 34 3e bd
       -0.026084142 0.020717548 0.03177496 -0.04643699
0001f0 62 5c 0f 3e cf b3 e5 3b 11 0a 02 bd 49 ec 0e 3e
       0.14000085 0.0070099602 -0.03174788 0.13957323
000200 94 af 9c bd d3 ae 4c bd 53 f9 9c bd b1 ed 8b bb
       -0.07650676 -0.049971413 -0.07664742 -0.0042702784
000210 85 e2 4d 3d 3f 30 17 bd c3 5d 9f 3d 65 0e b1 bd
       0.050264854 -0.036911245 0.077815555 -0.08645324
000220 b4 63 b6 bd 82 13 ae bd e7 31 1a bd ba 42 ef bd
       -0.089057356 -0.084998146 -0.037645247 -0.11682649
000230 7e 8c ae bc c2 f1 95 3b ff ee b6 bc 97 4a 24 be
       -0.021307226 0.004575939 -0.02233076 -0.16044079
000240 d0 09 c0 3d 70 73 2f be f0 01 b1 bc d6 52 e7 bd
       0.093768716 -0.1713388 -0.02160737 -0.112950966
000250 5f 5c a9 3d ce 8d 77 be 9b fb 1b bd 07 20 23 be
       0.082695715 -0.24175188 -0.038081747 -0.15930186
000260 12 27 26 3e 60 f6 97 3d 73 90 77 bd da 59 84 3d
       0.16225842 0.07420039 -0.060440492 0.0646245
000270 e6 81 c0 bd 57 6b 84 bd 96 58 13 bd be 16 02 3e
       -0.09399776 -0.06465786 -0.035973154 0.12703988
000280 34 9b 04 be 38 92 9e 3d dc f5 ca 3d d7 e6 16 3e
       -0.1294983 0.07742733 0.09910175 0.14736496
000290 bd 94 aa 3d 5c e3 17 3e 07 42 d0 3d 3e 8d 36 bd
       0.08329151 0.14832824 0.10168844 -0.044568293
0002a0 dc 90 2e 3e 95 3f e2 bb a6 69 2d 3e f1 55 70 3e
       0.17047447 -0.006904552 0.16934833 0.23470284
0002b0 8b bf ba bb 1a 97 df 3c e2 9b f7 3d 06 58 33 be
       -0.005699103 0.02729373 0.12090279 -0.17514047
0002c0 fa 75 97 bd 30 5c 94 3d 00 c4 f8 bc a1 a4 53 3e
       -0.07395549 0.07244146 -0.030366898 0.2066827
0002d0 a4 ee d8 3d ea be 27 be e4 ec 59 be 21 f5 66 3d
       0.10592392 -0.16381422 -0.21281773 0.056386117
0002e0 0a d4 5a 3d f3 f5 e0 3d 62 57 84 3d ff 37 b1 bd
       0.053424872 0.10984411 0.064619794 -0.086532585
0002f0 a8 8c 2c bd 35 01 8b bd 8f 76 ad bd 08 c3 c4 3d
       -0.042126328 -0.067873396 -0.08469879 0.09607512
000300 45 a3 cc 3d e1 67 55 3c 29 e5 c5 3d a9 17 3c 3e
       0.09992079 0.013025255 0.096628495 0.183684
000310 b1 2e 12 3e 3e fd 10 3e 5c 45 14 be 21 49 1f be
       0.14275624 0.14159104 -0.14479584 -0.1555524
000320 99 19 30 3e 72 98 07 be b7 00 99 bd ad f7 04 be
       0.17197265 -0.13241747 -0.074708395 -0.12985106
000330 01 ba a0 3d d9 35 06 be 9f 5d d9 bc f9 43 8e bc
       0.078479774 -0.13106479 -0.0265339 -0.017366396
000340 64 2b fc 3d 7f 81 c5 bd b6 c6 34 be d9 03 4a 3d
       0.123129636 -0.0964384 -0.17653927 0.049320076
000350 cd c5 2d 3d 65 01 45 3c e5 24 ff 3d 83 10 26 bc
       0.042424966 0.012024258 0.12458209 -0.010135773
000360 00 f1 36 bd 70 06 ac 3d eb 56 98 bd 8a 3a b2 3d
       -0.04466343 0.08399665 -0.07438453 0.08702572
000370 34 1c 8c 3b 28 57 f6 bd 69 44 94 3d bb 87 17 3d
       0.004275823 -0.120283425 0.07239611 0.036994677
000380 b1 e6 74 3d a4 17 34 be 7b 35 9b bd 2e 9b e4 bc
       0.059790317 -0.17587143 -0.0757856 -0.027906027
000390 31 de d0 bd f0 7a 22 3e 1d 82 66 3d 38 0e 21 be
       -0.1019863 0.1586721 0.05627643 -0.1572808
0003a0 44 7e 9d 3d 91 5c b2 3d 94 f5 5a 3c dd e1 19 3e
       0.07690099 0.08709062 0.013364214 0.15027566
0003b0 c5 a7 aa bc 9e 79 c7 3d e1 7f 90 bd 2a 5c 04 3e
       -0.020831952 0.097399935 -0.07055641 0.12925783
0003c0 62 71 3f 3d 1b cf ec 3c 95 3b 29 be 8b 2b 9f bd
       0.04673899 0.02890735 -0.16526635 -0.07771977
0003d0 eb 6e 13 3b de 85 34 3e a6 a4 23 3e 66 68 2e 3c
       0.0022496532 0.17629191 0.15980777 0.010645008
0003e0 1c 3e fe bc 44 ec b4 3c d9 e7 24 bd c0 59 d4 bd
       -0.031035475 0.022085316 -0.04026017 -0.10368681
0003f0 db 0a bf bd cc c8 9f 3d fa 9f 7d bd ee c8 42 bd
       -0.093282424 0.07801971 -0.061920144 -0.047554903

network_body._body_endoder.seq_layers.2.bias f4 [128]
000000 ba fa bd bc be 04 23 3d 80 5e a5 bd 31 3e 31 3d
       -0.023190845 0.039799444 -0.08074665 0.0432722
000010 97 aa 93 bd c6 2a 2a 3d d0 aa 6b bd 2d 2d cb bb
       -0.07210272 0.0415447 -0.057535946 -0.0062004537
000020 ee 7f f7 3c 87 bd b8 bc 84 b5 d4 bc e6 49 4e 3d
       0.030212369 -0.022551311 -0.02596546 0.050363444
000030 e3 43 90 3c 12 ac f5 3c 2d 30 e9 bc 7b 2b bb bc
       0.017610496 0.029989276 -0.028465355 -0.022847882
000040 ca 2f 30 bd 45 b1 05 3d 73 2b 30 3d 26 fd 24 3d
       -0.043014325 0.03263976 0.043010186 0.040280484
000050 eb 0f b3 3c 42 50 1a bd 69 b6 d5 3c d4 2c 1e 3d
       0.021858176 -0.037674196 0.026087957 0.03861697
000060 ac db 77 3d d2 2a 71 bd e9 bd 48 3d 35 b4 2d 3d
       0.06051223 -0.058878727 0.049009237 0.042408187
000070 c7 ea 8a 3d 32 1d 25 3c dc 7e 7a 3c 6a d1 1c 3c
       0.067830615 0.0100777615 0.015289035 0.009571413
000080 33 a4 05 3c 45 b9 88 3d 98 0a a1 3c f6 fc 4d bd
       0.008156824 0.06675962 0.019658372 -0.05029007
000090 c4 69 ae 3c 63 9a af 3d 0a 74 73 bc bb 18 be 3c
       0.021290667 0.08574369 -0.014859209 0.023205152
0000a0 f8 12 86 bd 8f 31 10 bc fc 25 6f 3d 83 df fc 3c
       -0.06546587 -0.008800878 0.058385834 0.030868297
0000b0 b3 87 48 bb ef 5c 99 bc a6 ae 54 3d 9b 33 b6 bd
       -0.003059846 -0.018721072 0.05192437 -0.08896562
0000c0 26 00 5d 3d 5f 36 79 3d ae 4e ce bc 16 6d 5d bd
       0.05395522 0.060842868 -0.025184002 -0.05405911
0000d0 d9 31 58 bc 98 67 24 bc 3b ce cf bc 19 ee 33 bb
       -0.013195478 -0.010034464 -0.025366893 -0.002745515
0000e0 99 fe 93 bd ed 5b 6c 3d 08 ea 21 bc 4e 76 96 bb
       -0.07226295 0.057704855 -0.009882458 -0.0045917397
0000f0 f5 1f 91 3c 05 2f 92 bd 54 57 91 bd a4 bb 9c bc
       0.017715434 -0.071378745 -0.07096735 -0.019132443
000100 0d 87 03 3d c1 e3 16 bd 41 6d bd bc 9a 84 a1 3d
       0.032111216 -0.036838297 -0.023123385 0.0788662
000110 15 e4 1a bd 30 d7 4b bd 40 c7 06 bd 43 a3 ce 3c
       -0.037815172 -0.049765766 -0.032904863 0.025224334
000120 dc d2 81 bd 4b d1 85 bd 21 3f 65 bd 9d 50 93 bb
       -0.06339046 -0.0653406 -0.055968408 -0.004495694
000130 61 c2 e3 3c 2a 71 c4 bc 82 6e bd 3c 0a 25 51 bd
       0.027802648 -0.023979742 0.023123983 -0.051060714
000140 d3 99 cd 3c 1c 35 60 bd 45 c6 d0 bc b3 01 76 bd
       0.025097763 -0.05473815 -0.025485167 -0.060060214
000150 00 81 ff bc e1 17 03 3d c5 94 74 bd d8 61 fc 3c
       -0.031189442 0.032005195 -0.05971219 0.030808374
000160 1d be 31 3d 98 aa 73 3d 92 da 97 bd 16 7b 96 3c
       0.043394197 0.059488863 -0.07414736 0.018369239
000170 68 6c 83 bd f4 33 20 3d 17 f4 b3 bc 30 44 26 3b
       -0.06417161 0.039112046 -0.021966977 0.0025370233
000180 ca e7 2c 3d 67 6b c8 bd d6 56 f7 3b 09 5f 03 3d
       0.04221324 -0.0978611 0.0075481934 0.032073054
000190 21 0e 1c bc 92 6f 05 3d 7e 5e 49 3d ca c5 3e 3d
       -0.009524853 0.032577105 0.04916238 0.046575345
0001a0 74 db 49 bd a3 9b 04 3d 4c 84 00 3d 68 bf 61 bd
       -0.049281552 0.03237499 0.031376168 -0.05511418
0001b0 e4 a5 ab 3c ab 7d bc bd 9c 87 6e bd cd cf d6 bb
       0.020953126 -0.09203657 -0.058234796 -0.0065555335
0001c0 0a d7 2b 3d c3 99 7f 3c 9b a8 cf bc 25 53 91 bb
       0.041953124 0.0156006245 -0.025348952 -0.0044349604
0001d0 6f 8a 96 3d dd 4a 3f 3d e6 d5 e5 bb f3 de 22 bd
       0.07350623 0.046702255 -0.007014024 -0.039763402
0001e0 70 c9 59 bd ea 4a 82 3d 98 70 83 bc db 2d 94 bd
       -0.05317062 0.06361945 -0.0160449 -0.07235309
0001f0 0f 30 72 3d 1d 85 b7 bd ab 51 97 bd 4a 7c 89 3d
       0.059127863 -0.08960936 -0.07388624 0.067131594

action_model._discrete_distribution.branches.0.weight f4 [5, 128]
000000 dd 97 18 bd b9 04 58 3c 2b 3e 9f 3b cb 2e 6a 3c
       -0.037254203 0.01318472 0.004859706 0.014293383
000010 ea df 33 bc 04 4f 28 3d d4 e9 ff 3c 33 ed 0b ba
       -0.010978678 0.04109098 0.031239428 -0.00053377746
000020 2d 54 5b bd 85 76 85 3a 76 bb 5e bd 54 d6 07 bc
       -0.053547073 0.0010182416 -0.054377995 -0.008290846
000030 ae a9 09 3d 5c eb 02 3c 6b 84 11 bb 41 51 ee 3c
       0.033609085 0.007990684 -0.0022204171 0.02909148
000040 6a 89 0f 3d b1 69 86 bb 74 6f 0e 3c a9 07 c5 bb
       0.035043158 -0.004101955 0.008693565 -0.006012876
000050 22 62 48 bc 03 d5 8f bb c1 e1 d7 3c 52 6d 3b bd
       -0.012230428 -0.0043894066 0.026352765 -0.045758553
000060 9b a2 c4 bc 11 2b 33 bc c5 84 ae bc a6 ea cc bc
       -0.024003318 -0.010935561 -0.021303544 -0.025014233
000070 39 9d 7f ba c8 6a 60 bc af 4a 6a 3c 96 bd 8a bc
       -0.0009750906 -0.013697334 0.0143000325 -0.016936105
000080 16 4c 87 3c 9f 37 a9 bc c0 53 e7 bc 03 22 8c 3a
       0.016515773 -0.020656405 -0.028238177 0.0010691289
000090 19 20 83 bc a4 ae 5e bd 5c 4c d1 3c 78 7a b6 3b
       -0.016006516 -0.05436577 0.025549106 0.0055687986
0000a0 c2 a6 0e 3d 69 84 50 3d eb d9 25 bc 7a 21 80 bc
       0.034827 0.050907526 -0.0101227565 -0.015640963
0000b0 4f 6b 86 bc b1 01 48 3c 26 79 39 bd bc 59 b4 3c
       -0.01640859 0.0122074345 -0.04528155 0.022015445
0000c0 2f 72 04 bc d0 b1 07 3d 39 4a 43 3c b8 0f bf bc
       -0.008083864 0.03312856 0.0119195515 -0.023322925
0000d0 ca 21 7f 3a f9 08 70 3b 5b dd df 3c 30 db f8 3c
       0.0009732513 0.0036626442 0.02732723 0.030377954
0000e0 9b 4d 4f 3b 3c ef a0 ba 80 0b af 3c 4b db 16 bd
       0.003163195 -0.0012278329 0.021367788 -0.036830228
0000f0 a4 74 2e 3c c1 d4 17 3d 8a 0c 57 3c cf 72 7d 3c
       0.0106479265 0.037068132 0.013125548 0.015469267
000100 19 ce 98 bc e8 85 50 bc 4d e3 ab bc 34 58 6f 3c
       -0.018652963 -0.012727238 -0.020982409 0.014608432
000110 75 10 21 bb 3c 87 09 bd f2 b2 fe bc ed 26 29 3c
       -0.002457646 -0.033576235 -0.031091187 0.010324222
000120 fd e2 38 3c c9 1c a3 bc 32 fb cf bb 37 6f 0e bd
       0.011284587 -0.019911187 -0.0063470835 -0.03477403
000130 87 f4 10 bd ee 06 08 3d 28 fa 94 3c 59 94 09 3d
       -0.03538945 0.033209734 0.01818569 0.03358874
000140 fe a1 39 bd 0e b9 b7 bc 3d cb 16 3a 26 a1 31 3b
       -0.045320503 -0.022427108 0.0005752331 0.0027104109
000150 4e 43 28 3d 58 dd ab bc e6 df 5e 3c a0 c2 2d bc
       0.04107981 -0.020979568 0.013603186 -0.010605484
000160 d2 02 f6 3c e3 af e5 bc d7 a6 89 3c 4b 8d 4a bc
       0.030030642 -0.02803797 0.016803188 -0.012362788
000170 ad 5f 68 bb fd 0e 8a 3c 08 d2 7e 3c da b7 d2 3c
       -0.0035457418 0.01685285 0.015553005 0.025722433
000180 52 9b 53 3c fb 75 15 3d da bc 18 3d 85 2d c3 3c
       0.012915449 0.036489468 0.037289478 0.023825416
000190 10 f4 f3 3c 25 e7 80 bd da e1 8b bd aa 90 7c bd
       0.029779464 -0.06294087 -0.06830187 -0.0616614
0001a0 7c 61 3e 3d de 66 20 3d bd 07 13 3b c9 f4 91 3c
       0.046479687 0.0391606 0.0022435032 0.017816918
0001b0 2b 62 76 bb 93 bc 36 bc 0e 7b 53 3c c8 80 9f bc
       -0.0037595134 -0.011153358 0.0129077565 -0.019470587
0001c0 bd a9 91 bc e3 f9 0a 3c 69 08 54 3c ff 5e ab bc
       -0.017781133 0.008482429 0.012941458 -0.020919321
0001d0 a2 f4 16 bd 54 93 72 bc 11 89 b9 bb e3 49 24 bb
       -0.036854394 -0.014805634 -0.0056620915 -0.0025068454
0001e0 0f 3b 38 3d 22 74 aa 3c b5 a6 ca bc a3 b0 5d 3c
       0.044978198 0.02080733 -0.024737695 0.013530883
0001f0 f1 7d 7b 3c 28 3d 30 3d 1a 9a d9 ba 27 d2 41 bd
       0.015349851 0.043027073 -0.0016601712 -0.047319558
000200 f6 8e 5c 3c 69 be 1b bd 03 fb 8a 3d a5 3f 0c bd
       0.013461819 -0.038023386 0.06786158 -0.034240384
000210 81 2a b4 3a a4 13 b6 39 e4 09 ca 3c d4 b4 aa bc
       0.0013745577 0.00034728379 0.02466292 -0.020838179
000220 c6 a5 55 bc 4d 03 d1 bc b2 54 63 3c ce cd c9 bc
       -0.013040012 -0.02551427 0.013875173 -0.024634268
000230 07 09 94 bb ef cf 2a bd 97 3f 8c 3d 31 40 1e 3c
       -0.0045176777 -0.041702207 0.06848066 0.009658859
000240 ef e3 b3 3d f7 61 da bc f6 05 3a 3d 7d 5c df bc
       0.08783709 -0.026658041 0.04541584 -0.027265782
000250 0b 0c 8b bc 37 6b c0 3c 99 fa 5f bd b6 ff 99 3a
       -0.016973516 0.023488624 -0.054682348 0.0011749181
000260 44 24 b1 bc 3f 16 03 3d 75 5c b6 bc 4d ce 86 bc
       -0.021623738 0.032003637 -0.022260884 -0.016455794
000270 e2 6a eb bc 80 84 d4 3c 69 00 a0 bc 34 36 fa bc
       -0.02873749 0.025942087 -0.019531446 -0.030543424
000280 bf 1d 6c bd 65 d6 dd bc 5c be 43 39 82 d7 5d 3d
       -0.057645556 -0.02707977 0.00018667564 0.054160602
000290 9d 14 c2 3c 34 fe 0e bd ea e5 a1 3c 69 e6 24 3c
       0.02369147 -0.034910396 0.019762952 0.0100647
0002a0 e3 fd a0 3c d8 5e 66 3d 2c ca 80 bd 02 7e db bc
       0.019652313 0.056242794 -0.06288561 -0.026793484
0002b0 3b aa 39 bd 27 57 36 3d b0 7a 2c 3c bf f4 95 3d
       -0.04532836 0.04451671 0.010527298 0.07322072
0002c0 e9 9f 34 bd 04 3a 3b bd 15 c1 8c bc 95 03 41 3d
       -0.044097815 -0.045709625 -0.017181912 0.047122557
0002d0 53 3a ed bb 70 b2 6c bc b4 32 98 3d f9 44 c3 3c
       -0.007239619 -0.01444684 0.07431546 0.0238366
0002e0 81 5a 16 3d bb ab d9 bc e0 94 18 3c 68 fd 52 3c
       0.036707405 -0.026571145 0.009312838 0.0128778
0002f0 f6 fa 5e 3c 2d ae c4 3d 8e 5a e7 3c 4b 3e b6 3c
       0.013609638 0.09603534 0.028241422 0.0222465
000300 5c ce 66 bb 73 46 60 3d 79 fd a8 3b b5 e3 05 bd
       -0.0035218215 0.054754686 0.0051571694 -0.03268786
000310 01 99 93 3c 30 46 0c 3d 56 dc 73 3c 41 1c 3f bc
       0.018017294 0.034246624 0.014884075 -0.011664451
000320 62 ad 95 bb 2b fc 03 3c 49 cb 38 3d fb ef 2a 3d
       -0.004567788 0.008055727 0.045115743 0.04173277
000330 72 04 d7 bb 2c f2 87 3d 8e 8e 01 bc 45 eb ad bc
       -0.006561809 0.066379875 -0.007907523 -0.02123035
000340 a9 78 c1 3c 0f 32 b9 3c b7 b0 2e 3c ac 28 ef 3c
       0.023617106 0.022606878 0.010662249 0.029194199
000350 3d 40 29 3d 4a 3d 24 3c 88 81 68 3d e2 79 a6 bc
       0.041321028 0.010024378 0.056764156 -0.02032179
000360 33 48 aa 3c 05 84 a2 bc db 0b a0 3c 49 03 c1 bc
       0.02078638 -0.019838342 0.019536903 -0.023561137
000370 fd d1 3a 3d 5b 3c 2d bd 8a c3 d9 3c 16 a5 88 3c
       0.045610417 -0.042293888 0.026582498 0.016680282
000380 68 dc a7 3b 08 65 fd 3c b2 e0 a0 bb c5 b7 b8 ba
       0.00512271 0.030931965 -0.0049095983 -0.0014092854
000390 4f be 97 bc 70 a7 b6 3b ca 95 96 bc cc cb 17 3c
       -0.018523363 0.0055741593 -0.018381972 0.009264898
0003a0 ef 7c 5e 3b df 25 42 bc 2d 50 80 3c 0d 28 8e 3d
       0.0033948978 -0.0118498495 0.01566323 0.06941233
0003b0 c7 a6 f0 3c 93 8d 6f 3d 20 89 5f 3d 2f 15 2d 3d
       0.0293764 0.058484625 0.054574132 0.04225653
0003c0 44 36 41 bc b7 b1 db 3c ec 1d c5 bb 2c f4 0a bd
       -0.011792723 0.02681814 -0.00601553 -0.033924267
0003d0 bf 75 e6 bc 85 1b 28 bd 49 97 cc b8 79 57 98 bc
       -0.028132318 -0.04104187 -9.755657e-05 -0.018596398
0003e0 49 c9 9a 3b ed cc f1 bc cc bb 5a 3d 7e 45 3e 3d
       0.004723702 -0.029516662 0.053401753 0.04645299
0003f0 e1 57 32 bd 92 f5 ea bb 1e 49 24 3d 0a 24 65 bc
       -0.04354084 -0.0071703875 0.040108792 -0.013985643

action_model._discrete_distribution.branches.0.bias f4 [5]
000000 65 aa 90 bc 78 ce 83 bd 00 41 f4 bb 6e b0 9c bc
       -0.017659375 -0.06435865 -0.0074540377 -0.019127097
000010 a9 7c b5 3d
       0.08861668

onnx::Div_52 f4 [13]
000000 e1 f3 1d 3f 49 a0 10 3d f0 6b 08 3f 8d 41 19 43
       0.61700255 0.03530911 0.532897 153.25606
000010 90 55 b8 3a 90 55 b8 3a 13 f1 1b 3f d0 fc 4e 3e
       0.0014063586 0.0014063586 0.60914725 0.20213628
000020 2d 95 27 3f be fd f7 42 cb 93 3b 3f cb 67 8c 3d
       0.65462 123.99559 0.7327239 0.068557344
000030 54 9b 2c 3f
       0.6742451
