Assets/ML-Agents/Models/RabbitAggressive.onnx (onnx, 81702 bytes, 8 tensors)

network_body.observation_encoder.processors.0.normalizer.running_mean f4 [13]
0	0x3d94cca7	0.07265597
1	0x3c3ecaff	0.011645078
2	0xbc264c02	-0.010149958
3	0x439a47e9	308.5618
4	0x00000000	0.0
5	0x00000000	0.0
6	0x3d76255e	0.06009423
7	0xbb74ff4f	-0.003738362
8	0xbc2e0c92	-0.010623114
9	0x43bb4227	374.5168
10	0xbc59d067	-0.013294316
11	0xba05ab5f	-0.00050990836
12	0xbb99c900	-0.0046931505

network_body._body_endoder.seq_layers.0.weight f4 [128, 13]
0	0x3dad5fc5	0.08465532
1	0x3ddb0c6d	0.106957294
2	0x3e1e8558	0.15480554
3	0x3cbb3732	0.022853468
4	0x3eb0f2e5	0.34560314
5	0x3cae021a	0.021241236
6	0xbe67cb72	-0.22636202
7	0xbe90296b	-0.281566
8	0x3d1496d2	0.036276646
9	0x3dbfc0db	0.09362956
10	0xbe25256c	-0.16127557
11	0xbe1c0c9b	-0.15239184
12	0xbeaee8ee	-0.34162086
13	0x3ec13e4c	0.3774284
14	0xbd57061e	-0.05249607
15	0xbdd811f8	-0.10550302
16	0x3eaf23dd	0.3420705
17	0xbeb137f9	-0.34613016
18	0xbbf0c7f0	-0.007348053
19	0xbd9d45d9	-0.07679338
20	0xbe936ac6	-0.287924
21	0xbec19fb2	-0.3781715
22	0xbedc2e11	-0.43003896
23	0x3ec18eda	0.378043
24	0xbefe61f6	-0.49684113
25	0xbddad14e	-0.10684453
26	0xbdb65366	-0.08902626
27	0xbdeae4ab	-0.11469396
28	0x3e3c2102	0.18371966
29	0x3e12955a	0.14314786
30	0xbdd11bbe	-0.102103695
31	0xbf18b26f	-0.5964727
32	0xbecd1ee7	-0.4006264
33	0x3c0ec930	0.008714959
34	0x3e840ef9	0.25792673
35	0x3da85503	0.0821934
36	0x3e70a5da	0.23500767
37	0xbe8db34c	-0.27675855
38	0x3f16f53c	0.5896795
39	0x3ca0b18e	0.019615915
40	0xbec462eb	-0.38356718
41	0x3cfecb6d	0.03110286
42	0x3e8bbb24	0.27291214
43	0x3e7b647b	0.24550049
44	0x3d6c03df	0.05762088
45	0x3ec036ec	0.37541902
46	0x3d897738	0.06712192
47	0xbf189104	-0.59596276
48	0x3ec64c1d	0.38729945
49	0x3e30060b	0.17189805
50	0x3e844339	0.25832537
51	0x3eac4574	0.3364674
52	0xbd67151a	-0.05641661
53	0xbeba505e	-0.3638944
54	0x3f0052d1	0.5012637
55	0xbf087e84	-0.5331805
56	0x3e6db6f0	0.23214316
57	0x3d99a629	0.07502396
58	0xbef23591	-0.47306493
59	0xbf6a0a54	-0.9142201
60	0x3e4bf7b8	0.19918716
61	0xbe7db104	-0.24774557
62	0x3f1162d8	0.5679145
63	0xbe3cea1d	-0.18448682
64	0xbea86c6d	-0.32895222
65	0xbe42e7af	-0.19033693
66	0x3decfff4	0.11572257
67	0xbe3e2a89	-0.18570913
68	0xbe510101	-0.20410539
69	0xbe77d4fb	-0.2420234
70	0xbe2a73fc	-0.16645807
71	0x3e0e2d71	0.13884522
72	0xbe67a8be	-0.22622964
73	0xbe6e58c3	-0.23276047
74	0x3dbf2f8b	0.0933524
75	0xbebae3d4	-0.36501944
76	0xbe536286	-0.20643052
77	0x3dadddff	0.08489608
78	0x3e0dbe69	0.13842167
79	0x3ae97a3f	0.0017812921
80	0x3eb132f4	0.34609187
81	0xbe5ac118	-0.21362722
82	0xbf18ab04	-0.5963595
83	0x3ecaedca	0.39634544
84	0x3e2b2989	0.16715063
85	0xbe823c68	-0.2543671
86	0xbeed2d53	-0.46323642
87	0xbdefc130	-0.117067695
88	0xbe6c79d6	-0.23093352
89	0xbe14fee9	-0.14550366
90	0xbe0aac5c	-0.13542312
91	0x3e553958	0.20822656
92	0x3e40f374	0.1884287
93	0x3ecf6b5f	0.40511605
94	0xbe061c83	-0.13096814
95	0xbe4f89c3	-0.20267396
96	0x3d6651e5	0.056230444
97	0x3e39dd5b	0.18150847
98	0x3e2cd46d	0.16877909
99	0xbdb4bd5e	-0.088251814
100	0xbe3a8bd2	-0.182174
101	0x3e7a9870	0.24472213
102	0x3dc418f9	0.09575076
103	0x3e88a0ce	0.26685184
104	0xbe84a479	-0.25906733
105	0x3e88b354	0.26699317
106	0x3e79db07	0.24399959
107	0x3e97bda8	0.29636884
108	0xbda945c5	-0.082652606
109	0x3eb7d74f	0.35906455
110	0x3e676c10	0.22599816
111	0xbead12fb	-0.33803543
112	0x3df6818b	0.12036427
113	0x3e99705b	0.29968533
114	0x3e37471e	0.17898223
115	0xbdbe3758	-0.092879
116	0xbe542696	-0.20717844
117	0xbea52bef	-0.3226008
118	0xbd539032	-0.051651187
119	0xbed83d18	-0.4223411
120	0xbe279076	-0.16363701
121	0x3e390670	0.18068862
122	0x3f2b123a	0.66824687
123	0x3e36c5bf	0.17848872
124	0x3f0e46a8	0.5557656
125	0xbcfab4b5	-0.030603746
126	0xbe5c71a7	-0.2152773
127	0xbe436c95	-0.1908439
128	0xbd986fea	-0.07443221
129	0xbe70bddd	-0.23509927
130	0x3ea33b2f	0.3188109
131	0xbde2a0c7	-0.11065822
132	0x3dfdf891	0.12400926
133	0xbe6e5941	-0.23276235
134	0x3b1c0323	0.002380558
135	0xbd4ba208	-0.049715072
136	0xbe6b9990	-0.23007798
137	0xbdbfba24	-0.093616754
138	0x3e0fc9e0	0.14041853
139	0x3c9af58d	0.018915916
140	0x3df845a6	0.121226594
141	0x3d3096b0	0.043112457
142	0xbe9641db	-0.2934712
143	0xbf42daf1	-0.7611533
144	0xbe9197a7	-0.28436014
145	0xbdc3c6bd	-0.09559391
146	0x3e601545	0.21883114
147	0xbeca5eae	-0.3952536
148	0xbe56298d	-0.20914288
149	0x3e8fce17	0.28086922
150	0xbe3dc678	-0.18532741
151	0x3f03dae7	0.51505893
152	0xbe9bafd6	-0.3040759
153	0x3ebd7fad	0.3701147
154	0xbe25fb5a	-0.16209164
155	0x3e0e913e	0.13922593
156	0xbd45f96e	-0.048333578
157	0x3d2301ad	0.03979652
158	0xbef5bdca	-0.4799636
159	0xbeed70ed	-0.46375218
160	0x3eb5a4d8	0.35477328
161	0x3d40cb42	0.04706884
162	0x3e9f3b0e	0.31099743
163	0x3d4bd9b9	0.049768183
164	0xbda5aab1	-0.080891974
165	0x3e849ddf	0.25901696
166	0xbe93256d	-0.2873949
167	0x3ce21de8	0.027602151
168	0x3e84cea9	0.2593892
169	0xbdcd4b96	-0.100241825
170	0x3f0447e9	0.51672226
171	0xbdcadfdd	-0.0990598
172	0x3be243ec	0.0069050696
173	0xbe7461d9	-0.23865451
174	0x3de79dd1	0.11309398
175	0x3f06f8e0	0.52723503
176	0x3f07ef89	0.53099877
177	0xbddb2468	-0.10700303
178	0xbd82b244	-0.06381658
179	0x3d410289	0.04712156
180	0x3f002d4d	0.50069124
181	0xbcc995c6	-0.02460755
182	0xbdf800c4	-0.12109521
183	0xbd47c938	-0.04877588
184	0x3c78eb88	0.015192874
185	0x3e2a1bd2	0.16612175
186	0x3cb976cc	0.022639655
187	0xbf512973	-0.8170387
188	0x3e207ee9	0.15673412
189	0x3e495ec5	0.19665058
190	0xbdaf9f16	-0.08575265
191	0x3edb05ef	0.42777964
192	0x3e2e5291	0.17023684
193	0x3dc951f8	0.098300874
194	0x3ee114e3	0.43961248
195	0x3e9548e6	0.2915718
196	0xbee579f6	-0.4481961
197	0xbf064fa6	-0.52465284
198	0x3db9613b	0.09051748
199	0x3e113a1c	0.14182323
200	0xbe27ca90	-0.16385865
201	0x3e0fcbdb	0.14042608
202	0x3de15ed4	0.11004415
203	0xbe824460	-0.2544279
204	0x3e9794ba	0.29605657
205	0xbe05be8d	-0.1306097
206	0x3e782f42	0.24236777
207	0xbbbe3a39	-0.0058052805
208	0x3ed18f08	0.40929437
209	0x3e9eb2d7	0.3099582
210	0x3efb8f8e	0.4913296
211	0xbe59c564	-0.21266705
212	0xbf16c15d	-0.588888
213	0xbe4c3d98	-0.19945371
214	0xbd99356d	-0.07480893
215	0x3e771c12	0.24131802
216	0x3dfb9f3f	0.12286233
217	0xbe543e94	-0.20726997
218	0xbe16f66a	-0.14742437
219	0x3ef44c9c	0.47714698
220	0x3f4db68b	0.80356663
221	0x3e0c9fa6	0.13732776
222	0xbe641eda	-0.22277394
223	0xbd01cd5b	-0.031689983
224	0x3e0abe01	0.13549043
225	0xbedbc092	-0.42920357
226	0x3e202ab4	0.1564129
227	0x3ddf0e2f	0.10891377
228	0xbe467958	-0.19382226
229	0xbbbf5383	-0.005838813
230	0x3e335958	0.1751455
231	0xbec729fd	-0.38899222
232	0x3e7d1294	0.24714118
233	0x3ee0d586	0.43912905
234	0x3d94a233	0.072574995
235	0xbedc5896	-0.43036336
236	0xbe437e33	-0.1909111
237	0xbe1c6a44	-0.15274912
238	0xbe8b403b	-0.2719744
239	0x3d3b9b21	0.04580224
240	0x3dd6f94f	0.104967706
241	0x3e0cbd89	0.13744177
242	0x3e9f54b9	0.31119326
243	0xbe82d95f	-0.25556466
244	0x3d828abe	0.06374119
245	0xbec26feb	-0.37976012
246	0xbebb0bf3	-0.36532554
247	0xbe7a0594	-0.2441619
248	0xbe90d1e4	-0.28285134
249	0x3dd38d16	0.103296444
250	0x3edce9ba	0.4314707
251	0x3ee83849	0.45355442
252	0x3e868a20	0.26277256
253	0xbcd911ea	-0.0264978
254	0x3e4cf1b7	0.20014082
255	0xbeb15dee	-0.34641975

network_body._body_endoder.seq_layers.0.bias f4 [128]
0	0xbd214282	-0.039370067
1	0xbc6152f1	-0.013752685
2	0x3c0c7126	0.008571899
3	0xbd460757	-0.048346844
4	0xbc3791da	-0.011204207
5	0xbc8992e2	-0.016793672
6	0xbc04558f	-0.008077039
7	0xbc976f23	-0.018485611
8	0xbcb38b6b	-0.021917066
9	0xbcf74c3e	-0.030187722
10	0xbd2d6f97	-0.04234275
11	0xbc5504e3	-0.013001653
12	0x3be3883a	0.0069437297
13	0xbcc62aa3	-0.024190253
14	0xbb727421	-0.0036995488
15	0xbd20e3db	-0.0392798
16	0xbc4299d3	-0.011877495
17	0xbcd814fe	-0.026377197
18	0xbcaa7de3	-0.02081198
19	0xbcfb95e3	-0.03071112
20	0xbc7ac100	-0.015304804
21	0xbd90fa16	-0.0707895
22	0xbd0ced87	-0.03440621
23	0x3b1a8073	0.0023575097
24	0xbbd8bdc0	-0.006614417
25	0xbd27167d	-0.04079293
26	0x3cc0a5bc	0.023516528
27	0x3b0de172	0.0021649268
28	0x384b01a7	4.840051e-05
29	0xbc83e5fc	-0.016100876
30	0x3c305920	0.010763437
31	0xbbc11eee	-0.0058935797
32	0xbc9aa901	-0.018879415
33	0xbc8ba375	-0.017045716
34	0xbce3d754	-0.027812637
35	0xbd19e211	-0.03756911
36	0xbd2b6909	-0.041848216
37	0xbbbf6cf4	-0.0058418456
38	0xbcf22a1a	-0.029561091
39	0xbd41cbdb	-0.047313552
40	0xbbcf02a4	-0.0063174535
41	0x3cd30b73	0.025762295
42	0x3d4265ad	0.047460247
43	0xbc1e2564	-0.009652469
44	0xbc467ccf	-0.012114718
45	0x3c224230	0.009903476
46	0xbcc2c558	-0.023775741
47	0x3b87c72c	0.004143616
48	0x3d229a34	0.03969784
49	0xbcaeed9d	-0.021353537
50	0xbd614e3c	-0.05500625
51	0x3c6f3c77	0.014601818
52	0x3a4cf59b	0.00078185805
53	0x3b4b155c	0.0030988073
54	0xbcd7aba5	-0.026326964
55	0xbcd02019	-0.02540593
56	0xbcbee207	-0.023301138
57	0xbc033449	-0.008008071
58	0x3d37f1a3	0.044908177
59	0xbd8de12e	-0.06927715
60	0xbb64a170	-0.0034886263
61	0x3b55601f	0.0032558513
62	0x3d1d2cd1	0.03837282
63	0xbb058166	-0.0020371317
64	0xbc85d988	-0.016339079
65	0xbc920ee6	-0.01782937
66	0x3bb19e49	0.0054204804
67	0xbd15f6bf	-0.03661227
68	0x3d0980b2	0.03357
69	0x3c177860	0.009245008
70	0x3c429b56	0.011877855
71	0xbccaf133	-0.024773216
72	0x3cc5ad8f	0.02413061
73	0xbd1128da	-0.03543935
74	0xbcd62b3d	-0.026143664
75	0x3bef8abe	0.0073102405
76	0xbd35c892	-0.044380732
77	0xbd5f5827	-0.054527428
78	0xbaab0030	-0.001304632
79	0xbcfa0a56	-0.030522507
80	0xbd004124	-0.031312123
81	0x3d093207	0.033494975
82	0x3d406773	0.046973657
83	0xbd118bd0	-0.035533726
84	0x3cfaac5a	0.030599762
85	0xbc2f1864	-0.0106869675
86	0xbc18e904	-0.009332899
87	0x3bd6ec9d	0.006558968
88	0x3ca99c5f	0.020704446
89	0xbc0b773e	-0.008512316
90	0xbba638bf	-0.0050726826
91	0xbc20f2c4	-0.009823505
92	0x3db27361	0.08713413
93	0xbd113fc6	-0.03546121
94	0xba970c1a	-0.0011523992
95	0xbca9f7c1	-0.020748021
96	0xbb842c22	-0.0040335814
97	0xbd194fdb	-0.03742967
98	0xbd6d7028	-0.05796829
99	0xbc83bb40	-0.016080499
100	0xbd27b14e	-0.040940575
101	0xbcea794a	-0.028622288
102	0x3d49ff5f	0.049315806
103	0xbc86eb81	-0.016469719
104	0xbd292b68	-0.04130116
105	0x3afb8f40	0.0019192472
106	0xbc5fe4ec	-0.013665419
107	0xbbedc12d	-0.0072556944
108	0x3d044467	0.032291796
109	0x3ce87aeb	0.028378924
110	0xbd3a0224	-0.045412198
111	0x3c5fda7e	0.013662932
112	0xbc954bfa	-0.018224705
113	0xbd5b6c12	-0.05356986
114	0x3b657c0d	0.0035016567
115	0xbb5bd227	-0.0033542009
116	0x3cdc5c98	0.02689962
117	0x3cf0ed14	0.029409923
118	0x3d1b211f	0.037873384
119	0x3c7d14a3	0.015446815
120	0xbce7f726	-0.028316092
121	0x3ce3a29e	0.027787503
122	0xbcea0a91	-0.028569492
123	0xbb70fb33	-0.003677082
124	0xbc3f7c4b	-0.011687349
125	0x3c8e645c	0.01738184
126	0xba38313d	-0.000702638
127	0x3bc15b10	0.005900748

network_body._body_endoder.seq_layers.2.weight f4 [128, 128]
0	0x3c4c251e	0.012460021
1	0x3d805d60	0.0626781
2	0x3cbf206b	0.023330888
3	0xbb9e9239	-0.0048392084
4	0xbd6a84ba	-0.057255484
5	0xbdb00263	-0.08594205
6	0xbe2f93a2	-0.17146161
7	0xbd5135ed	-0.05107682
8	0xbdc8108a	-0.097687796
9	0x3d3c281e	0.045936696
10	0x3dc947da	0.09828158
11	0x3e2a91b0	0.16657138
12	0x3db7889e	0.089616045
13	0xbc723870	-0.014783964
14	0xbcc85faf	-0.024459688
15	0x3d3b692d	0.0457546
16	0x3baa361e	0.0051944396
17	0x3d4a96e7	0.049460318
18	0xbd67cc51	-0.056591336
19	0x3cb43bfd	0.02200126
20	0xbd34fa11	-0.044183794
21	0xbca26848	-0.019825116
22	0xbb0bbe05	-0.0021322977
23	0x3e19c5c3	0.15016846
24	0xbd1386f3	-0.03601737
25	0x3d488dfc	0.04896353
26	0x3b8dfc3e	0.004333048
27	0xbcff2c8e	-0.031149175
28	0xbd3839fd	-0.044977177
29	0xbdaee2e6	-0.08539371
30	0x3dc4a40f	0.09601604
31	0xbd8a09ca	-0.06740148
32	0x3dd7d2a8	0.10538226
33	0xbd302169	-0.043000612
34	0xbe13dda4	-0.14440018
35	0xbc56c64e	-0.013108803
36	0x3d76c2b0	0.060244262
37	0x3cbe0618	0.023196265
38	0x3d22db53	0.039759945
39	0xbd9ce212	-0.07660307
40	0xbd323d0b	-0.043515246
41	0xbd98fba6	-0.07469873
42	0x3d936d95	0.071986355
43	0xbdeff091	-0.11715806
44	0x3e17a9a6	0.1481081
45	0x3dd5535e	0.10416292
46	0x3d0d5655	0.03450616
47	0xbd9edc91	-0.077569135
48	0xbe8f91ec	-0.28041017
49	0xbdd4d1dd	-0.10391591
50	0x3dc110df	0.09427046
51	0xbba463b5	-0.005016769
52	0x3ce79a69	0.02827187
53	0x3d67acd6	0.056561314
54	0x3e3f392a	0.1867415
55	0xbc8ad810	-0.01694873
56	0x3e6b5fd2	0.22985771
57	0x3d48dea0	0.049040437
58	0xbd64e350	-0.055880845
59	0x3b6054bb	0.003423019
60	0x3d932a66	0.07185821
61	0xbb7384f9	-0.0037158115
62	0xbd74f4b7	-0.05980369
63	0x3d930c82	0.0718012
64	0x3d85f8fc	0.065416306
65	0x3d4e0d21	0.05030549
66	0x3e3aa4f1	0.18226983
67	0xbcfde846	-0.030994546
68	0x3d2f1b3c	0.042750582
69	0x3d040c26	0.03223815
70	0xbe1d00e8	-0.15332377
71	0xbe61f285	-0.2206517
72	0xbcc1d0fd	-0.023659224
73	0xbcf6f9ce	-0.030148413
74	0x3e1ad984	0.15122038
75	0x3d6d8d7a	0.05799625
76	0xbd28fc42	-0.041256197
77	0xbc8e89b6	-0.01739965
78	0x3e18c9e2	0.14920762
79	0xbd62cc1e	-0.055370443
80	0x3d83f097	0.06442373
81	0xbda22ab7	-0.079183035
82	0xbdc91dca	-0.09820135
83	0x3d934b79	0.0719213
84	0x3cbb2101	0.022842886
85	0xbd984291	-0.074345715
86	0x3d2ea884	0.042641178
87	0xbe50253f	-0.20326708
88	0x3c0dc09d	0.00865188
89	0x3d7be9d3	0.06150229
90	0x3d612c96	0.05497416
91	0xbe5c448a	-0.2151052
92	0x3c13a4bd	0.009011445
93	0x3d6e6cd0	0.05820924
94	0xbd18e6ef	-0.03732961
95	0xbdb80ad6	-0.08986442
96	0x3c353a00	0.011061192
97	0xbddefd36	-0.1088814
98	0x3dc50515	0.0962011
99	0x3ce05778	0.027385458
100	0xbd7d0ee2	-0.06178177
101	0x3df26468	0.11835557
102	0x3ca5646f	0.020189492
103	0x3ca615bc	0.020274036
104	0x3d8de7f9	0.06929011
105	0x3b6856ae	0.0035452056
106	0x3d85236d	0.065008976
107	0x3c1e8d1f	0.009677201
108	0x3e65224d	0.22376366
109	0x3d1296ff	0.035788532
110	0xbd8271b8	-0.063693464
111	0xbd61df5b	-0.05514465
112	0xbe340242	-0.17578986
113	0xbd9ec12a	-0.07751687
114	0x3db4963e	0.08817719
115	0xbda4255a	-0.08014937
116	0xbc496015	-0.012290974
117	0x3da2b6a6	0.07944994
118	0x3dffb4c5	0.12485651
119	0xbc5794a6	-0.013157999
120	0xbd2ef30f	-0.042712267
121	0xbdd482a5	-0.10376481
122	0x3d32e0ce	0.04367142
123	0xbc3fef00	-0.011714697
124	0x3cd89962	0.026440326
125	0xbc8050dd	-0.015663559
126	0x3d73ec78	0.059551686
127	0xbd9c07fc	-0.076187104
128	0x3df8b4ba	0.12143846
129	0xbbd3a58c	-0.0064589437
130	0xbd217cc6	-0.039425634
131	0xbd3a019e	-0.0454117
132	0xbdc0bcda	-0.094110206
133	0x3e23d0b8	0.15997589
134	0x3c632b64	0.013865326
135	0x3de6c764	0.112684995
136	0xbd49d2da	-0.04927335
137	0xbd98cfe7	-0.07461529
138	0xbda46577	-0.080271654
139	0xbc3e49d7	-0.0116142845
140	0x3e1cd541	0.15315725
141	0x3b0c628e	0.0021421048
142	0xbb042d9a	-0.0020168782
143	0xbc1985ca	-0.009370277
144	0x3db7999f	0.08964848
145	0xbdbc03a0	-0.09180379
146	0x3d24839f	0.040164586
147	0x3cbf65f7	0.02336405
148	0x3d67bed1	0.05657846
149	0x3b3d02f6	0.0028840876
150	0xbd690617	-0.056890573
151	0x3de9472f	0.1139053
152	0xbe269af6	-0.1627005
153	0xbb898d99	-0.004197788
154	0xbd82b9b5	-0.06383077
155	0xbce18142	-0.027527455
156	0x3cac351b	0.021021416
157	0x3c947521	0.018122258
158	0x3ca9202f	0.02064523
159	0xbdef75be	-0.116923794
160	0xbdbd5112	-0.092439786
161	0x3d44e770	0.04807228
162	0x3d05be3d	0.03265213
163	0x3e2e11a5	0.16998918
164	0xbe969e31	-0.29417565
165	0x3d7e9d5e	0.062161796
166	0x3d5cc796	0.053901277
167	0xbda5572e	-0.08073269
168	0x3dda6f05	0.106657065
169	0xbe29009e	-0.16504142
170	0xbd417f40	-0.047240496
171	0xbd81beda	-0.0633523
172	0x3d819a4e	0.063282594
173	0x3ce692d7	0.02814619
174	0x3c87c039	0.016571151
175	0xbd8d2aff	-0.068929665
176	0xbe4d7555	-0.2006429
177	0x3c297fa4	0.010345373
178	0xbcaf9b55	-0.021436373
179	0x3e1ae83f	0.15127657
180	0x3dbafce3	0.091302656
181	0x3d04bdd6	0.032407604
182	0x3cf01768	0.029308036
183	0xbbc45f40	-0.0059928
184	0xbdb5c2dd	-0.08875058
185	0xbd9d4163	-0.07678487
186	0xbd8b6549	-0.06806428
187	0x3d8d3982	0.06895734
188	0x3dcbcb84	0.09950927
189	0xbd4767f5	-0.048683126
190	0x3c3be010	0.011466995
191	0x3e08465a	0.13308087
192	0xbd3207e3	-0.043464553
193	0xbdd4ed85	-0.10396866
194	0x3b71a52c	0.0036872132
195	0xbc9bb42e	-0.019006815
196	0x3a143065	0.00056529633
197	0xbc899bcf	-0.016797928
198	0xbd90228b	-0.070378385
199	0x3d686219	0.05673418
200	0x3ded9240	0.116001606
201	0x3d543f04	0.05181791
202	0xba0ffbdb	-0.00054925465
203	0xbb3b0818	-0.002853876
204	0x3d1680ad	0.03674381
205	0xbdbad45e	-0.09122537
206	0xbe1b9177	-0.15192209
207	0x3cf55dc5	0.02995194
208	0x3c8259ac	0.0159119
209	0xba88fb02	-0.0010450783
210	0xbe4250e8	-0.18976176
211	0xbc876bac	-0.016530834
212	0x3df95bc0	0.12175703
213	0x3c71c406	0.014756208
214	0xbce21d1f	-0.027601777
215	0x3d67e329	0.05661312
216	0xbcc859af	-0.024456827
217	0xbcaba824	-0.0209542
218	0x3ca75d7e	0.020430323
219	0x3dd03115	0.10165612
220	0x3d2ec72e	0.04267042
221	0xbb14209d	-0.0022602447
222	0xbde6c85a	-0.11268683
223	0x3de1aa4c	0.1101881
224	0x3cce2ca9	0.02516778
225	0x3d054f4e	0.032546334
226	0x3ba864eb	0.0051389835
227	0x3e505b14	0.20347244
228	0x3dcd7b57	0.10033291
229	0xbd039cac	-0.032131836
230	0xbdc9042d	-0.098152496
231	0x3dbc43df	0.09192633
232	0xbdb55747	-0.088545375
233	0xbcb999be	-0.022656318
234	0x3de545ff	0.11194991
235	0x3d07449a	0.033024408
236	0x3ad379b6	0.0016134295
237	0xbde58257	-0.11206501
238	0x3dbdf783	0.09275725
239	0x3d918ce1	0.07106949
240	0x3e2e1993	0.17001943
241	0x3d654be3	0.055980574
242	0x3d8215fc	0.063518494
243	0x3de3d22c	0.111240715
244	0xbcfab358	-0.030603096
245	0x3dc1a876	0.094559595
246	0xbda1799c	-0.07884523
247	0xbd8958fc	-0.067064255
248	0x3d35f779	0.04442546
249	0xbdf6e761	-0.12055851
250	0x3d4bd25a	0.049761154
251	0xbd9187b8	-0.071059644
252	0x3cc4c406	0.024019253
253	0xbdba94dd	-0.09110425
254	0x3e05c229	0.13062347
255	0x3d85ce61	0.06533504

network_body._body_endoder.seq_layers.2.bias f4 [128]
0	0xbd15d083	-0.036575805
1	0xbce8c778	-0.028415427
2	0x3ca7f44a	0.020502228
3	0xbccda24c	-0.025101803
4	0xbc0c64c3	-0.008568945
5	0xbc4f37e1	-0.0126476
6	0xbd31cbd1	-0.043407265
7	0xbd4dd4b7	-0.05025169
8	0xbcdf0c05	-0.027227411
9	0x3b7f0db2	0.0038918075
10	0xbd1f2e6f	-0.038862642
11	0xbd9eb55c	-0.07749435
12	0xbb0e9f13	-0.0021762296
13	0x3c9743cb	0.018464943
14	0x3c8c388f	0.017116813
15	0xbca93fed	-0.020660365
16	0xbc1eeb6b	-0.009699683
17	0xbcb20866	-0.02173252
18	0xbd2bbea1	-0.041929845
19	0xbd11e6fb	-0.03562067
20	0xbce77a76	-0.028256636
21	0x3be16165	0.0068780654
22	0xbca0f650	-0.019648701
23	0xbd7a1b15	-0.061060984
24	0xbd2dcf6a	-0.042434134
25	0xbda94bd9	-0.0826642
26	0xbcb362ef	-0.021897761
27	0x3c7de23f	0.015495836
28	0xbcde8d42	-0.027166966
29	0xbcf246cd	-0.029574776
30	0xbcdd4a71	-0.027013035
31	0xbca61534	-0.020273782
32	0xbd1fe5ce	-0.03903752
33	0x3cd0bda5	0.025481055
34	0xbd8e6789	-0.069533415
35	0xbb15dace	-0.0022866013
36	0xbc7ef777	-0.01556193
37	0xbcb6e07a	-0.022323836
38	0xbd129ec4	-0.035795942
39	0xbb7d0039	-0.003860487
40	0xbce231f5	-0.027611712
41	0xbb8b4cc2	-0.0042510936
42	0xbcbd1e0a	-0.023085613
43	0xbcc8f802	-0.024532322
44	0xbb783775	-0.0037874852
45	0x3b4a1295	0.003083383
46	0x3d0701d3	0.032960724
47	0x3ca21385	0.019784698
48	0xbcdcd1f7	-0.026955588
49	0xbd087321	-0.03331292
50	0x3cbaec00	0.022817612
51	0x3b1a16d6	0.0023512146
52	0xbd7dd321	-0.061968926
53	0x3c3ddab0	0.011587784
54	0xbcabe536	-0.02098332
55	0xbbf6c014	-0.0075302217
56	0xbcad4a4c	-0.021153592
57	0x3cad78f4	0.021175839
58	0xbc1c30b5	-0.009533097
59	0xbd1114d9	-0.035420272
60	0xba8e789d	-0.0010869686
61	0xbc569a23	-0.0130982725
62	0xbcc259ec	-0.023724519
63	0xbc3b08c3	-0.011415663
64	0xbb8bbf07	-0.0042647156
65	0xbc4c3220	-0.012463123
66	0xbac72e75	-0.001519634
67	0xbc83782a	-0.01604851
68	0xbcf1538b	-0.029458782
69	0x3b8c86d7	0.004288535
70	0x3cebae3e	0.028769609
71	0xbcb1f3e4	-0.021722741
72	0xbd7433df	-0.05961978
73	0xbbe5cdb8	-0.007013049
74	0xbc805e50	-0.015669972
75	0xbd21dd49	-0.039517675
76	0x3d0aaa70	0.033853948
77	0x3c3a1a4f	0.0113588115
78	0xbba62552	-0.005070367
79	0x3b6b1acd	0.0035874129
80	0xbc813d74	-0.015776373
81	0xbb8e5a98	-0.0043442957
82	0x3cc503b8	0.024049625
83	0xbcd5ece0	-0.026113927
84	0xbaf73142	-0.0018859284
85	0x3d1b5a4f	0.03792792
86	0xbc9f520b	-0.0194483
87	0x3d1f80e9	0.038941298
88	0xbc876427	-0.016527249
89	0x3c5d8e73	0.013522732
90	0xbae62845	-0.0017559609
91	0xbc26d415	-0.0101824
92	0xbca412c6	-0.020028483
93	0x3c8d2251	0.017228277
94	0x3cc3376a	0.023830134
95	0x3bc7e8a1	0.0061007296
96	0xbc1e5a87	-0.009665138
97	0xbc4ad472	-0.0123797525
98	0xbd0eea87	-0.03489163
99	0x3ae0502b	0.0017113736
100	0xbd0aa43e	-0.03384804
101	0xbbae8a65	-0.0053265565
102	0xbc539ebf	-0.012916266
103	0x3be39c5d	0.00694613
104	0xbd536efb	-0.05161951
105	0xbd0f8d64	-0.03504695
106	0x3c402e25	0.011729752
107	0x3ce28134	0.0276495
108	0x3b1d0d43	0.0023964203
109	0x3ca8116f	0.020516125
110	0xbd350378	-0.04419276
111	0xbd6f83ab	-0.058475178
112	0xbcdd29e7	-0.02699752
113	0xbc95a203	-0.01826573
114	0xbca52585	-0.020159492
115	0xbd20595a	-0.039147712
116	0x3d0cf285	0.034410972
117	0xbca9f373	-0.020745968
118	0xbd1d030c	-0.038332984
119	0xbd60054a	-0.054692544
120	0xbcee2b01	-0.02907324
121	0x3b711585	0.0036786508
122	0xbcc60627	-0.024172856
123	0xbbf0e9db	-0.0073520965
124	0x3c3dc887	0.011583454
125	0xbc8d2905	-0.017231474
126	0xbc14c4e7	-0.009080148
127	0xbbcbd35f	-0.0062202658

action_model._discrete_distribution.branches.0.weight f4 [5, 128]
0	0x3c8ad6d9	0.01694815
1	0x3c50911a	0.012729907
2	0xbcc42144	-0.023941644
3	0xbc84f6cd	-0.016230965
4	0xbce17d6a	-0.027525622
5	0x3b843817	0.0040350067
6	0xbc834e40	-0.016028523
7	0xb990f702	-0.00027649855
8	0xbce3723e	-0.027764436
9	0x3c162bc2	0.009165706
10	0xbbfea9ba	-0.007771698
11	0xbca455e8	-0.020060495
12	0xbc08363c	-0.008313712
13	0xbb59ea71	-0.003325131
14	0x3c451b30	0.012030408
15	0xbca55715	-0.020183126
16	0x3b81e756	0.003964345
17	0x3c29aba4	0.010355864
18	0xbc0adc9d	-0.00847545
19	0xbc2fa251	-0.010719852
20	0x3bf58719	0.0074929115
21	0xbaeb4068	-0.0017948272
22	0xbd4d31d9	-0.050096367
23	0xbd1166c0	-0.03549838
24	0xbd20dcde	-0.039273135
25	0xbc981803	-0.018566137
26	0xbcbf4bed	-0.023351634
27	0x3b6a84d3	0.0035784736
28	0x3bf04878	0.0073328577
29	0x3b9cefbb	0.0047893203
30	0xbc45d4a0	-0.0120746195
31	0xb826f799	-3.9808077e-05
32	0xbcc17138	-0.023613557
33	0x3d16e0f2	0.03683562
34	0x3ac39b23	0.0014923554
35	0x3cc67190	0.024224073
36	0xbcddb7fa	-0.027065266
37	0xbd169833	-0.036766242
38	0x3c935904	0.017986782
39	0x3cf11801	0.029430391
40	0xbbd6b7b6	-0.006552662
41	0xbd51756e	-0.05113738
42	0x3ca8e938	0.02061902
43	0x3bc9eeb4	0.006162489
44	0xbcce8dc3	-0.025214082
45	0x3c258bae	0.010104103
46	0xbd6a8739	-0.057257865
47	0x3c675ac1	0.0141207585
48	0xbb85bf53	-0.0040816455
49	0x3a5b1456	0.00083572173
50	0x3cd40eb6	0.025885921
51	0x3ccbacff	0.024862764
52	0xbcbed1a5	-0.023293326
53	0x3d001d87	0.03127816
54	0x3c93e107	0.018051637
55	0x3c2b5ad2	0.010458665
56	0x3d26510b	0.040604632
57	0x3c85ced6	0.016333979
58	0x3c6e15a0	0.014531523
59	0xbcff1620	-0.03113848
60	0x3c05f7ce	0.008176757
61	0x3cf4668f	0.02983406
62	0xbc8b1c7b	-0.016981354
63	0x3ba67e71	0.005080991
64	0x3b5aa9ef	0.0033365448
65	0xbc6cac7f	-0.014445423
66	0xbc201f89	-0.009773144
67	0xbc0c9fe0	-0.008583039
68	0x3ca94c03	0.020666128
69	0x3b8cbfbc	0.0042953175
70	0x3cf92158	0.030411407
71	0xbc4ea27f	-0.012611984
72	0x3a452b2c	0.0007521387
73	0xbbc6a82c	-0.006062528
74	0x3c71a3e9	0.014748552
75	0x3c1f3282	0.009716632
76	0x3b844ae2	0.004037247
77	0xbc9cb7a3	-0.019130534
78	0x3c246d20	0.010035783
79	0x3be3024e	0.006927765
80	0x3ca1467f	0.019686935
81	0xbc23426c	-0.009964567
82	0x3c8481b8	0.016175136
83	0xbcb7b295	-0.022424022
84	0x3cf4b8cb	0.029873272
85	0xbd3dbb1f	-0.04632103
86	0x3c5ecb57	0.013598285
87	0xbd65a60b	-0.056066554
88	0xbcbc5b1c	-0.022992663
89	0x3c295ba0	0.0103367865
90	0xbcc9c9cd	-0.024632359
91	0x3b8c73f1	0.004286282
92	0x3b5fe8ea	0.0034165927
93	0x3c0e9705	0.008702998
94	0xbd0b2358	-0.033969253
95	0xbc3f5786	-0.011678582
96	0x387ccee7	6.0274175e-05
97	0xbca2abcc	-0.01985731
98	0xbce44622	-0.027865473
99	0x3cb46237	0.022019489
100	0xbd1427ab	-0.036170643
101	0xbb18e346	-0.0023328825
102	0x3cb4cca0	0.022070229
103	0xbd2081d5	-0.039186317
104	0xbc5650ff	-0.013080834
105	0xbd3ac2cb	-0.045595925
106	0xbca1d0df	-0.019752918
107	0xbc239712	-0.009984748
108	0xbd44aad1	-0.048014466
109	0x3c4e5015	0.012592335
110	0xbcbe11e3	-0.023201888
111	0xbd0be668	-0.03415528
112	0xbceab07b	-0.028648606
113	0x3ba82068	0.0051308163
114	0xbb4150f9	-0.0029497726
115	0xbd349e60	-0.04409635
116	0xbc53065c	-0.012879934
117	0xbca236e1	-0.019801559
118	0xbc10bcd8	-0.008834086
119	0xbbb4fc7e	-0.0055232635
120	0xbc4c8d47	-0.012484855
121	0xbd0f6178	-0.035005063
122	0xbc934cda	-0.017980982
123	0xbd220590	-0.039556086
124	0xbb925909	-0.00446618
125	0x3d3703a9	0.044681225
126	0xbd8851cf	-0.06656229
127	0xbc5cb808	-0.013471611
128	0xbbbe894c	-0.005814707
129	0xbd229965	-0.03969707
130	0x3bac7846	0.005263361
131	0xbc80cc84	-0.01572252
132	0x3c8a6c10	0.016897231
133	0xbd315450	-0.043293297
134	0x3c8b670c	0.01701691
135	0xbc77ec4c	-0.015132021
136	0x3c3d33f0	0.011548027
137	0xbcc69358	-0.02424018
138	0x3b80a594	0.0039259885
139	0xbcea972e	-0.028636541
140	0xbc95f977	-0.01830743
141	0xbc1fb10c	-0.009746801
142	0x3ca694d6	0.020334642
143	0xbcf446e9	-0.029818969
144	0x3cfc6f07	0.03081466
145	0xbd11917c	-0.035539135
146	0xbae9df51	-0.0017843043
147	0xbc5368d0	-0.012903407
148	0xbd493d25	-0.049130578
149	0x3c3d3774	0.011548866
150	0xbb968104	-0.0045930166
151	0xbc2c390d	-0.010511649
152	0x3c47f333	0.012203979
153	0xbb14eca8	-0.0022724066
154	0x3b91e3bf	0.0044521983
155	0xbbb4c8aa	-0.005517085
156	0xbd09d5ec	-0.033651277
157	0x3cfcf01f	0.030876217
158	0xbce4a51a	-0.027910758
159	0x3c4ec86e	0.012621028
160	0x3c10d7b2	0.008840488
161	0xbbe97fc0	-0.0071258247
162	0xbcffaea1	-0.0312112
163	0xbbe00edf	-0.0068377103
164	0xbd2251ed	-0.03962891
165	0xbbcd750a	-0.0062700557
166	0x3c936133	0.017990684
167	0x3cd895fa	0.026438702
168	0xbb56875b	-0.0032734487
169	0x3c0464f7	0.0080807125
170	0xbbb94ee7	-0.005655158
171	0xbcaf0959	-0.021366762
172	0xbb1ccc25	-0.002392539
173	0x3bddb932	0.006766462
174	0x3c5a1da3	0.01331273
175	0x3c557b95	0.0130299525
176	0xbd135685	-0.035971183
177	0x3c172a32	0.009226369
178	0x3c8e388d	0.01736095
179	0x3c172f1a	0.0092275385
180	0xbc5735dd	-0.013135401
181	0x3bd281d6	0.006424169
182	0x3c9cd2d8	0.019143507
183	0xbd5732c4	-0.05253865
184	0xbc88e179	-0.016709076
185	0x3c23e992	0.010004418
186	0xbd2dd4aa	-0.04243914
187	0x3b7ad0cd	0.0038271428
188	0x3b08ee59	0.002089402
189	0xbc9407fc	-0.018070213
190	0x3b81c603	0.0039603724
191	0xbcbdc95c	-0.023167305
192	0xbb9f0765	-0.0048531764
193	0x3c8e4620	0.017367423
194	0x3c226478	0.009911649
195	0x3c09b028	0.008403815
196	0xbce483d6	-0.027894896
197	0x3c18928f	0.009312286
198	0x3a5eb67f	0.0008495822
199	0xba51d4ad	-0.00080044084
200	0xbc1c6bb8	-0.0095471665
201	0x3c3405af	0.010987683
202	0xbd1d6646	-0.038427614
203	0xbc9f30f7	-0.019432528
204	0x38b03332	8.40187e-05
205	0x3bf9e8cb	0.007626628
206	0x3cd4c290	0.02597168
207	0x39393efa	0.00017666435
208	0xbb992abe	-0.0046742847
209	0x3c9d5daa	0.019209702
210	0xbcb1dbd0	-0.02171126
211	0xbc181f3d	-0.009284792
212	0xbc0ae1a7	-0.008476651
213	0x3d1c701a	0.038192846
214	0x3be9396c	0.007117441
215	0x3b0167ec	0.001974578
216	0x3d031449	0.032001767
217	0x3bc3a343	0.00597039
218	0x3c400b3f	0.011721431
219	0xbd0f15f2	-0.034933038
220	0xbcdec18f	-0.027191905
221	0xbcb0f31f	-0.021600304
222	0xbc33442a	-0.010941545
223	0xbc8bd483	-0.017069107
224	0x3cb3303a	0.021873582
225	0x3d10c5c3	0.03534485
226	0x3b0b5ce5	0.0021265086
227	0x3c95caf7	0.018285258
228	0xb7ab8b4f	-2.044966e-05
229	0x3d184822	0.037178166
230	0xbbaf3713	-0.0053471415
231	0xbc0fb9e2	-0.008772345
232	0x3c67b74a	0.014142821
233	0x3cb80496	0.022463124
234	0x3c57ac77	0.013163677
235	0xbd375beb	-0.044765394
236	0x3c92f844	0.017940648
237	0xbd24d7dc	-0.040244922
238	0xbd17dba8	-0.037074715
239	0x3c239548	0.009984322
240	0xbc9efc1b	-0.019407323
241	0x3c39752a	0.011319438
242	0x3ba188f0	0.0049296543
243	0x3c7e6fd4	0.015529592
244	0x3be95e47	0.0071218344
245	0xbd155b84	-0.03646423
246	0x3bf56d2c	0.007489821
247	0xbd0db4fa	-0.03459642
248	0xbcaf395a	-0.021389652
249	0xbcb5dae6	-0.022199105
250	0xbc521aa6	-0.012823736
251	0x3ce542c6	0.027985942
252	0xbccf418e	-0.025299814
253	0x3ad28d61	0.0016063863
254	0x3cc4a077	0.024002297
255	0x39ac8f50	0.00032913173

action_model._discrete_distribution.branches.0.bias f4 [5]
0	0x3c98d2fe	0.018655296
1	0xbc20fa41	-0.00982529
2	0xbc26aba8	-0.010172762
3	0x3c9d80ff	0.01922655
4	0xbcafdce1	-0.021467628

onnx::Div_52 f4 [13]
0	0x3f370a90	0.7150049
1	0x3d5a3386	0.053271793
2	0x3f315502	0.69270337
3	0x43196cd7	153.42516
4	0x3ab60b55	0.0013888875
5	0x3ab60b55	0.0013888875
6	0x3f2b823b	0.6699559
7	0x3d3d8320	0.04626763
8	0x3f2a06f1	0.6641684
9	0x43803069	256.3782
10	0x3f369493	0.71320456
11	0x3d97b65d	0.0740783
12	0x3f326761	0.69688994
