Assets/ML-Agents/Models/RabbitTimid.onnx (onnx, 81702 bytes, 8 tensors)

network_body.observation_encoder.processors.0.normalizer.running_mean f4 [13]
0.3965708 0.04071326 -0.07899515 132.10258 0.0 0.0 0.26208755 -0.00013620827
-0.19302393 452.2204 0.05914651 -0.00027510631 0.023532242
00000000: 540b cb3e f3c2 263d 36c8 a1bd 431a 0443
00000010: 0000 0000 0000 0000 5730 863e 21d3 0eb9
00000020: 11a8 45be 361c e243 9c43 723d 253c 90b9
00000030: b0c6 c03c

network_body._body_endoder.seq_layers.0.weight f4 [128, 13]
-0.17242265 -0.59123945 0.48367715 -0.3387873 0.7511843 -0.15656887 0.125219 0.15868337
-0.1409796 -0.46071285 -0.17042024 -0.101923116 -0.14063728 0.3951203 -0.19836521 -0.6456529
0.19833155 -0.54304963 -0.11564145 0.17188597 0.5180663 0.113993526 0.28874362 -0.016711028
0.31864077 -0.02153401 0.07837424 -0.12747584 -0.017060554 -0.24012393 -0.4217089 0.3888766
0.35225853 -0.16681337 0.15633366 -0.07995827 -0.34229514 0.025525173 -0.47992417 0.29964423
0.32728687 -0.19219871 -0.29436404 0.11580219 -0.19797716 0.23054361 0.12295762 0.1309489
-0.114504196 -0.007974486 -0.44060317 0.7023574 -0.5332683 0.75508875 -0.5057027 0.17355022
-0.14297219 -0.29310915 -0.15311646 -0.070080996 0.07750348 0.13082983 -0.18831262 -0.16683866
0.083133094 -0.29776707 -0.11768372 0.44148242 -0.48754826 0.5124682 -0.44973552 -0.39020437
-0.07325613 0.53440756 -0.16443671 0.20421547 0.006741516 0.23467872 -0.21735771 0.5133307
-0.22580643 0.12762468 0.12915747 -0.31562233 -0.5137485 -0.10655785 0.1278857 -0.33372742
0.29026327 0.31127355 -0.4880543 0.33725804 0.11679807 -0.36713955 0.23976782 0.2763226
0.19567573 -0.4880095 -0.13420416 -0.38395438 -0.3227651 -0.09177759 0.24510473 -0.40546966
-0.16316217 -0.12524278 -0.32766125 -0.23360603 0.0011915832 -0.015140733 -0.16716309 0.25797018
-0.27934408 0.29584602 0.10734883 -0.3971214 -0.23237015 0.0512305 0.8955214 0.18371925
-0.024357866 -0.05494153 -0.2710663 0.07946906 -0.13644189 0.78756416 0.15107457 -0.19635975
-0.36493692 -0.1246248 0.32657015 0.18331988 -0.342135 -0.00879926 -0.0563297 -0.2869376
0.072034635 0.23870005 -0.12604713 -0.35963532 -0.12844852 0.38884732 0.6579971 -0.33998376
0.3541188 0.1830107 0.22979546 -0.057586245 -0.47386104 0.18393819 0.004277976 -0.33347446
-0.30683452 0.19974597 0.008968954 0.14720272 -0.0899188 -0.017807867 0.12237489 0.32724372
0.4726306 -0.10223876 -0.44094744 0.01721664 0.13365214 -0.14206494 0.14132702 -0.09247747
-0.5479115 0.44376278 0.20079698 -0.22840117 -0.23494162 0.3024443 -0.12492157 -0.1393576
0.031910818 0.33634195 0.045248967 0.5933862 0.1009734 0.025299361 0.77998245 0.1937604
-0.5244897 0.06009129 -0.6939188 -0.23912977 0.1562039 -0.40474853 -0.41541073 0.3872944
0.33241716 0.2507801 -0.22825061 -0.22531205 -0.03631746 -0.63730705 0.12451363 0.03901844
0.29513192 0.26893535 0.14325199 0.18794262 -0.080910124 -0.0036895843 0.031222539 -0.21004759
-0.26024228 -0.277813 -0.01709595 -0.06356109 0.17119293 -0.38208812 -0.16274072 0.0111076655
-0.4309129 0.16678594 0.34653264 0.38067943 0.47131258 -0.020422423 -0.044878174 0.15685043
-0.038900275 0.40006164 -0.0662042 -0.02172923 0.3030882 -0.08465213 -0.38444382 0.44520265
0.08860741 -0.31746343 0.3250542 -0.086252674 0.6934968 -0.27258205 0.16980222 0.22050874
-0.16772644 -0.15475485 -0.051911835 0.32919875 0.28594995 -0.5731698 -0.14816363 -0.1158489
-0.3613251 0.0019434071 0.06831952 -0.029136091 -0.2431873 -0.0017722871 -0.2695313 0.062477786
00000000: 908f 30be 785b 17bf 88a4 f73e 8775 adbe
00000010: 9d4d 403f 9753 20be 6939 003e e57d 223e
00000020: f55c 10be 8ee2 ebbe a582 2ebe 11bd d0bd
00000030: 3803 10be 354d ca3e 4020 4bbe 8249 25bf
00000040: 6d17 4b3e 4d05 0bbf 6dd5 ecbd e002 303e
00000050: fe9f 043f 7075 e93d 34d6 933e 91e5 88bc
00000060: e224 a33e 1868 b0bc ac82 a03d 0789 02be
00000070: 93c2 8bbc 0ce3 75be 3bea d7be d51a c73e
00000080: 3b5b b43e 20d1 2abe ee15 203e 29c1 a3bd
00000090: 4f41 afbe 2b1a d13c 9fb8 f5be f86a 993e
000000a0: 2592 a73e bdcf 44be e2b6 96be b329 ed3d
000000b0: 86ba 4abe a013 6c3e 34d1 fb3d 7817 063e
000000c0: 2d81 eabd 6ba7 02bc bd96 e1be b2cd 333f
000000d0: 4584 08bf 7f4d 413f bb75 01bf 26b7 313e
000000e0: 4d67 12be 6712 96be 90ca 1cbe a086 8fbd
000000f0: 25ba 9e3d 41f8 053e 06d5 40be c1d7 2abe
00000100: af41 aa3d ed74 98be 2a04 f1bd fc09 e23e
00000110: ed9f f9be 1e31 033f bc43 e6be dec8 c7be
00000120: 4f07 96bd efce 083f 1962 28be dc1d 513e
00000130: efe7 dc3b 9e4f 703e 0593 5ebe a469 033f
00000140: cd39 67be 0bb0 023e db41 043e 4099 a1be
00000150: 0685 03bf 013b dabd 78f4 023e 52de aabe
00000160: 639d 943e 3f5f 9f3e 41e2 f9be 16ad ac3e
00000170: d433 ef3d b7f9 bbbe b285 753e 287a 8d3e
00000180: 385f 483e 62dc f9be d16c 09be ab95 c4be
00000190: 7841 a5be e4f5 bbbd bcfc 7a3e b899 cfbe
000001a0: fc13 27be a53f 00be 37c3 a7be 6b36 6fbe
000001b0: e62e 9c3a d610 78bc cd2c 2bbe ab14 843e
000001c0: 3006 8fbe 2179 973e b4d9 db3d 7f53 cbbe
000001d0: 71f2 6dbe 13d7 513d e440 653f e620 3c3e
000001e0: 268a c7bc 5f0a 61bd 34c9 8abe adc0 a23d
000001f0: 6cb7 0bbe ce9d 493f 4bb3 1a3e 8812 49be
00000200: 03d9 babe 4a3b ffbd 3434 a73e 35b8 3b3e
00000210: 522c afbe c52a 10bc f9b9 66bd 7ce9 92be
00000220: e586 933d c96d 743e 8012 01be 1f22 b8be
00000230: 0288 03be ff16 c73e 7f72 283f 5a12 aebe
00000240: 0f4f b53e 2867 3b3e 804f 6b3e 8edf 6bbd
00000250: ea9d f2be 4b5a 3c3e 442e 8c3b 2abd aabe
00000260: 6a19 9dbe 358a 4c3e 85f2 123c 4fbc 163e
00000270: 5927 b8bd cee1 91bc b09f fa3d 7d8c a73e
00000280: a3fc f13e 8e62 d1bd ddc3 e1be e909 8d3c
00000290: 1bdc 083e 7979 11be 08b8 103e d464 bdbd
000002a0: ee43 0cbf e034 e33e b99d 4d3e ffe1 69be
000002b0: 8994 70be fbd9 9a3e e1d6 ffbd c2b3 0ebe
000002c0: ebb4 023d 0335 ac3e fb56 393d 28e8 173f
000002d0: 24cb ce3d 9b40 cf3c eeac 473f 2069 463e
000002e0: f544 06bf 4922 763d aaa4 31bf 6fde 74be
000002f0: eaf3 1f3e 333b cfbe b7b0 d4be 744b c63e
00000300: 9532 aa3e 4066 803e 87ba 69be 34b8 66be
00000310: 9ec1 14bd 8e26 23bf 0101 ff3d cdd1 1f3d
00000320: 881b 973e e5b1 893e a6b0 123e 0874 403e
00000330: 35b4 a5bd f4cc 71bb 69c6 ff3c b716 57be
00000340: 7a3e 85be 813d 8ebe ce0c 8cbc 512c 82bd
00000350: 334d 2f3e 0ea1 c3be 81a5 26be edfc 353c
00000360: 9ea0 dcbe efc9 2a3e ba6c b13e 6ae8 c23e
00000370: e24f f13e ed4c a7bc 2dd2 37bd 669d 203e
00000380: e555 1fbd e1d4 cc3e 1196 87bd 8001 b2bc
00000390: 602e 9b3e 195e adbd d2d5 c4be 9af1 e33e
000003a0: cd77 b53d 918a a2be 816d a63e 3ea5 b0bd
000003b0: 0289 313f e08f 8bbe a2e0 2d3e 0bcd 613e
000003c0: 7bc0 2bbe 0e78 1ebe 81a1 54bd bd8c a83e
000003d0: 0868 923e 42bb 12bf 35b8 17be 3042 edbd
000003e0: 9aff b8be ecb9 fe3a 1beb 8b3d d0ae eebc
000003f0: 1706 79be 164c e8ba 0200 8abe b5e8 7f3d

network_body._body_endoder.seq_layers.0.bias f4 [128]
-0.01701819 0.02914226 -0.022022815 -0.025432475 -0.032195598 0.0038586974 -0.011779858 -0.014316354
-0.018648101 0.01158799 -0.020268146 -0.017719189 0.028087242 0.040924616 0.029141685 -0.010332682
-0.018280752 -0.010969937 -0.0021493596 -0.007866745 0.030417753 0.0271045 0.0021881175 -0.014979986
-0.008242953 0.00814975 -0.013201588 -0.022641959 0.012120309 0.036759578 0.016785253 -0.017811881
0.02252877 -0.04548569 -0.016022757 -0.03382915 0.021361928 0.030547347 0.010456324 0.0018197926
-0.015862608 0.020042289 -0.003199768 -0.0006663593 -0.024090845 -0.061759755 -0.0096537 0.011216026
0.025679717 0.036821693 0.033269305 -0.031989265 -0.009247784 -0.00026750998 0.046131387 0.027716367
-0.025157385 0.032932166 0.009230753 0.008462431 0.029487092 -0.028168514 -0.044948857 0.01698116
-0.0030399654 0.011809661 -0.037483715 -0.006357069 -0.00719292 0.011234712 0.033810247 -0.0081797
0.041896135 -0.0004746356 -0.018585041 -0.059316177 -0.03583774 -0.0037128788 0.02189283 -0.012671054
-0.025300182 -0.0018227426 0.031081304 0.021089189 0.01709356 -0.025234388 -0.009383893 -0.030701164
-0.0064276727 -0.0331599 0.009082049 -0.0049638497 -0.034757093 -0.005086136 0.0054771868 -0.0017519466
-0.0044418327 0.0233005 0.048827685 -0.03417572 0.00093652104 -0.012797345 0.027894937 -0.0031567363
0.04515497 -0.032720402 0.031075448 -0.019488588 -0.033626825 -0.03024209 -0.0045899437 0.007598007
0.0044817743 0.02281346 0.012373429 0.00065998296 -0.005277325 -0.010840322 -0.026871558 -0.0119218845
-0.01859242 -0.038581476 -0.042637482 0.0029710482 0.023590438 0.031568065 0.011449754 0.034112852
00000000: bb69 8bbc c0bb ee3c 3169 b4bc c457 d0bc
00000010: 88df 03bd 33e2 7c3b 4e00 41bc 248f 6abc
00000020: e7c3 98bc 8edb 3d3c 6209 a6bc d527 91bc
00000030: 3717 e63c 92a0 273d 8bba ee3c 694a 29bc
00000040: 84c1 95bc 40bb 33bc 45dc 0cbb 85e3 00bc
00000050: a72e f93c 420a de3c 8566 0f3b 9d6e 75bc
00000060: 730d 07bc 8786 053c 794b 58bc a17b b9bc
00000070: 4394 463c 3691 163d 3a81 893c 39ea 91bc
00000080: 418e b83c 344f 3abd 2842 83bc 6f90 0abd
00000090: 36ff ae3c 6e3e fa3c 0051 2b3c 1b86 ee3a
000000a0: 4df2 81bc ba2f a43c 33b3 51bb 9eae 2eba
000000b0: 2a5a c5bc ccf7 7cbd 8d2a 1ebc 6cc3 373c
000000c0: 455e d23c 58d2 163d 6545 083d 2d07 03bd
000000d0: 0484 17bc 9540 8cb9 44f4 3c3d 6f0d e33c
000000e0: dc16 cebc e1e3 063d 963c 173c 02a6 0a3c
000000f0: ea8e f13c a8c1 e6bc 4b1c 38bd 131c 8b3c
00000100: 283a 47bb 4f7d 413c 8688 19bd f64e d0bb
00000110: 96b2 ebbb cc11 383c 9d7c 0a3d 2604 06bc
00000120: 489b 2b3d 83d8 f8b9 a83f 98bc 85f5 72bd
00000130: 98ca 12bd c553 73bb 9858 b33c 419a 4fbc
00000140: 5442 cfbc 18e9 eeba 389e fe3c 3cc3 ac3c
00000150: cb07 8c3c 59b8 cebc e6be 19bc 0281 fbbc
00000160: 3a9f d2bb add2 07bd e0cc 143c caa7 a2bb
00000170: 745d 0ebd 9aa9 a6bb f979 b33b 93a1 e5ba
00000180: cb8c 91bb b1e0 be3c 8aff 473d d7fb 0bbd
00000190: dd80 753a f5ab 51bc ec83 e43c 3fe1 4ebb
000001a0: 6bf4 383d d405 06bd f091 fe3c 88a6 9fbc
000001b0: 48bc 09bd 42be f7bc 3d67 96bb b4f8 f83b
000001c0: d9db 923b 4be3 ba3c ecb9 4a3c b502 2d3a
000001d0: 69ed acbb 9b9b 31bc be21 dcbc 0254 43bc
000001e0: 214f 98bc 9c07 1ebd a4a4 2ebd ebb5 423b
000001f0: bc40 c13c 844d 013d c097 3b3c ebb9 0b3d

network_body._body_endoder.seq_layers.2.weight f4 [128, 128]
-0.02788595 -0.07071054 -0.15204884 0.058347315 -0.024800705 0.080470555 -0.074813984 0.012825976
0.014785771 0.014721451 -0.08559197 0.20212455 -0.015015368 -0.064002 -0.15435117 -0.06322216
0.08520252 0.03775002 -0.096042044 0.10644547 0.074895695 -0.09089322 0.07611334 -0.015253064
0.06759623 0.0018521299 0.08480426 0.07649955 -0.17743511 0.109762534 -0.10290147 0.062152147
-0.026652109 0.0001719666 -0.061565403 0.044765152 0.21352698 -0.0007158348 0.13438267 0.09678998
0.09641121 -0.099093586 -0.19848797 0.09693951 -0.09398031 0.06300836 -0.018279972 -0.022937478
-0.122543715 -0.19399111 -0.10842314 -0.018397247 0.12027875 0.12310738 0.08212145 -0.11314417
0.034430917 0.0069685876 -0.05235491 0.017427102 -0.09679269 0.026536802 -0.22064692 -0.18504263
-0.0856191 0.18049584 0.040927097 -0.0096943285 0.079928175 0.033355825 -0.07400564 0.050121114
0.063663 -0.049670033 0.048516817 0.025721436 0.030011239 -0.012566035 -0.2183037 -0.026889317
0.174848 -0.032976367 0.02905076 -0.06541929 -0.07304704 0.049093027 -0.11321548 -0.119701944
-0.02981352 -0.0038887549 0.17406249 -0.0074191247 0.14577165 -0.061970424 -0.015953448 -0.15145794
-0.06648739 -0.017910955 -0.018733485 -0.013830528 -0.0062598507 0.22469293 -0.08093491 -0.02027017
-0.17461354 -0.067405656 0.06609717 -0.0434408 -0.19255584 -0.1920101 0.04865918 -0.12136156
0.01506701 -0.09111257 0.018062383 -0.0058153 -0.110891156 -0.23119016 0.011598723 0.008435606
0.08474174 -0.033644363 -0.07768267 -0.19088049 -0.11794355 0.24456032 -0.014722924 -0.17918411
0.00064129493 0.04072537 -0.012780244 -0.05907712 -0.010809006 0.0010739096 -0.00068047515 -0.07071714
-0.03779676 -0.11516681 -0.22305481 -0.09401779 -0.104731135 0.04565854 -0.02033076 0.02181962
-0.00523211 0.08929998 -0.08347857 -0.18368061 -0.15050788 -0.10862851 -0.08952524 -0.095240936
0.10525821 -0.010486481 -0.085860595 -0.0045681004 -0.079818934 0.012387723 -0.13693453 -0.15303876
0.036616165 0.046877462 -0.03752351 -0.09717819 0.012412443 0.03886658 0.09542348 -0.017135004
-0.04532248 0.112523854 0.036147233 0.054083962 0.037490685 -0.051672645 0.030736063 -0.18630406
-0.016651778 0.05681215 0.16661522 0.12158893 -0.18948132 0.04535464 0.0034284582 0.030941997
-0.032672945 0.031546164 -0.16080123 -0.031335272 -0.013656863 -0.03980771 0.079687975 0.068353355
-0.08404433 -0.20248301 -0.073711894 0.054060556 -0.060125597 -0.2143861 0.21208122 -0.014232481
-0.0987357 -0.08793663 -0.12155668 0.13343997 0.012123875 -0.030591507 -0.06564981 0.04753455
-0.06301841 0.05142523 0.041308492 -0.10924113 0.012504489 -0.008096083 -0.015386198 0.03737947
0.052195176 0.05980951 0.06119836 0.013424487 -0.14280838 -0.05165624 0.0012709752 -0.12241287
-0.064989805 0.13250121 -0.033747047 0.056551076 0.05727902 -0.0038230175 0.07982274 -0.15490787
0.06692205 -0.009177821 0.06513406 0.02184433 -0.043521874 -0.10528432 -0.17479914 -0.10434139
-0.01803826 -0.03162685 -0.00015361502 0.07279653 0.0058947615 -0.025689125 0.06572784 -0.078534745
0.11450601 -0.08619836 0.008563853 0.050283927 0.058383662 -0.18405248 -0.01692354 -0.13037282
00000000: 1371 e4bc b0d0 90bd b1b2 1bbe 98fd 6e3d
00000010: d92a cbbc bfcd a43d 1338 99bd 0b24 523c
00000020: 0540 723c 3e32 713c d84a afbd bdf9 4e3e
00000030: 0503 76bc 7b13 83bd 3c0e 1ebe 9f7a 81bd
00000040: a97e ae3d c49f 1a3d b1b1 c4bd 1500 da3d
00000050: ea62 993d 3926 babd 50e1 9b3d fde7 79bc
00000060: e46f 8a3d 2bc3 f23a dbad ad3d ccab 9c3d
00000070: 8db1 35be 2ecb e03d 02be d2bd 4093 7e3d
00000080: 8655 dabc ef51 3439 012c 7cbd aa5b 373d
00000090: d1a6 5a3e dca6 3bba 9c9b 093e d339 c63d
000000a0: 3e73 c53d 94f1 cabd 6e40 4bbe 3988 c63d
000000b0: c078 c0bd 870a 813d e1bf 95bc 61e7 bbbc
000000c0: 33f8 fabd 9ba5 46be f40c debd d3b5 96bc
000000d0: b554 f63d b91f fc3d 4a2f a83d 21b8 e7bd
000000e0: 6f07 0d3d c058 e43b 1a72 56bd 48c3 8e3c
000000f0: 3f3b c6bd b563 d93c 44f1 61be d17b 3dbe
00000100: 1159 afbd e7d3 383e 2ca3 273d f6d4 1ebc
00000110: 62b1 a33d 1ea0 083d 4590 97bd cc4b 4d3d
00000120: bf61 823d ce72 4bbd 92b9 463d c3b5 d23c
00000130: 21da f53c c5e1 4dbc 018b 5fbe fc46 dcbc
00000140: 5b0b 333e 3a12 07bd dcfb ed3c 8cfa 85bd
00000150: b099 95bd c515 493d 85dd e7bd 4b26 f5bd
00000160: 7c3b f4bc 7bda 7ebb 703d 323e 211c f3bb
00000170: 2a45 153e b3d4 7dbd ceb0 82bc ca17 1bbe
00000180: 8a2a 88bd ffb9 92bc f776 99bc 7099 62bc
00000190: 6f1f cdbb e715 663e 34c1 a5bd a10d a6bc
000001a0: e4cd 32be fa0b 8abd f45d 873d fbee 31bd
000001b0: 5c2d 45be 4c9e 44be d94e 473d 698c f8bd
000001c0: 9fdb 763c 3a99 babd 90f7 933c 468e bebb
000001d0: e71a e3bd 1dbd 6cbe 9208 3e3c 7f35 0a3c
000001e0: 148d ad3d acce 09bd 1718 9fbd 2d76 43be
000001f0: 638c f1bd 056e 7a3e 6b38 71bc 0a7c 37be
00000200: 931c 283a a5cf 263d 3b64 51bc dafa 71bd
00000210: 4218 31bc 6dc2 8c3a ea61 32ba 26d4 90bd
00000220: c7d0 1abd 94dc ebbd 7b68 64be 668c c0bd
00000230: 477d d6bd 7304 3b3d b28c a6bc 0fbf b23c
00000240: 1f72 abbb e8e2 b63d d0f6 aabd c516 3cbe
00000250: bd1e 1abe a078 debd 0259 b7bd ae0d c3bd
00000260: 9e91 d73d 7dcf 2bbc aed7 afbd 01b0 95bb
00000270: 1c78 a3bd e0f5 4a3c 9138 0cbe 31b6 1cbe
00000280: d5fa 153d 9502 403d 41b2 19bd 5c05 c7bd
00000290: 8f5d 4b3c 9032 1f3d 636d c33d b55e 8cbc
000002a0: 11a4 39bd e872 e63d 1f0f 143d 2587 5d3d
000002b0: d58f 193d b2a6 53bd 32ca fb3c 7ec6 3ebe
000002c0: 4f69 88bc dbb3 683d 2e9d 2a3e 9e03 f93d
000002d0: 6407 42be c9c5 393d fcaf 603b 127a fd3c
000002e0: 11d4 05bd 8d36 013d 14a9 24be 6a59 00bd
000002f0: 09c1 5fbc 690d 23bd 7333 a33d d8fc 8b3d
00000300: 6f1f acbd b557 4fbe 43f6 96bd 9a6e 5d3d
00000310: 4246 76bd 0888 5bbe d22b 593e 5a2f 69bc
00000320: f135 cabd 1f18 b4bd b5f2 f8bd 7da4 083e
00000330: 38a3 463c 0a9b fabc 6873 86bd 97b3 423d
00000340: cc0f 81bd 43a3 523d 1833 293d d0b9 dfbd
00000350: a1df 4c3c 6fa5 04bc 6416 7cbc 371b 193d
00000360: 9cca 553d d1fa 743d 22ab 7a3d 61f2 5b3c
00000370: 5c3c 12be 7e95 53bd da96 a63a 99b3 fabd
00000380: 6019 85bd 66ae 073e 583a 0abd 1aa2 673d
00000390: 689d 6a3d 978b 7abb 1b7a a33d 2ba0 1ebe
000003a0: 6e0e 893d 925e 16bc 0265 853d e1f2 b23c
000003b0: fe43 32bd 4e9f d7bd 8cfe 32be f0b0 d5bd
000003c0: f9c4 93bc 288b 01bd b813 21b9 5916 953d
000003d0: d828 c13b 0072 d2bc 519c 863d d3d6 a0bd
000003e0: 2182 ea3d c488 b0bd 674f 0c3c 85f6 4d3d
000003f0: b523 6f3d 4178 3cbe 3ca3 8abc 7480 05be

network_body._body_endoder.seq_layers.2.bias f4 [128]
-0.03512058 0.017140603 -0.02405165 -0.027396275 -0.0020212415 -0.011941925 -0.043668393 0.022775318
-0.0113153085 -0.029935034 -0.025616577 0.010657779 0.019568738 0.011227376 -0.010502838 -0.022817668
-0.029550506 -0.041240335 -0.029078007 0.012571054 -0.00931635 0.022868037 -0.023335293 -0.009495595
-0.08550412 -0.020316193 0.0051120017 -0.025341475 -0.040165223 -0.024411717 -0.010358313 -0.012171423
-0.0032970808 -0.021910885 -0.041829236 -0.042779718 -0.014507642 -0.020685613 0.012977727 -0.018348819
-0.024056343 0.012718858 -0.032042976 -0.038005244 -0.001316863 -0.015344941 0.00060788554 -0.038001776
-0.035946064 0.00820767 -0.009722375 -0.03060979 -0.0052829813 -0.002190093 -0.0021341916 0.0025174986
-0.06291659 -0.03520202 0.03436485 -0.03456305 0.0070761545 -0.03302679 -0.009749179 0.001173356
0.028898492 0.024937253 -0.01972775 0.010035525 -0.03187347 -0.016003093 -0.013589181 0.0030623474
-0.007877919 -0.023754058 0.0041567185 -0.0023706509 -0.03201959 -0.014439172 0.0007437375 -0.022130167
-0.038245432 -0.016472735 -0.049385235 -0.0115984315 -0.034015425 -0.008018855 -0.002409901 -0.044689413
-0.0055387467 -0.02854013 -0.020181114 0.02491204 0.02073652 -0.029012185 0.007480263 -0.020833243
-0.04441507 -0.006736887 -0.024805753 0.0024829947 0.0006293672 -0.024108067 -0.03431264 -0.04629472
-0.011732504 -0.05241635 -0.020859886 -0.015485421 -0.002640237 -0.04038398 -0.050511364 -0.052929956
0.024199372 -0.046309553 -0.02197083 -0.017171793 0.024996195 0.0072481665 0.006681095 -0.04003663
-0.014796276 -0.05157437 0.0035779004 -0.0025155945 -0.011694794 0.026142983 -0.01973337 -0.042371202
00000000: 99da 0fbd 736a 8c3c f707 c5bc 276e e0bc
00000010: ce76 04bb 10a8 43bc a1dd 32bd 4e93 ba3c
00000020: d863 39bc 513a f5bc dbd9 d1bc f79d 2e3c
00000030: 9e4e a03c 07f3 373c 1814 2cbc 1eec babc
00000040: e713 f2bc a0eb 28bd 0035 eebc d2f6 4d3c
00000050: 9ba3 18bc c055 bb3c a829 bfbc 6993 1bbc
00000060: c91c afbd 256e a6bc 9482 a73b ed98 cfbc
00000070: 4a84 24bd 15fb c7bc eab5 29bc a66a 47bc
00000080: d613 58bb 757e b3bc 2255 2bbd c939 2fbd
00000090: 76b1 6dbc e074 a9bc 88a0 543c 4350 96bc
000000a0: cf11 c5bc c262 503c 7f3f 03bd 63ab 1bbd
000000b0: 979a acba 5969 7bbc 825a 1f3a c0a7 1bbd
000000c0: 2e3c 13bd 7779 063c 994a 1fbc 62c1 fabc
000000d0: dc1c adbb aa87 0fbb cbdd 0bbb 9efc 243b
000000e0: 6ada 80bd fe2f 10bd 28c2 0c3d fc91 0dbd
000000f0: 16df e73b 1947 07bd 05bb 1fbc 4bcb 993a
00000100: 88bc ec3c 3649 cc3c 179c a1bc 0b6c 243c
00000110: c18d 02bd eb18 83bc 28a5 5ebc aab1 483b
00000120: 6312 01bc df97 c2bc 1535 883b ec5c 1bbb
00000130: f926 03bd 4792 6cbc 61f7 423a 534a b5bc
00000140: 3ea7 1cbd d4f1 86bc 2c48 4abd 5907 3ebc
00000150: c253 0bbd 8461 03bc 6eef 1dbb 3f0c 37bd
00000160: 607e b5bb fecc e9bc dd52 a5bc 5614 cc3c
00000170: a2df a93c f6aa edbc fe1c f53b 7aaa aabc
00000180: 94ec 35bd 1bc1 dcbb 6f35 cbbc bdb9 223b
00000190: 1efc 243a 487e c5bc 698b 0cbd 889f 3dbd
000001a0: b039 40bc 87b2 56bd 5ae2 aabc 90b6 7dbc
000001b0: d407 2dbb ac69 25bd 01e5 4ebd 15cd 58bd
000001c0: c33d c63c 16af 3dbd 2cfc b3bc dcab 8cbc
000001d0: d2c4 cc3c 0782 ed3b 16ed da3b 73fd 23bd
000001e0: 146c 72bc a63f 53bd 357b 6a3b acdc 24bb
000001f0: 859b 3fbc cf29 d63c e0a7 a1bc 6d8d 2dbd

action_model._discrete_distribution.branches.0.weight f4 [5, 128]
0.009059044 0.024171606 0.019347081 0.007145246 0.014619201 -0.043115936 -0.019318135 0.026908228
0.016222551 -0.00286207 -0.007674159 -0.017733581 -0.005831387 -0.011315633 0.017378813 -0.031056771
-0.01874147 0.035033315 -0.0010426345 0.0124200545 -0.024402682 -0.02857501 0.0113767525 -0.002999404
-0.021192692 -0.04165172 -0.032624345 0.021817356 0.0058469577 0.01959767 0.018198244 -0.013281539
-0.0150122065 0.0020942672 -8.931247e-05 -0.019531347 -0.038379148 -0.020992832 0.0076844404 0.021534596
0.018979853 -0.008353933 0.005888955 -0.01111582 0.0258586 -0.018551832 -0.025908647 0.009047256
0.008524028 0.0064912215 -0.031588454 0.015383745 0.004235187 0.018858224 -0.016382871 -0.025767442
-0.010318226 0.005600992 0.00525403 -0.004128537 0.014070668 0.0031778335 0.017548053 -0.042018827
0.010304457 0.008524069 -0.006857732 -0.023577588 -0.024156611 0.0045396793 0.0042141182 0.0009028397
-0.019559342 0.023892395 -0.01889492 0.010726708 -0.009537236 0.0065730093 0.0053104223 0.009290848
0.018125571 0.017825447 -0.016654478 0.02755095 -0.017888434 0.010644625 0.013024394 0.011128967
-0.024898091 -0.011890054 0.0027420288 -0.02271298 0.018792296 -0.021564675 -0.0054607242 0.0057021375
-0.014518659 0.019154895 0.01305314 0.013540104 -0.014087159 -0.010874164 0.0030251762 0.021233328
-0.00542623 -0.01769748 -0.028414022 0.00544083 -0.008891051 -0.012633402 -0.006102462 -0.008065934
-0.029060367 -0.007413765 0.00709441 -0.03209983 -0.03899561 -0.023814704 -0.016243583 -0.031376913
0.010450776 0.0061891233 -0.028195474 -0.0041417023 -0.022345625 -0.003678819 0.03320911 -0.007950738
-0.034158695 -0.03485441 -0.06065841 0.024308188 -0.05516746 0.024169005 0.015172277 -0.031675205
-0.042641915 -0.0007188597 -0.003857358 0.022842886 0.01381309 -0.042621754 -0.04753186 -8.363058e-05
0.026679484 -0.006343745 -0.0096505815 -0.024807688 -0.017897604 0.027243769 0.0041129175 0.047737356
-0.020399245 0.016976668 -0.02941731 -0.0178273 -0.034756288 0.026427237 -0.039439756 -0.017860876
-0.011489939 0.015055829 0.0052628336 -0.012465026 0.026612446 0.022678996 -0.044565674 -0.015509443
0.0064846673 0.02099416 -0.025243936 0.0039129937 -0.015245466 -0.002405311 0.027429247 -0.024237767
-0.0055071907 -0.0044303206 -0.008597159 -0.019783033 0.0021618612 0.0071950587 0.0055843857 0.01318712
0.012239111 -0.027327199 -0.030963827 -0.007045724 -0.054235864 -0.023371069 -0.006086375 0.02706277
-0.039342124 0.01064142 -0.011410822 -0.0005022236 0.016979536 -0.0021977872 -0.010877693 0.003407533
0.0066898204 0.0018014082 0.013935837 -0.03573085 -0.0019215265 0.020719858 -0.034289353 0.011626929
-0.0098422915 -0.015632411 -0.026433427 0.029438248 -0.015428575 -0.022395624 -0.029571412 -0.023957433
0.00532268 0.0011660262 -0.011870455 0.012631694 -0.05734377 0.005712785 -0.02788798 0.02641741
0.014731217 -0.008261852 -0.023518616 -0.03572926 -0.03671552 0.010662557 -0.005372787 -0.0103841005
-0.0022437603 -0.02639445 -0.056399323 0.052437168 0.012736481 -0.023372682 0.015955226 0.0014228664
0.051625792 -0.005055773 0.011724357 0.004480932 -0.007639283 0.001280323 0.0007535243 0.0028423057
-0.023475038 -0.005956374 0.013754241 0.015878703 -0.0032083008 -0.039555356 0.004604552 -0.034126125
00000000: 626c 143c 8803 c63c c57d 9e3c ab22 ea3b
00000010: 6085 6f3c 569a 30bd 1141 9ebc a56e dc3c
00000020: 28e5 843c 9191 3bbb 8377 fbbb 0446 91bc
00000030: 3815 bfbb 3465 39bc 035e 8e3c c56a febc
00000040: b687 99bc 187f 0f3d 02a9 88ba 7c7d 4b3c
00000050: 22e8 c7bc 2416 eabc 8f65 3a3c a691 44bb
00000060: 4c9c adbc fe9a 2abd 1ba1 05bd 50ba b23c
00000070: d697 bf3b 4b8b a03c 7c14 953c d09a 59bc
00000080: c2f5 75bc f93f 093b 444d bbb8 3400 a0bc
00000090: 7433 1dbd 29f9 abbc c2cd fb3b 5269 b03c
000000a0: a37b 9b3c efde 08bc 23f8 c03b 211f 36bc
000000b0: 6ad5 d33c 03fa 97bc 5f3e d4bc f13a 143c
000000c0: 5da8 0b3c 50b4 d43b e562 01bd 1a0c 7c3c
000000d0: 53c7 8a3b 907c 9a3c 5f35 86bc 3e16 d3bc
000000e0: c70d 29bc 8788 b73b 002a ac3b ae48 87bb
000000f0: a988 663c 3343 503b efc0 8f3c ef1b 2cbd
00000100: 06d4 283c 89a8 0b3c d3b6 e0bb c925 c1bc
00000110: 16e4 c5bc 97c1 943b 9616 8a3b 8cac 6c3a
00000120: ea3a a0bc fcb9 c33c 85c9 9abc 13bf 2f3c
00000130: 1142 1cbc 6662 d73b 0d03 ae3b a438 183c
00000140: 147c 943c ac06 923c f96e 88bc 88b2 e13c
00000150: c48a 92bc cb66 2e3c 4564 553c 4556 363c
00000160: 15f7 cbbc 80ce 42bc 9cb3 333b 9210 babc
00000170: 4df2 993c 67a8 b0bc e0ef b2bb ffd8 ba3b
00000180: abdf 6dbc baea 9c3c d6dc 553c 50d7 5d3c
00000190: d4cd 66bc 8d29 32bc 0942 463b 84f1 ad3c
000001a0: 84ce b1bb 4efa 90bc 86c4 e8bc fd48 b23b
000001b0: c5ab 11bc 54fc 4ebc 29f7 c7bb fb26 04bc
000001c0: 0210 eebc 2bef f2bb 3978 e83b 1d7b 03bd
000001d0: dcb9 1fbd 0e17 c3bc 4311 85bc 1485 00bd
000001e0: bb39 2b3c 21ce ca3b 32fa e6bc 1eb7 87bb
000001f0: 2c0e b7bc 5718 71bb 4706 083d d043 02bc
00000200: fde9 0bbd 7fc3 0ebd f474 78bd f721 c73c
00000210: 46f7 61bd 14fe c53c 2495 783c dcbd 01bd
00000220: 4aa9 2ebd dc71 3cba bacb 7cbb 0121 bb3c
00000230: 4c50 623c 2694 2ebd c5b0 42bd d362 afb8
00000240: ef8e da3c 31df cfbb 791d 1ebc 7e39 cbbc
00000250: ff9d 92bc 532e df3c a7c5 863b 3f88 433d
00000260: 511c a7bc a712 8b3c 92fc f0bc 8f0a 92bc
00000270: 9c5c 0ebd ef7d d83c 958b 21bd f950 92bc
00000280: 4c40 3cbc b9ac 763c d973 ac3b 1c3a 4cbc
00000290: 5802 da3c 4dc9 b93c 7f8a 36bd 521b 7ebc
000002a0: 557d d43b f2fb ab3c 5fcc cebc 9238 803b
000002b0: 1ec8 79bc 6ca2 1dbb 4db3 e03c 488e c6bc
000002c0: aa75 b4bb 392c 91bb 19db 0cbc 0710 a2bc
000002d0: 03ae 0d3b 87c4 eb3b 39fd b63b ca0e 583c
000002e0: 8d86 483c 4add dfbc daa7 fdbc d1df e6bb
000002f0: 6d26 5ebd af74 bfbc 3770 c7bb beb2 dd3c
00000300: 3525 21bd 5a59 2e3c 75f4 3abc a8a7 03ba
00000310: ab18 8b3c c008 10bb 5a38 32bc eb50 5f3b
00000320: 4836 db3b 3b1d ec3a 2353 643c 835a 12bd
00000330: bbdb fbba b1bc a93c fe72 0cbd e07e 3e3c
00000340: 9041 21bc 8b0f 80bc ea8a d8bc 7b28 f13c
00000350: 22c8 7cbc 0777 b7bc bf3f f2bc 6142 c4bc
00000360: e069 ae3b 59d5 983a 4c7c 42bc 2af5 4e3c
00000370: 4de1 6abd 5032 bb3b 5575 e4bc 5369 d83c
00000380: 345b 713c b85c 07bc 1daa c0bc d858 12bd
00000390: 0363 16bd 01b2 2e3c 340e b0bb 1322 2abc
000003a0: 0d0c 13bb 2c39 d8bc fa02 67bd 5bc8 563d
000003b0: acac 503c 1178 bfbc 89b4 823c 797f ba3a
000003c0: 9175 533d e6aa a5bb 8417 403c c8d4 923b
000003d0: f352 fabb 83d0 a73a 2988 453a fa45 3a3b
000003e0: b94e c0bc b02d c3bb 7859 613c 0e14 823c
000003f0: 5b42 52bb cc04 22bd c8e1 963b d6c7 0bbd

action_model._discrete_distribution.branches.0.bias f4 [5]
-0.005500644 -0.0090956595 0.0039519803 -0.022817181 0.036469247
00000000: bf3e b4bb f605 15bc 9d7f 813b 19eb babc
00000010: c760 153d

onnx::Div_52 f4 [13]
0.5554621 0.11464821 0.7162793 83.54333 0.0014108302 0.0014108302 0.45501444 0.062156923
0.55088764 431.0875 0.69078153 0.0788376 0.7159315
00000000: c432 0e3f aecc ea3d 155e 373f 2f16 a742
00000010: 9beb b83a 9beb b83a a7f7 e83e 4298 7e3d
00000020: f906 0d3f 338b d743 0fd7 303f 9c75 a13d
00000030: 4947 373f
