Assets/ML-Agents/Models/RabbitTimid.onnx (onnx, 81702 bytes, 8 tensors)

network_body.observation_encoder.processors.0.normalizer.running_mean f4 [13]
00000000: 40ac aebd 965e a9bb b942 82be 382a 9243
00000010: 0000 0000 0000 0000 cd14 02be 6cc6 fabb
00000020: 119a 43be 220d 5c43 7655 ecbc 8c48 963a
00000030: e5ba 4bbd
-0.08528948 -0.005168746 -0.2544153 292.32983 0.0 0.0 -0.12703247 -0.0076530483
-0.1910174 220.0513 -0.028849345 0.0011465712 -0.049738783

network_body._body_endoder.seq_layers.0.weight f4 [128, 13]
00000000: f048 58bd 2436 41be 05e4 f33e da57 4c3e
00000010: c2f1 6dbe cdb9 9dbe cd81 61be 4a84 3c3e
00000020: 430d 133e d6ee 4bbe f52d e8bd 2c11 2dbf
00000030: 21d1 e2bd 1666 30bd 74df 17bd 6c27 bebe
00000040: 9192 b33d d652 463d 12e5 63be 8f70 4ebf
00000050: 8ef3 e0bd a9ca 423e a758 65be 37c5 b23e
00000060: db6f b53e e811 983e 7e65 b83d 5d89 c7bd
00000070: fea2 843b 2883 1e3e 6a73 49be 0aed 93be
00000080: 30d0 df3d 715b d2be d343 0d3e 5e79 38bf
00000090: 00db a23e 37c0 d8bd b9a6 68be e795 c8bd
000000a0: ba7e 473d dd49 273e 6e17 0cbd f7cd 71be
000000b0: 55d8 a73d 95da 19be a096 49bf 1cff 843e
000000c0: d961 fd3d d9e3 00be 35db e73e eb8c 9b3e
000000d0: 10d1 13bf b662 8b3d b10f 063f f9d7 b7be
000000e0: a7a2 883d 0b7e 183d ea0a 18be b87a 65be
000000f0: fef8 75be a6ca c9be c43f 073d 76f0 b53d
00000100: 8dac 823e d8b0 78be c8d3 45be 5fd4 7a3e
00000110: a892 b4be 96b8 4a3e e720 acbe ee27 343d
00000120: 4517 1abd ece4 28bd 10f2 a73d de9a 00bf
00000130: 8b4a 13bf 8f00 163f 2b79 143e d88f 30be
00000140: 6cb0 883d 2dd5 b63c 59c7 eebd 1f50 a7be
00000150: 8855 8cbd b949 44be 0110 0c3f 1563 7ebe
00000160: 3b1e ae3d 58c8 73be 62e3 0c3e c778 733f
00000170: aede adbc bc91 9d3e 20e4 1dbe e746 fabd
00000180: 49b1 b2bd 7728 98be fd51 1dbd 3836 adbd
00000190: 57ed 6f3d 19e7 08bf bb17 b63e 7eb7 a4bd
000001a0: 0f04 08bd bfb7 a13e 44dd 623e 3da1 c13e
000001b0: f6b6 153e 4c1d dabc c07e b53c c861 943e
000001c0: 9a6d be3d 5a61 56bc dead f83e 3fe3 1f3f
000001d0: fe31 833e e2f8 e73c f08b 183e 3075 0ebf
000001e0: 0564 2e3e 522a 563c cc7e 84bd 62b6 993e
000001f0: e818 e7bd dbf5 163e 9813 933e 7f61 dbbe
00000200: 7f08 143e 47e2 cf3e f8cc b8bd 2a1c 36bd
00000210: 4b41 22bf 5921 ce3c 44e6 f63d 75ae a7be
00000220: 927a 193d 3a5c cf3d 9e9d debe ccca a1bc
00000230: e167 a93b d1c2 3bbe 9d8a 87bc ecd0 243e
00000240: 8c59 f03e 2686 a8be 02a1 0b3f b383 16be
00000250: 4823 7e3d c87b 1f3d e96b 3abe 39cb d6be
00000260: 3396 143f cec7 75be 53e1 fe3d a923 e2bc
00000270: 6a56 0dbd 807d cb3c 3b0f 9abe 9f21 c53c
00000280: 30b9 2cbd b427 543e 7874 0abe a6c9 1cbe
00000290: b27e 943e 4351 ddbe d7b5 50be 66cc f4bc
000002a0: eeca 393e a36a 943e cd5e 9e3e 40be 87be
000002b0: ad88 afbe 57c0 6abd 2266 12bf ffe0 3a3d
000002c0: 997d 7fbe 7336 3e3d f1d0 f7bc 363f 133f
000002d0: 4cd8 81bc f89f 71bd babc 46bd f969 8e3e
000002e0: 004c 823e ec8d 793e 764d 79be d4ab 763e
000002f0: 5ba9 fd3d 00e5 c5be eabc 91be 29ec 3c3d
00000300: 88fe c43e 9112 863e 8a36 443d 8f9e 86bd
00000310: 18b3 a6bc 4057 04bf 0969 bfbe 1553 243e
00000320: c09c b83e 8a32 77ba 4c9e 23bc 6ad0 11bc
00000330: 5c03 3ebd fe2a 14be 43f8 f03e 60ab 93be
00000340: fbb5 e53c a463 533e 8f68 1dbe 12d3 043e
00000350: 6903 1ebe da14 923d 3108 45bd a2bd b5be
00000360: 0a83 823e 58b7 433c 480b 09bd c87c 423e
00000370: ab78 7cbe 5db2 4e3e c7c7 91be 1512 7c3d
00000380: 55f7 ff3d 35c3 c13d 1765 213f 4e70 48bf
00000390: d33e b53e fdae 3c3d e26a ebbe a51e d73e
000003a0: fdd6 31bd 4d39 b23e 0b7d cdbe 6cb1 15be
000003b0: 38c7 cb3d da52 903d 6311 043f 3ed1 173e
000003c0: aad2 adbd 107e 0ebb b774 173d 9cc2 3cbe
000003d0: 21f1 853e 5d97 0abd 88a3 80be d512 8a3e
000003e0: 55e1 b4be 4616 85be 0b13 f5bd 21d0 7a3d
000003f0: 5501 fabe 7b9e 213d ef11 ce3b 1e43 cfbe
-0.052803934 -0.1886831 0.47634903 0.19955388 -0.23236755 -0.30805817 -0.22022171 0.1840984
0.14360528 -0.19915327 -0.113368906 -0.6760433 -0.110750444 -0.043066107 -0.037078336 -0.37139452
0.0876819 0.048418842 -0.22255352 -0.806405 -0.10983954 0.19022621 -0.223971 0.34916088
0.354369 0.2970116 0.09003733 -0.09742997 0.0040477505 0.1547972 -0.19672933 -0.28891784
0.109283805 -0.4108539 0.13795404 -0.7206019 0.3180771 -0.10583537 -0.2271985 -0.097942166
0.04870484 0.1633677 -0.03420203 -0.23613726 0.08195559 -0.15024789 -0.7874546 0.25975883
0.123721786 -0.12586917 0.4528443 0.3038095 -0.5774088 0.06805937 0.52367693 -0.35906962
0.066716485 0.03722958 -0.14847913 -0.22410095 -0.24020764 -0.3941242 0.033019796 0.08883755
0.2552227 -0.2428621 -0.1931907 0.24495076 -0.3526814 0.19796976 -0.33618852 0.043983392
-0.037619848 -0.041233942 0.08200467 -0.5023631 -0.5753562 0.585946 0.14499347 -0.17242372
0.06674275 0.022318447 -0.11659116 -0.32678315 -0.06852251 -0.19168748 0.5471192 -0.24842484
0.0850186 -0.23806894 0.13758615 0.95106167 -0.021224346 0.3077525 -0.15419054 -0.12220555
-0.08725221 -0.29718372 -0.03840827 -0.08457607 0.058575954 -0.5347763 0.3556498 -0.08042811
-0.033206996 0.315855 0.22154719 0.37818328 0.14620575 -0.026625298 0.022155166 0.2898085
0.092982486 -0.013084734 0.4857015 0.62456125 0.2562408 0.028316919 0.14897132 -0.55647564
0.17030342 0.013071613 -0.06469497 0.3002196 -0.11284047 0.14742224 0.28725886 -0.4284782
0.14456366 0.40602323 -0.0902347 -0.044460453 -0.6338088 0.025162386 0.120556384 -0.32750288
0.037470408 0.10125013 -0.43479627 -0.019750021 0.005169854 -0.18336035 -0.016545588 0.16095322
0.4694332 -0.32914847 0.54542553 -0.14698677 0.062045366 0.038936406 -0.18205227 -0.41951922
0.58041686 -0.24002 0.12445321 -0.027604895 -0.03450624 0.024840117 -0.30089745 0.024063883
-0.042168796 0.2071827 -0.13520992 -0.15311298 0.2900291 -0.4322606 -0.20381866 -0.029882621
0.18143818 0.28987607 0.30931702 -0.26512337 -0.34283963 -0.057312336 -0.5718709 0.04562473
-0.24950255 0.046438646 -0.030250998 0.5751833 -0.015850209 -0.05899045 -0.048519827 0.27815226
0.25448608 0.24370545 -0.24345955 0.24088985 0.123858176 -0.38651276 -0.28464442 0.046123657
0.38475442 0.2618604 0.047903575 -0.065732114 -0.02034907 -0.5169563 -0.37384823 0.16047318
0.3605709 -0.0009429833 -0.009986471 -0.008899787 -0.046389922 -0.14469525 0.4706441 -0.28841686
0.028040877 0.20643479 -0.15371917 0.12971142 -0.15430988 0.07132883 -0.048103515 -0.3549624
0.254906 0.011945568 -0.033458024 0.18992913 -0.24655406 0.20185228 -0.2847273 0.061540682
0.12498347 0.09461061 0.63044876 -0.78296363 0.35399494 0.04606532 -0.45979983 0.42015567
-0.04341792 0.34809342 -0.40134463 -0.14618462 0.09950107 0.07047053 0.5158903 0.14825913
-0.084874466 -0.002174262 0.036976542 -0.18433613 0.2616053 -0.033835758 -0.25124764 0.26967493
-0.35328165 -0.25993556 -0.11966523 0.061233643 -0.4882914 0.03945778 0.006288759 -0.40480894

network_body._body_endoder.seq_layers.0.bias f4 [128]
00000000: be1e 1b3d 27f7 0e3d b156 3abd 4cbf 47bd
00000010: cd34 f03c 05d9 61bd c14a 153d c49c 073d
00000020: a286 2d3b 5dab 863d 6ae0 9b3d 39c6 053d
00000030: 6c3b 783d 9813 86bc 15b1 64bd b5cc 743c
00000040: 44a7 ca3b 3a84 983d 25d5 0b3d 6f16 c23b
00000050: e2a7 81bc 853f 273c a27a 4dbb 0bbc 303d
00000060: 5ae1 0abc 39fa 79bc eb27 d23c ad42 623c
00000070: f51f 813d c354 ff3b 94cc 343d df7e 343d
00000080: 0016 72b9 8ef1 2f3d 93b4 99bc 11e9 6e3b
00000090: 2a49 243c 16bf c43c c998 7b3c 8993 40bc
000000a0: e621 143d 6a82 e33c b586 15bd 07e8 913d
000000b0: 5a81 e03c cd2f 0d3d 383a 5b3d 7794 b0bb
000000c0: 3785 253d e2f0 143c 248d cf3c a54a 2d3d
000000d0: 4ec0 823c d751 b6bc 1399 7abc e330 0abc
000000e0: 2d03 09bd 8321 6c3d a47d d03c 0025 3a3d
000000f0: 1a8f c6bb 8553 5e3d 6c50 ec3c ce07 f63c
00000100: a0d8 94bd 0e22 68bd f40f 30bd e604 a7bc
00000110: f54a a2bb bb5f d33c 1056 80bc f9a3 7bbd
00000120: c28c 8e3c 78d0 b0bc 85ee d03c faf0 8e3c
00000130: 8f0e 693d 2485 973d 1e76 4c3d e1bf 773c
00000140: 9a04 53bd 4ebe f83c 39ea 9ebc 2a0d acbb
00000150: e0e1 633d 1545 55bd 848e ac3c 2c09 703d
00000160: a3c6 4a3d 1642 09bd b879 913d 57eb 8f3b
00000170: f6a5 d03c c713 94bc 16fe 263d 3e8e 173d
00000180: 7291 c7bc 3faf 1cbc 8195 84bd 33fe 7dbd
00000190: a193 0b3b 1f90 9d3c 4a99 afbb 0569 a7bc
000001a0: 5136 9a3d d038 f13c 6337 483d e822 0fbd
000001b0: ec3a c63a edd0 153d 6e62 6f3d 12fa 433d
000001c0: f65c 5a3d 85b4 583d 0683 663c 0300 dc3c
000001d0: eada 593d 2ab4 d2bc 2c0b 9bbc 2fe7 663d
000001e0: 1081 d63c bbb2 a53b 7343 9e3c 61ea 4abd
000001f0: 4648 0c3d 754e 3cbd 75bf 353d 4396 e53c
0.037871115 0.03490367 -0.04549283 -0.04876642 0.029322052 -0.055138607 0.036448244 0.033108488
0.0026477952 0.06575654 0.07611163 0.032659743 0.060603544 -0.016366765 -0.05583294 0.014941384
0.0061844904 0.07447095 0.034138817 0.0059230844 -0.015827123 0.010208015 -0.0031353612 0.04314808
-0.00847658 -0.015257412 0.0256538 0.013809842 0.063049234 0.007792087 0.044140413 0.044066306
-0.00023087114 0.042954974 -0.018762862 0.0036454836 0.010027209 0.024016898 0.015356251 -0.011753925
0.03616514 0.027772147 -0.03650542 0.07124334 0.02740543 0.034469415 0.05352232 -0.005388792
0.040410247 0.009090634 0.025335856 0.042307515 0.015960839 -0.022255821 -0.015295285 -0.008434507
-0.033450294 0.057649147 0.025450535 0.045445442 -0.0060595395 0.05427887 0.028846942 0.030033018
-0.072678804 -0.056673102 -0.042983964 -0.020388078 -0.004952783 0.025802484 -0.015666038 -0.061435673
0.017401103 -0.02158378 0.02550436 0.017448891 0.05689865 0.073984414 0.049917333 0.015121431
-0.05151806 0.030364182 -0.019398795 -0.0052505927 0.055635333 -0.052067835 0.02106405 0.058602497
0.04950584 -0.03351029 0.07103294 0.0043920684 0.025469761 -0.018075837 0.04076966 0.037000887
-0.024361346 -0.009563266 -0.06473828 -0.06201 0.002129771 0.019233761 -0.0053588497 -0.02043582
0.07529891 0.029446036 0.048880946 -0.0349454 0.0015123761 0.0365762 0.05844348 0.047845908
0.05331131 0.05290653 0.014069324 0.026855474 0.05318729 -0.025720675 -0.018926226 0.056372818
0.026184589 0.0050567067 0.019319272 -0.049539927 0.034248613 -0.04597326 0.04437204 0.028025752

network_body._body_endoder.seq_layers.2.weight f4 [128, 128]
00000000: f135 72bd 8013 56be b733 99bc 523f f2bc
00000010: e611 c7bc 66c4 183d 8b8b 6e3d 678e 98bd
00000020: e678 e1bd 6d08 d43d 6d0b f0bd dae2 433e
00000030: e50c 3c3c a4e8 08bb 912f 213d 9ab4 2cbd
00000040: b663 343d 100c fbbd 67f6 c53c 5f9e 68bd
00000050: 3b64 00be fd29 32be bdf8 1b3d c147 86bd
00000060: d8db 1e3e c8af 06be b0a3 3bbe 8abb 8b3c
00000070: dfae d4bd 4074 b5bd b203 f23d 0cbc 6abd
00000080: 3f79 03be b6e7 8dbd bebe 543d 0759 823d
00000090: b029 123d 8e8e 4fbd 0506 23be 9b2d afbd
000000a0: ca29 dfbd 8ff7 493d 22fc 1bbe af60 edbd
000000b0: 3158 3b3d df74 823d 96c3 cb3d 4e1c dabc
000000c0: f817 30be 02ec 2a3d 879d 99bd 9b6c 2dbe
000000d0: 611d dfbd ac52 8ebd 88fd c0bd 5577 c5bc
000000e0: 0cd6 28be f211 8b3d e053 bfbd 45d3 1f3d
000000f0: a392 b23d 21d7 43bc c22a 183c 04d1 163d
00000100: 9213 503e c658 9cbd 9182 1ebe 135b 313d
00000110: 23c0 a03d 31ce bf3d 383b 333c d4fb f53d
00000120: 6b00 95bd be1b 293d e2f0 103d 44b8 69bd
00000130: dab4 54bc 7dd4 913c fb9c db3d 1e8d 953d
00000140: 9708 4fbd 0d89 6dbd d856 8fbc decf 8b3c
00000150: bfaa 49bc 3ebb a03c 66ba 10be c3e5 30bd
00000160: 4079 28be 832e 85bd 6d88 c2bd f5e3 683d
00000170: 1b82 953c a595 55bd 2c71 2fbe f10b a63c
00000180: 7250 c03d ed57 4abc 0487 0b3d ec47 a9bd
00000190: b953 12bd 719f 203e 6809 ba3d edd2 c33d
000001a0: dbd4 ebbc 7adb dabd a17b 11bb 61f0 733e
000001b0: 7077 e13c f2a5 b8bd 11cc d4bc 2de8 473d
000001c0: 1ffe 5cbd d2d2 1cbe 47d9 cf3d 0ce8 e1bc
000001d0: 8e54 16be be11 2a3d b6b6 f73b 6fa9 d2bd
000001e0: 27cc 203e 576c bc3d 7f9c 5bbe b790 07be
000001f0: d31f 29bc c571 b8bc 192e 7ebd 4d0e e6bc
00000200: 8c7b 0e3e f767 00bd 3134 cb3c 88a6 673d
00000210: f7f9 113d 1908 5ebc bc35 ebbb 3ef4 0e3e
00000220: 7c8f e2bb cad3 29bd 8677 cbbc 84ef 293d
00000230: 1231 093e c640 f03c cb4e 573e 035e 8f3d
00000240: 494c 063e bce5 b43d e9e7 88bd ffbc 4dbd
00000250: 3ffa 143e c13c 36bd 5bc0 83bc c207 c53b
00000260: 379f 0abe d404 acbd c0dc 9c3d 9967 423d
00000270: 363d 89bd d9ba 303d c2f9 44bc 0a1a 86bd
00000280: 408e 7837 6218 93bd 2823 0fbe 32f1 613d
00000290: 5eda 863d 7957 a5bd 8036 d33b af55 0fbc
000002a0: 00f2 333d 517f 623d ed4c b0bd 1e86 0fbe
000002b0: 7ee1 453d 92ac 0bbd 9a5f d2bb 326e f6bd
000002c0: be77 fabd 1ea5 06bd 4190 d6bc 4e56 4d3d
000002d0: 6d59 d4bc 7002 0dbe 6632 563d 9f46 77bc
000002e0: c1f2 a8bd b904 96bd a65e 29be 216b d03c
000002f0: 5b92 143b 88a1 c7bd b0f6 98bd f35e 213d
00000300: 83cf d9bd 11be 07be 13a7 323d bd94 a2bd
00000310: 4242 70be dc45 983d e715 44be ab90 bbbd
00000320: 4ae0 8abc 37de 0cbd 6eab 45bd 0c34 2c3e
00000330: 957a e3bd 6418 913d c9b9 093d 8955 8a3c
00000340: 1005 4c3d 576d b2bd fbc2 483c 20ac 42bd
00000350: 375e d7bd 2a03 14bd 4387 3f3c d903 593b
00000360: e889 2ebd 3865 22be a724 30bd 0ae2 11bd
00000370: 0083 28bd ad88 e0bc 0f41 f83d 5db7 e7bd
00000380: 7855 0f3d 3ad2 19bd 350b d93d a511 2d3d
00000390: 1e62 a53c 9611 a13c 8c64 c9bc bc47 6fbc
000003a0: da4c 79bc 0784 2d3d e9a8 35bd 945c 26bd
000003b0: afa8 e3bc 7d69 26bd da46 6fbe e383 d2bc
000003c0: 89c9 a2bd e2b3 f8bd 4c2e 5f3b 7641 0a3d
000003d0: 254b a1bd 4dc2 75be 2b78 f3bd 6467 b2bb
000003e0: 648c 133e 727a 22bd 6c31 103e 52b0 78be
000003f0: dc82 c93d 131a 833d 5b14 953d 6a99 3a3d
-0.059133474 -0.20905876 -0.018701417 -0.02957121 -0.024300527 0.037296675 0.058238547 -0.07449036
-0.11009388 0.103531696 -0.11720929 0.19129506 0.011477684 -0.0020890618 0.039352003 -0.042164423
0.044040404 -0.1225816 0.024165345 -0.05679166 -0.12538235 -0.1739883 0.038079012 -0.06556655
0.15513551 -0.13152993 -0.1832416 0.017057199 -0.103849165 -0.088600636 0.11817111 -0.05730824
-0.1283922 -0.06928961 0.05193972 0.06364637 0.035684288 -0.05067306 -0.15920265 -0.085536204
-0.108966425 0.049308356 -0.152329 -0.115907066 0.045738403 0.06369948 0.099494144 -0.026624825
-0.17196643 0.04172898 -0.07500749 -0.16935961 -0.108942755 -0.06949362 -0.09423357 -0.024104754
-0.16487902 0.06790532 -0.0934217 0.03901984 0.08719375 -0.011953146 0.009287538 0.036820427
0.20319965 -0.0763412 -0.15479495 0.043299746 0.07849147 0.093655 0.010939412 0.12010923
-0.0727547 0.041286223 0.035385974 -0.057060495 -0.0129825715 0.017801518 0.10723301 0.073023066
-0.0505453 -0.05799203 -0.017497465 0.017066892 -0.012308775 0.019620534 -0.14133605 -0.043187868
-0.16452503 -0.06503012 -0.094986774 0.05685802 0.018250516 -0.052144665 -0.17133015 0.020269366
0.09390344 -0.012350065 0.034064308 -0.08265671 -0.035724375 0.15685822 0.09083825 0.09561715
-0.02878802 -0.10686393 -0.0022198933 0.23822166 0.027522773 -0.090160266 -0.025976213 0.048805404
-0.053953286 -0.15314797 0.10148864 -0.027576469 -0.14680693 0.041520827 0.0075596226 -0.10286223
0.15702878 0.09200352 -0.21446417 -0.13238798 -0.010322529 -0.022515187 -0.06205568 -0.028082991
0.13914317 -0.03134915 0.02480516 0.0565553 0.035638776 -0.013551735 -0.0071780365 0.13960359
-0.0069140773 -0.041461743 -0.024837267 0.041488186 0.13397625 0.029327761 0.21026151 0.07000353
0.13115038 0.08832881 -0.06684858 -0.05022907 0.14548586 -0.044491533 -0.016082933 0.0060128877
-0.13537298 -0.083993584 0.07659292 0.04746208 -0.06701128 0.04314694 -0.0120224375 -0.06547935
1.4815072e-05 -0.07182385 -0.13978255 0.055161662 0.06584619 -0.08073325 0.006445706 -0.008748456
0.04393196 0.0552972 -0.086084224 -0.14016005 0.04831075 -0.034100123 -0.006420088 -0.12032737
-0.1222987 -0.03287231 -0.026191832 0.050131135 -0.025921548 -0.13770461 0.052294157 -0.015092521
-0.08249427 -0.073251195 -0.16540012 0.025441708 0.0022670242 -0.097476065 -0.07468927 0.03939719
-0.10635283 -0.13256098 0.043616366 -0.07938526 -0.23462775 0.074351996 -0.1914898 -0.091584526
-0.016952652 -0.034391608 -0.04825919 0.1681673 -0.11107365 0.0708473 0.033624444 0.01688649
0.049809515 -0.08712261 0.012253518 -0.047527432 -0.10516017 -0.03613583 0.011689964 0.0033113866
-0.042611986 -0.15858924 -0.043003704 -0.03561596 -0.041140556 -0.027408922 0.12121784 -0.11314271
0.03499362 -0.037554003 0.10597841 0.042253155 0.020188387 0.019661706 -0.024584077 -0.014604505
-0.015216077 0.04236224 -0.04435054 -0.040615633 -0.027790396 -0.040627945 -0.23366871 -0.025697654
-0.07948596 -0.12143685 0.0034054695 0.033753835 -0.07875661 -0.23999901 -0.118881546 -0.005444454
0.14409024 -0.039667554 0.14081353 -0.24286011 0.098394126 0.06401458 0.07279273 0.045556463

network_body._body_endoder.seq_layers.2.bias f4 [128]
00000000: 4c3f 67bd fa75 2bbd a6f8 5dbd 193d 36bc
00000010: f47c 7dbd 4dbc 2f3d 79be a7bd 6581 20bd
00000020: a13a 4bbd 1c67 7a3d f734 e7bc ff9d a0bd
00000030: 480a 353d c498 0cbd c395 febb 340b 083b
00000040: 3f5c 833d d90f f8bc 4be5 75bd b3cb 1bbd
00000050: 272b 643d c658 87bc 06ab b83c 6e02 743d
00000060: 1664 24bd 7666 423a d34e edbc bfeb 87bc
00000070: 3474 a9bc c534 a2bc 7516 ba3a 0883 d4bd
00000080: 4980 96bd ece4 8cbd 62e0 81bc 0371 fa3c
00000090: 7f6e 6bbd 9d73 dabd a379 493d f593 3c3d
000000a0: cb08 a13d 960c 153d 4e6f c63b b246 82bd
000000b0: ed58 003d 200c a53c d057 3a3d c730 1a3d
000000c0: b46f 2a3c fb82 b23c 6237 143d 224c 3abd
000000d0: 5549 443d 7177 3bbd ad0b 723d e31a 07bd
000000e0: dcdc 03bd 73b2 e5bb a54c 86bc a81d 95bc
000000f0: fb0a 743d e1a0 60bd 5089 4bbd 4b84 8ebc
00000100: 2152 703d eab4 abbd 171f 0e3d c0dd 3b3c
00000110: 0051 7bbd b281 d73c 3f21 0ebd 17e8 7d3d
00000120: 3bc1 85bb bf17 c5bc cdd8 293d 210c 26bd
00000130: 0cf9 d4bc 1051 5bbd bd82 ab3b 6764 7c3c
00000140: 1850 03bd b8ba 0bbc 3a0c ad3c a1df d7bb
00000150: 937c c6bc 1db7 35bd 5c25 7e3c 4329 a4bc
00000160: ae95 993c e5f7 763d 0d79 28bd acf8 043d
00000170: 8b08 ccbd 2eea 9abc 2256 8f3c d281 cbbc
00000180: edae 0d3d d162 8fbc 35fd 543d fa39 973d
00000190: 479f 083d ff63 1a3d 07bb 69bc 56e5 7ebd
000001a0: 5613 8e3d c5ef 643d 5a67 c73c 2ba6 b6bc
000001b0: 8215 263d 96f0 a6bd 8823 babb 4cc1 a0bc
000001c0: 07a5 713c 448b dcbc fa00 583d 72f0 8abd
000001d0: 1a5a 13bd 052d 8ebd cd87 873d 4402 943d
000001e0: 856f 713d b2f7 8bbc 048b 483d 67e9 38bd
000001f0: c2cc 0ebd 73d5 ccbc 64f9 0d3d 0b0e e6bc
-0.05645685 -0.041860558 -0.054192208 -0.011122965 -0.061886743 0.042904187 -0.08190627 -0.0391859
-0.04961646 0.06113349 -0.028223498 -0.07842635 0.044199258 -0.034325376 -0.007769318 0.002075863
0.06414079 -0.030280994 -0.060033124 -0.03803606 0.055705216 -0.016521823 0.022542488 0.05957263
-0.040134512 0.00074157806 -0.02896825 -0.016591905 -0.020685293 -0.019800553 0.0014197367 -0.10376555
-0.07348687 -0.06879601 -0.015854064 0.030571466 -0.057478424 -0.10666583 0.049188267 0.04603954
0.07863005 0.036388956 0.006055749 -0.0636114 0.031334806 0.020147383 0.0454939 0.037644174
0.010402609 0.021790972 0.03618563 -0.045482762 0.047921497 -0.045768205 0.059093166 -0.032984626
-0.03219305 -0.007009798 -0.016393969 -0.018202618 0.059580784 -0.054840926 -0.0496915 -0.017397067
0.058672074 -0.08384116 0.03469762 0.011466444 -0.061356544 0.02630696 -0.034699675 0.061988916
-0.0040818728 -0.024059175 0.041466523 -0.04053891 -0.025997661 -0.053544104 0.005234091 0.015404797
-0.032058805 -0.008528404 0.021123994 -0.006587938 -0.024229323 -0.044364084 0.015511837 -0.020039206
0.01874813 0.060295004 -0.041131068 0.032463714 -0.09962567 -0.018910494 0.017497126 -0.024842177
0.03459065 -0.017503174 0.05199929 0.07384105 0.033355024 0.03769302 -0.014265782 -0.06223043
0.06937282 0.055892725 0.024341274 -0.022296032 0.040547855 -0.08151357 -0.005680505 -0.019623421
0.014748818 -0.026921876 0.052735306 -0.067841426 -0.0359746 -0.069421805 0.06617699 0.07226995
0.058944244 -0.017085884 0.0489607 -0.045144465 -0.03486324 -0.025004124 0.034661666 -0.028082868

action_model._discrete_distribution.branches.0.weight f4 [5, 128]
00000000: 96fb be3c a768 7c3c 89ba 18bc 821b 8a3c
00000010: a8c3 f53b b124 be3c 9d14 773c c355 963c
00000020: 834b 1f3d 5e40 77bc 538a ce3a 7297 143c
00000030: 9e73 a2bc 051a 87ba f1cf 05bb 4492 113b
00000040: 2683 893b e49e be3a 2e07 843c 5ba9 cabc
00000050: 63ad 163c 3d21 453d 68a1 a3bb 1cd6 33bd
00000060: 67e8 d73b 9c5a 98bc e56d 203c 184c 25bc
00000070: 03c5 61bb 7be5 a8bc a3d3 b9bb 60d0 ce3c
00000080: 5942 463d 3b54 ef3c b4f3 b1ba 2427 fb3c
00000090: 7e27 f53b 9f43 b73c 2472 963c 1d91 9dbb
000000a0: ed8f 0fbd e7b6 043d 3413 edbb a491 753b
000000b0: 071d 0d3c e107 fd3a d2d4 b13b c442 c63c
000000c0: b2d4 8a3c f275 c23b a819 5f3c 0ae4 9f3b
000000d0: 3a5c d7bc 7c40 073c 2f76 f4bc c3a1 0a3d
000000e0: 156e 073c 62d2 643c 7622 23bb 03f9 0abb
000000f0: 217e 05bd dd2d 0c3b b938 073d 5e34 09bc
00000100: 7118 eebc 0a9b e13c 991e 1d3a a215 e33c
00000110: 2586 503d ba02 bbbc 08be 973c 24f9 b3bc
00000120: e98c a7bc 6a2b a83b 6a6c d4bc 1165 7f3c
00000130: 9935 303c 6c3f a13b 34f3 fabc ff48 9e3c
00000140: 6f7f 9f39 7203 843a b47a c23b b911 373c
00000150: c031 ac3c 5c27 a83c eb71 043d d5dc 933c
00000160: 93ac 9ebc 0e33 33bd 9eb8 d03b 099f e9bb
00000170: 528c cf3c c604 bc3c 5fa9 283b 8151 7aba
00000180: f15c 573c d83a 0c3a 63a7 b13c 8280 b7bc
00000190: 6dcb 1cbd 78a3 f1bc f768 c9bc 2253 0f3c
000001a0: b889 a6bc e4b2 fdbc a472 6cbb 9c3e 7d3c
000001b0: 9903 91bb 816d 403c 97a4 463c 7ef3 353c
000001c0: 84c0 a4bb d52e 33ba c3cc 67bc dfe9 f53c
000001d0: a883 043d 142f 0f3c d37c e0bc 8e58 75ba
000001e0: 547c b83a 45dd 083d d3bd bebc ecd6 453c
000001f0: c379 ae3b 2bc9 053d fe73 d0bb d99d cfbb
00000200: d0a5 b63c 7904 893b 8c07 b33c 1270 acbc
00000210: bac8 833c c0b4 d7bc 3d67 c23c 1fed 493c
00000220: 8605 823c c658 bdbc bba1 9fbb eb5c cb3c
00000230: 073d 98bc 3c10 e43c d9e9 40bc b514 0ebc
00000240: 1f79 07bd 2e3d 92bb 8161 ce3b 3bde aa3b
00000250: 5c07 03bd 249a 073c 3cb7 e2bc fc1e a2bc
00000260: a463 543c e3d6 003d f3ee 65bc de45 e53c
00000270: 5593 df3c f931 0a3c eb61 463a 7376 473b
00000280: f168 ac3c 5fa5 51bc abf4 ce3c 679f 13bc
00000290: 38b2 493c c44e 813c 1bc0 35bd adc8 dabb
000002a0: 1b39 a7bc 11cc cfbc 3db4 a7bc 5a59 ce3c
000002b0: 9c52 e0bb cf0c f7bb 525f 21bc a9b1 bcbc
000002c0: 7a91 54bc 4525 febb 538d aebb d5aa aabb
000002d0: 851f 663c 1aa8 ff3c 6774 973c c969 963a
000002e0: dee0 ea3c 5ed0 673c 37a1 0abc 53e3 d43a
000002f0: 17e0 0dbc 2f60 e83c 22b9 8cbb 3e5e 213c
00000300: e8ef e6bb 55f9 903c 64d3 8bbc 9fec ffbb
00000310: de2f 7b3c c010 c339 c112 bc3b 021d 96bc
00000320: 05b4 51b9 d127 a6bc 8a14 aabc b984 d2bc
00000330: f0b2 773b a542 333c 62d5 36ba 0ed1 9cbc
00000340: 72ee 203c d90c 283c 0f40 bfbc 67cd 03bc
00000350: 56aa 8739 6a57 5939 75b1 b0bc 6fa2 dbbb
00000360: 5ef9 0dbc 290d b138 c3c5 67bc 5a80 fabc
00000370: f138 093d 7c79 14bc d923 abbc 3a77 ad39
00000380: 1e98 b9bc bdbe 513b 3f69 fcbc a058 cdbc
00000390: f540 b33b 7099 6abc 02ad e23c e501 873c
000003a0: ecd8 b8bc 5a16 7c3c bf76 8cbc 5de0 6ebc
000003b0: 131c 54bc 2b99 743c 05ad a2bb a08c e5bc
000003c0: a843 10bb 1937 843c a043 4abc 8c4d 883b
000003d0: 4933 acbc c072 a13c 998f 973c a5ec 2abb
000003e0: 8191 96bc 4074 d8bc d51b 32bc 3516 8b3c
000003f0: 4881 30bc 5092 41ba 51eb 193c 4c81 ae3b
0.023313325 0.01540581 -0.009321817 0.01685882 0.0075001307 0.023210855 0.015080598 0.018351441
0.038890373 -0.01509103 0.0015757777 0.0090693105 -0.019830521 -0.0010307437 -0.0020418132 0.0022212425
0.0041965423 0.0014543203 0.016116705 -0.024738958 0.009196612 0.0481274 -0.0049936064 -0.043905362
0.006588984 -0.018597893 0.009791826 -0.010088943 -0.0034449704 -0.020617237 -0.005670981 0.025245845
0.048403118 0.029214969 -0.0013576658 0.030658312 0.0074815145 0.022371111 0.018364973 -0.0048085586
-0.035049368 0.03240099 -0.007234955 0.0037470842 0.008612878 0.0019304716 0.0054269815 0.024201758
0.016947124 0.0059344703 0.013616957 0.0048794793 -0.026289094 0.00825512 -0.02984151 0.033845674
0.008265992 0.013966175 -0.0024892366 -0.0021205551 -0.03259099 0.0021389641 0.03301308 -0.008374302
-0.029064389 0.027539749 0.0005993634 0.027720276 0.05090918 -0.022828449 0.018523231 -0.021969385
-0.020452933 0.0051321285 -0.025930602 0.015588061 0.010754966 0.0049208906 -0.030633546 0.019321917
0.0003042179 0.0010071828 0.0059350375 0.011173659 0.021019816 0.02052658 0.032335203 0.018049637
-0.0193694 -0.04374986 0.0063696643 -0.007129554 0.025335465 0.022951495 0.0025735719 -0.0009548888
0.013144718 0.00053493446 0.021686262 -0.022400144 -0.03827994 -0.029496893 -0.024586184 0.008747848
-0.020329341 -0.03096909 -0.0036079073 0.015456822 -0.0044254777 0.011744858 0.012124202 0.011105416
-0.0050278325 -0.00068352866 -0.01414794 0.030018745 0.03235212 0.008739252 -0.02740327 -0.0009359204
0.0014075139 0.033414144 -0.023283875 0.012075167 0.0053245737 0.03266255 -0.0063614836 -0.0063359556
0.022295862 0.0041814414 0.021854185 -0.021049533 0.016086925 -0.026331306 0.023730868 0.0123246005
0.015871774 -0.02311362 -0.0048715747 0.02482458 -0.018583788 0.027839772 -0.011774504 -0.008671929
-0.033074494 -0.0044628596 0.0062982445 0.00521448 -0.03198944 0.008276496 -0.027675264 -0.019790165
0.012963209 0.031454932 -0.014034021 0.027987417 0.027291933 0.008434766 0.00075676915 0.0030435591
0.021046134 -0.012795775 0.025263151 -0.009010172 0.012310557 0.015784629 -0.04437266 -0.0066767544
-0.020412972 -0.025365861 -0.020471686 0.02518909 -0.0068457853 -0.0075393687 -0.009849386 -0.023033934
-0.012974137 -0.0077559077 -0.0053269058 -0.005208353 0.014045601 0.031208087 0.018488122 0.0011475618
0.028671678 0.0141488 -0.008461288 0.0016242064 -0.008659384 0.028366176 -0.0042945305 0.009849129
-0.007047642 0.017697016 -0.017068572 -0.00781019 0.015331237 0.00037205778 0.0057395403 -0.018324379
-0.00019998856 -0.020282658 -0.020761747 -0.025698053 0.0037795864 0.010941182 -0.00069745455 -0.019142654
0.009822475 0.010256969 -0.023345975 -0.008044577 0.00025876117 0.00020727297 -0.021568993 -0.006702713
-0.008665411 8.442469e-05 -0.014146271 -0.03057878 0.03350157 -0.009062167 -0.020891117 0.00033085962
-0.022655543 0.0032004558 -0.030811904 -0.025066674 0.00547039 -0.014318809 0.027670387 0.016480396
-0.022564374 0.015386188 -0.017146466 -0.01457986 -0.012946147 0.014929096 -0.004964473 -0.028021157
-0.0022012983 0.016139554 -0.012345225 0.004159635 -0.021020548 0.019708037 0.01850109 -0.0026080993
-0.018379929 -0.02642262 -0.0108708935 0.016978363 -0.010773011 -0.0007384168 0.009394483 0.005325472

action_model._discrete_distribution.branches.0.bias f4 [5]
00000000: 40fd d0bc 1ff4 13bd 8b07 7ebb a3da e2bc
00000010: eb07 a83d
-0.025511384 -0.036121484 -0.003876182 -0.027692145 0.08204635

onnx::Div_52 f4 [13]
00000000: d602 2e3f ccd7 0c3d c46e 2e3f c9a5 2343
00000010: abd0 103b abd0 103b b7ce 2f3f 36e9 6d3d
00000020: 26d9 2f3f 8430 2143 a47b 313f e214 963d
00000030: 1bf1 363f
0.6797308 0.034385487 0.68137765 163.6476 0.0022097032 0.0022097032 0.68674797 0.058083735
0.6869072 161.18951 0.69329286 0.07328202 0.7146165
