Assets/ML-Agents/Models/RabbitMedium.onnx (onnx, 81702 bytes, 8 tensors)

network_body.observation_encoder.processors.0.normalizer.running_mean f4 [13]
0	0x3e33feef	0.17577718
1	0xbb0c750e	-0.0021432075
2	0x3e18c92c	0.14920491
3	0x43a77e4b	334.98666
4	0x00000000	0.0
5	0x00000000	0.0
6	0x3d2d51eb	0.04231445
7	0xba847430	-0.0010105427
8	0x3d74f621	0.05980504
9	0x443eed8b	763.7116
10	0xbb887575	-0.0041643926
11	0xb9abc39f	-0.0003276141
12	0x3cf5e9d3	0.030018723

network_body._body_endoder.seq_layers.0.weight f4 [128, 13]
0	0xbe134762	-0.14382699
1	0x3e51af8f	0.20477127
2	0xbe9ebe26	-0.31004447
3	0x3eba2d7f	0.36362836
4	0x3e5558e0	0.20834684
5	0xbe86462e	-0.26225418
6	0x3d7778b0	0.06041783
7	0x3e237682	0.15963176
8	0x3d1c7123	0.038193833
9	0x3ddfa11c	0.10919401
10	0xbef7c1ea	-0.48390132
11	0xbdbf5bae	-0.093436584
12	0xbc38cf5d	-0.011279908
13	0xbe6cd375	-0.2312754
14	0x3ed0a121	0.40747932
15	0xbe14a37d	-0.14515491
16	0x3e03e2cb	0.12879483
17	0x3edb3b36	0.42818612
18	0xbe32a3a4	-0.17445236
19	0xbe017179	-0.12640943
20	0xbe1130e6	-0.1417881
21	0xbf030434	-0.5117829
22	0x3de79548	0.1130777
23	0x3debc5db	0.11512347
24	0xbf5d3c85	-0.8642047
25	0x3c68fdf2	0.0142207015
26	0x3e46fab9	0.1943158
27	0x3ccc0313	0.02490381
28	0x3e0ce7d5	0.13760312
29	0x3e5a696e	0.2132928
30	0x3ecc03ad	0.39846554
31	0xbf4146f1	-0.75498873
32	0xbdcada1d	-0.09904883
33	0x3e29c5bb	0.16579334
34	0xbe930902	-0.2871781
35	0xbeebb4c0	-0.4603634
36	0xbe9d074d	-0.30669633
37	0xbe17a3a4	-0.14808518
38	0xbf19000c	-0.59765697
39	0xbee753cb	-0.45181116
40	0xbe30b60e	-0.17256948
41	0x3e61d48a	0.22053733
42	0x3d7184ef	0.058964666
43	0x3d9e70e6	0.077363774
44	0x3e77fd35	0.24217685
45	0x3eed181d	0.4630746
46	0xbdab7018	-0.083709896
47	0x3e4800ef	0.19531606
48	0xbeb5715e	-0.35438055
49	0x3e735439	0.23762597
50	0x3de5bf4c	0.112181276
51	0x3ab23749	0.0013596799
52	0xbdb87464	-0.09006575
53	0xbe4da0d0	-0.20080876
54	0xbe0759b7	-0.13217817
55	0x3e4aaa9b	0.19791643
56	0xbe9a1f2e	-0.30101913
57	0x3e627ab5	0.22117122
58	0x3bbc12aa	0.0057395296
59	0x3e84a032	0.2590347
60	0x3eab5622	0.33464152
61	0xbafb7681	-0.0019185097
62	0xbe975272	-0.29555088
63	0xbec2d0d1	-0.3804994
64	0xbdbb03f3	-0.09131613
65	0xbe909b50	-0.28243494
66	0x3d8cb624	0.06870678
67	0xbe8acd5d	-0.27109805
68	0xbe605901	-0.21908952
69	0xbf2be238	-0.6714206
70	0x3e15f3ab	0.14643733
71	0xbec575a2	-0.3856631
72	0xbed722e4	-0.42018807
73	0x3eb6bc2c	0.3569044
74	0x3ddfba8a	0.109242514
75	0x3e214fbb	0.15753071
76	0x3e7fecf7	0.24992739
77	0xbea73722	-0.3265925
78	0x3e611f9f	0.21984719
79	0xbeab678c	-0.33477437
80	0xbe8e22cd	-0.27760926
81	0xbdda7434	-0.10666695
82	0x3e2efbb7	0.17088209
83	0xbd71e641	-0.059057478
84	0x3dd2a1b1	0.102847464
85	0xbf17d3a0	-0.5930729
86	0xbf0188cf	-0.5059938
87	0x3ed69f3e	0.41918367
88	0xbed7bdde	-0.42137045
89	0xbf1ebd9a	-0.6200806
90	0x3e44e0f3	0.19226436
91	0x3e681f07	0.22668086
92	0x3e784691	0.24245669
93	0x3d5ece4d	0.054395963
94	0xbe8437d0	-0.25823832
95	0xbf07403f	-0.52832407
96	0x3d36e38f	0.04465061
97	0xbe9b7a8a	-0.30366927
98	0x3e0d51ed	0.13800783
99	0xbe95256b	-0.2913011
100	0x3ee4a07c	0.4465369
101	0xbd394694	-0.045233324
102	0xbec5b1b9	-0.38612154
103	0x3d620d26	0.05518832
104	0x3eb70dec	0.3575281
105	0xbe88a202	-0.26686102
106	0x3d889c91	0.06670488
107	0x3ddf5b62	0.10906102
108	0x3d5d767b	0.05406807
109	0x3dd28b94	0.10280529
110	0xbed81f8c	-0.42211568
111	0xbe88a7b1	-0.26690438
112	0x3dac1afe	0.08403586
113	0x3db5f152	0.08883919
114	0xbe9620c5	-0.29321876
115	0xbf06341f	-0.5242328
116	0x3e845c7b	0.25851807
117	0xbda449f8	-0.08021921
118	0xbd3eb130	-0.046555698
119	0xbdf57959	-0.11986036
120	0xbe3d05d2	-0.18459252
121	0xbda34abc	-0.07973239
122	0x3e56db05	0.20981987
123	0x3d67baa1	0.056574468
124	0xbd871238	-0.06595272
125	0x3db1db0e	0.086843595
126	0xbe8a6717	-0.27031776
127	0x3e922def	0.2855067
128	0x3edb828d	0.4287304
129	0xbd0d3c63	-0.034481417
130	0x3def756c	0.11692318
131	0x3eb78429	0.35843018
132	0x3ee5840f	0.44827315
133	0xbe172643	-0.1476069
134	0x3d5bffe3	0.05371083
135	0x3ce7d2ff	0.028298853
136	0xbe83f542	-0.25773054
137	0x3d902e6a	0.07040103
138	0xbd9d3bcb	-0.0767742
139	0xbeebc37e	-0.46047586
140	0xbf397a77	-0.7245249
141	0xbe5829e9	-0.21109737
142	0x3e11ee93	0.14251165
143	0xbee1745f	-0.44034097
144	0xbd1589d6	-0.036508404
145	0x3df88845	0.12135366
146	0xbdad20da	-0.084535316
147	0x3eb27935	0.348581
148	0x3ebeeee8	0.37291646
149	0xbe4a2437	-0.19740377
150	0xbd066811	-0.03281409
151	0xbeaaaf9d	-0.33337107
152	0x3edeee0f	0.43541
153	0x3d5bc192	0.0536514
154	0x3f13f02a	0.57788336
155	0x3f604903	0.8761141
156	0xbe4211af	-0.18952058
157	0x3e82eb2b	0.25570044
158	0xbe2d5eb7	-0.16930662
159	0x3effe75e	0.49981207
160	0xbd3b02bd	-0.04565691
161	0xbe412bc9	-0.18864359
162	0x3e636d0d	0.22209568
163	0xbde1ff89	-0.110350676
164	0xbd84b572	-0.064799204
165	0xbe81200a	-0.25219756
166	0xbddf4368	-0.109015286
167	0x3e321090	0.1738913
168	0xbe167c5b	-0.14695875
169	0xbdf20428	-0.11817199
170	0x3e314d1f	0.17314576
171	0xbf0dc49a	-0.55378115
172	0xbe42e0a4	-0.19031006
173	0x3e5aa2ca	0.21351162
174	0xbe34f444	-0.17671305
175	0xbd3a7ee5	-0.045531172
176	0xbdfb3d90	-0.122676015
177	0xbe50909b	-0.20367663
178	0xbe22039a	-0.15821686
179	0xbf605d49	-0.8764234
180	0xbf0417ab	-0.51598614
181	0x3d828d62	0.06374623
182	0x3edf04ce	0.43558353
183	0xbe3c94fb	-0.18416207
184	0xbe0f835e	-0.14014956
185	0xbd0c792a	-0.03429524
186	0xbe6c9fe5	-0.2310787
187	0x3e8bb5d1	0.27287152
188	0x3eaf6e4a	0.3426383
189	0xbda43a3d	-0.080189206
190	0xbe61b1f6	-0.22040543
191	0x3d5bd5e5	0.053670783
192	0xbe5a128b	-0.21296136
193	0x3b8fc943	0.004388006
194	0xbe50baef	-0.2038381
195	0xbe519f12	-0.20470837
196	0x3ea7d122	0.32776743
197	0xbddbc2b4	-0.10730496
198	0x3e9c5cdc	0.30539596
199	0xbda2804d	-0.07934628
200	0xbe50dc3e	-0.20396516
201	0xbe0b5d3e	-0.13609788
202	0xbdf60279	-0.1201219
203	0x3d99e29a	0.07513924
204	0x3dd25c77	0.102715425
205	0xbdb01ae1	-0.08598877
206	0x3d9c2713	0.0762464
207	0xbe4139d7	-0.1886972
208	0x3e063bcf	0.13108753
209	0xbe9b2d5a	-0.30308038
210	0xbde720f9	-0.11285586
211	0x3f0e7ac4	0.55656075
212	0xbe0ce8e4	-0.13760716
213	0xbe8f4f14	-0.2799002
214	0x3e155d99	0.14586486
215	0xbea32977	-0.31867573
216	0xbe20a0bc	-0.15686315
217	0x3dfcd4a2	0.12345244
218	0x3ebecd43	0.37265977
219	0xbc011003	-0.007877353
220	0xbe0daf44	-0.1383639
221	0x3e1a7f3d	0.150876
222	0xbe31c22b	-0.17359225
223	0x3e86da64	0.26338494
224	0x3d62882c	0.055305645
225	0x3c20d1ec	0.009815674
226	0xbe313361	-0.17304756
227	0x3d82bb88	0.06383425
228	0x3f0018dc	0.5003793
229	0xbdc907e9	-0.09815962
230	0xbed7a397	-0.42116997
231	0x3e0ab615	0.13546021
232	0x3e90b6c7	0.28264448
233	0xbeddd7f6	-0.43328828
234	0x3e04a834	0.1295479
235	0x3e97ca70	0.29646635
236	0xbf218b7a	-0.6310345
237	0x3ef36faa	0.4754613
238	0x3e944f3f	0.2896671
239	0x3e60c4ac	0.21950024
240	0xbf051713	-0.51988333
241	0x3ecbad44	0.3978063
242	0xbec92bda	-0.3929127
243	0x3e08945c	0.13337845
244	0x3e39224b	0.18079488
245	0xbe88f1dc	-0.26747024
246	0x3f026f47	0.50951046
247	0x3dc42fb4	0.09579411
248	0x3d568147	0.052369382
249	0xbe6c4c29	-0.23075928
250	0x3cffe8e2	0.031238977
251	0x3ef26d85	0.47349182
252	0xbe663b17	-0.22483478
253	0x3d32a3e8	0.043613344
254	0x3e4389a9	0.19095482
255	0xbebce694	-0.36894667

network_body._body_endoder.seq_layers.0.bias f4 [128]
0	0x3d3c5719	0.0459815
1	0x3c715999	0.014730834
2	0x3c89dfca	0.016830344
3	0x3b3ad63f	0.0028509048
4	0xbc92e0fe	-0.01792955
5	0x3cef63e0	0.029222429
6	0xbc90f4c2	-0.017694835
7	0xbb5c172a	-0.0033583143
8	0x3c85304d	0.016258383
9	0xbc8caa5c	-0.017171077
10	0xbc9a2140	-0.018814683
11	0x3d01a0b8	0.031647414
12	0x3bf24bf7	0.0073943096
13	0x3bf7fc31	0.0075679054
14	0xbb6f5b06	-0.003652276
15	0xbdb15906	-0.08659558
16	0x3d6decdb	0.05808721
17	0xbd276c01	-0.040874485
18	0xbc8e0961	-0.017338457
19	0x3c130a1d	0.008974579
20	0x3c0316c7	0.008001036
21	0xbc880535	-0.016604045
22	0x3c22c300	0.009934187
23	0xbcd3356b	-0.025782308
24	0xbc62393a	-0.013807589
25	0xbd72b9fd	-0.059259403
26	0xb920c89f	-0.00015333526
27	0xbc2a174f	-0.010381534
28	0xbba11909	-0.0049163145
29	0x3c0be79a	0.008539105
30	0x3be4a7f3	0.006978029
31	0xbb88ea5a	-0.0041783275
32	0x3cc98115	0.024597684
33	0x3bdc8064	0.0067291725
34	0x3c6e62cd	0.014549923
35	0xbab5f745	-0.0013882896
36	0x3c816e61	0.015799703
37	0xbcac5338	-0.021035776
38	0xbb20d5fb	-0.0024541605
39	0xbd06a407	-0.032871272
40	0x3cc0390b	0.0234647
41	0x3b91e32a	0.004452129
42	0x3ce5610c	0.028000377
43	0xbb8546ec	-0.0040672924
44	0xbcc3e35c	-0.023912124
45	0xbc9d54e0	-0.01920551
46	0x3d04e43f	0.032444235
47	0x3d6266a1	0.055273656
48	0x3ba45a2d	0.0050156326
49	0x3b987a59	0.004653257
50	0x3bcedc8d	0.006312913
51	0xbc68476a	-0.014177183
52	0xbcb0a932	-0.021565054
53	0xbd020b9d	-0.031749357
54	0xbb502106	-0.0031757965
55	0x3d6af531	0.05736274
56	0xbd31f5dc	-0.04344736
57	0x3cb96f61	0.022636117
58	0xbc03f735	-0.008054544
59	0xbcde0562	-0.027102176
60	0xbc91cf12	-0.017798934
61	0xbd23cd38	-0.039990634
62	0xbd157f1a	-0.036498167
63	0x3cbc738f	0.023004321
64	0xb918af60	-0.00014561182
65	0x3cca91c5	0.024727711
66	0x3b947105	0.0045300745
67	0x3ca292b6	0.019845348
68	0x3d15ebff	0.036602017
69	0xbbdbb8f2	-0.006705397
70	0x3c803b04	0.01565314
71	0x3a44d0e7	0.00075079355
72	0xbcf95e8d	-0.030440593
73	0x3c974e25	0.01846988
74	0xbb93ee36	-0.004514481
75	0xbd502f1d	-0.05082618
76	0xbcd57d92	-0.026060853
77	0xbc26b833	-0.010175752
78	0x3c7c8a0f	0.015413775
79	0xbcdd516d	-0.027016366
80	0x3cc40116	0.023926299
81	0xbbc6125d	-0.0060446695
82	0xbc44fd76	-0.01202332
83	0xbcc17000	-0.023612976
84	0xbc92950c	-0.017893337
85	0x3c749a09	0.014929303
86	0xbd592633	-0.053014945
87	0xbd41749e	-0.047230355
88	0x3c45608c	0.012046944
89	0x3cd3a980	0.02583766
90	0xbc8387c6	-0.016055953
91	0x3abb0ca7	0.0014270738
92	0x3d2d1f9f	0.042266484
93	0x3b9104f5	0.0044256398
94	0xbd20da64	-0.039270774
95	0x3d6ae9bb	0.05735181
96	0xbcf5f92e	-0.030026045
97	0xbd110317	-0.035403337
98	0x3c009558	0.007848106
99	0xbc058dbe	-0.00815147
100	0x3c1c69be	0.009546695
101	0x3afbdd60	0.0019215755
102	0x3d1acdb7	0.03779384
103	0x3c29a1d3	0.010353523
104	0xbc46cb86	-0.012133485
105	0x3a99009e	0.0011673158
106	0xbd522953	-0.05130894
107	0x3b24d8ed	0.0025153712
108	0xbc9b9186	-0.01899029
109	0xbc67a7bb	-0.014139111
110	0x3c04eb36	0.008112719
111	0x3bd56219	0.0065119383
112	0xbca1d27e	-0.01975369
113	0x3c456434	0.012047816
114	0xbd0d6ab4	-0.03452559
115	0xb8a691b9	-7.94264e-05
116	0x3d82e723	0.06391742
117	0xbbdcf4f8	-0.0067430697
118	0xbb9bad50	-0.004750885
119	0xbd4d3b33	-0.050105285
120	0xbc4ea375	-0.012612213
121	0x3a80383b	0.0009782383
122	0xbc3f7870	-0.011686429
123	0xbce9de42	-0.028548364
124	0xbc110c61	-0.008853049
125	0x3cd3e20c	0.025864623
126	0x3b2092d5	0.0024501581
127	0x3d0769c2	0.033059843

network_body._body_endoder.seq_layers.2.weight f4 [128, 128]
0	0xbdb794db	-0.08963939
1	0xbe243ac5	-0.16038044
2	0x3cb69a50	0.022290379
3	0xbc9f9aa9	-0.019482927
4	0x3ddea014	0.10870376
5	0xbd6b7198	-0.05748138
6	0xbe24dac6	-0.1609908
7	0xbe347812	-0.17623928
8	0xbe01af38	-0.12664497
9	0xbe69407a	-0.22778502
10	0x3ddf8e3c	0.10915801
11	0xbc9c1b8f	-0.01905611
12	0x3dbe5b32	0.09294738
13	0xbd2e50dd	-0.042557586
14	0xbe1adee5	-0.1512409
15	0x3c90e75d	0.017688448
16	0xbe00fd7a	-0.12596694
17	0x3d94a58a	0.072581366
18	0x3d789805	0.060691852
19	0xba77977a	-0.0009444874
20	0xbd8f245b	-0.06989356
21	0xbd8ddd17	-0.06926935
22	0xbda0dc24	-0.078544885
23	0x3d0c9b55	0.034327824
24	0x3ca9ffac	0.020751797
25	0x3d5ca31b	0.053866487
26	0xbcabbb45	-0.02096332
27	0x3d91f717	0.07127207
28	0x3dae2262	0.08502652
29	0x3da3b814	0.079940945
30	0x3cc13024	0.023582526
31	0x3c4e8133	0.012604046
32	0xbd9af04f	-0.075653665
33	0x3d896ff6	0.06710808
34	0x3d6d3167	0.057908442
35	0xbd06fec6	-0.032957815
36	0x3d1fe382	0.039035328
37	0xbd69d4ed	-0.057087827
38	0xbdd9f112	-0.10641684
39	0x3a423c66	0.0007409513
40	0xbd0d0258	-0.034426063
41	0xbd393e94	-0.045225695
42	0xb9b0e042	-0.0003373642
43	0x3da7af32	0.08187713
44	0xbd215bf6	-0.03939434
45	0x3d0915a4	0.033467904
46	0xbd54b373	-0.05192895
47	0xbce58c47	-0.028020991
48	0x3d8a53fb	0.06754299
49	0x3da99dee	0.08282076
50	0xbca088ed	-0.019596541
51	0x3d36ec41	0.044658903
52	0xbe20ec0b	-0.15715043
53	0xbc97c25a	-0.018525291
54	0xbdac0ea1	-0.08401228
55	0xbe5e74bf	-0.21724223
56	0xbbfc1b94	-0.0076937173
57	0xb9019c67	-0.00012360663
58	0x3d1b02be	0.037844412
59	0xbd941255	-0.07230059
60	0x3df860cc	0.121278375
61	0x3e0ddc83	0.1385365
62	0x3d9aa9d4	0.075519234
63	0xbd97135e	-0.07376741
64	0xbda180df	-0.07885908
65	0x3ce99407	0.028512968
66	0x3e2aedec	0.16692322
67	0x3c4c471b	0.012468125
68	0x3c709bcd	0.014685583
69	0xbe1b9cf1	-0.15196587
70	0xbd209e00	-0.03921318
71	0xbdd915c3	-0.10599854
72	0x3db18428	0.08667785
73	0xbe16aa77	-0.14713465
74	0x3c327d15	0.01089408
75	0x3d49708a	0.04917959
76	0xbd7449f8	-0.059640855
77	0xbc8a2dfb	-0.016867628
78	0xbc3e66fd	-0.011621234
79	0x3c683c5a	0.014174545
80	0xbd7961da	-0.060884334
81	0xbe1679b9	-0.14694871
82	0x3dde4605	0.10853199
83	0x3dafd707	0.08585935
84	0x3d6abdac	0.05730979
85	0xbd596c29	-0.053081665
86	0xbcc0bff3	-0.023529029
87	0x3de7c057	0.11315983
88	0x3d170bdc	0.036876544
89	0x3d5a6a77	0.05332419
90	0x3dadfe5b	0.0849578
91	0xbd0cf003	-0.03440858
92	0xbd902817	-0.070388965
93	0x3c19c443	0.009385171
94	0xbd04c421	-0.032413606
95	0xbe2215df	-0.15828656
96	0xbd9eed41	-0.07760096
97	0x3e2bf915	0.16794236
98	0xbd69c4f9	-0.057072613
99	0xbda15687	-0.07877832
100	0x3df3eb56	0.11910121
101	0xbcdc9724	-0.026927538
102	0x3d79328b	0.060839217
103	0xbdced1fe	-0.100986466
104	0xbb4e029a	-0.0031434656
105	0xbe0a1b70	-0.13487029
106	0xbcf475fa	-0.029841412
107	0xbde4f87e	-0.111802086
108	0x3e1a3db6	0.15062603
109	0xbda8f0d5	-0.0824906
110	0xbd9f6edd	-0.07784817
111	0x3db38e69	0.08767397
112	0xbd55258d	-0.052037764
113	0xbdd37dab	-0.10326704
114	0xbd11ca7e	-0.035593502
115	0xbb0f2fb3	-0.00218485
116	0xbe5b23eb	-0.2140042
117	0xbcd512cb	-0.026009938
118	0xbda4dc3a	-0.080498174
119	0x3c9745db	0.018465927
120	0xbc6e649e	-0.014550356
121	0xbd8d1cfd	-0.06890295
122	0xbe42cad4	-0.19022685
123	0xbcc56fcb	-0.024101159
124	0x3dec6b43	0.11543896
125	0xbd43bbd4	-0.04778655
126	0xbe07b251	-0.13251616
127	0xbdaf722d	-0.08566699
128	0x3d94a3e9	0.07257826
129	0x3e39ac9f	0.18132256
130	0xbe32c680	-0.17458534
131	0x3e0a6bab	0.13517635
132	0x3d946452	0.07245697
133	0x3d3444e8	0.044011027
134	0x3dcba4ab	0.09943517
135	0xbdaedc54	-0.08538118
136	0xbd48df4b	-0.049041074
137	0xbc800f99	-0.015632438
138	0xbdc9f093	-0.09860339
139	0xbdc73cdf	-0.09728407
140	0xbcec05c0	-0.028811336
141	0x3d6f1792	0.058372088
142	0x3c11f95f	0.008909552
143	0x3d6c1351	0.05763561
144	0x3dfa6de8	0.12227994
145	0x3de1a970	0.11018646
146	0x3ce8764a	0.028376717
147	0x3cfed397	0.031106753
148	0x3da0a275	0.07843486
149	0x3d61b6e3	0.055106055
150	0x3ce7e14f	0.028305678
151	0x3c4b6361	0.0124138305
152	0x3db14cae	0.086572036
153	0xbd43d0da	-0.0478066
154	0x3d1d0c4e	0.038341813
155	0xbdb9ff6d	-0.09081922
156	0xbda8436e	-0.08215986
157	0x3b0322bb	0.0020009715
158	0x3e23dc70	0.16002059
159	0x3d862366	0.065497205
160	0x3ccb8dbb	0.024847856
161	0x3c109cbd	0.008826432
162	0xbcd22b7a	-0.025655497
163	0xbd67f9a3	-0.056634557
164	0x3ccab6cd	0.02474537
165	0x3d2bf429	0.041980896
166	0x3ccfdf56	0.02537505
167	0xbd378df5	-0.044813115
168	0xbd7274ee	-0.059193544
169	0x3cab94da	0.020945001
170	0xbd47280e	-0.048622184
171	0x3c8f70b1	0.01750979
172	0xbdbc3e8c	-0.09191617
173	0x3d07d751	0.033164326
174	0x3dc3d810	0.09562695
175	0xbd704a8e	-0.05866485
176	0xbe1c0493	-0.1523612
177	0x3c9fbe4f	0.019499926
178	0x3cbdf406	0.023187649
179	0x3dc1ebab	0.09468778
180	0xbd661a4f	-0.056177434
181	0xbce035e6	-0.02736945
182	0x3cc0e80c	0.023548149
183	0x3dafeda5	0.08590249
184	0xbd514a89	-0.051096473
185	0xbd6ec09e	-0.058289163
186	0xbd8226bd	-0.06355045
187	0x3d8af232	0.06784476
188	0xbc92b665	-0.017909238
189	0x3d45ff54	0.048339203
190	0x3d90601f	0.07049584
191	0x3dbd9f86	0.09258942
192	0x3dfeddb9	0.12444634
193	0x3c4a2154	0.012337048
194	0xbceb26c1	-0.028705003
195	0xbdc4d85b	-0.09611579
196	0x3da1a55e	0.078928694
197	0x3e29c91d	0.16580625
198	0x3e186156	0.1488088
199	0x3c35409a	0.0110627655
200	0x3cfe049b	0.031008055
201	0xbd7a1208	-0.061052352
202	0xbd0b0619	-0.033941362
203	0xbd8da9ed	-0.069171764
204	0xbddb2f31	-0.107023604
205	0xbd3903e2	-0.04516972
206	0x3e1abda7	0.15111409
207	0xbdff9fa1	-0.12481619
208	0x3df38951	0.118914254
209	0xbd7f4b37	-0.06232759
210	0xbd3b96d8	-0.045798153
211	0x3d053d04	0.032528892
212	0x3e1a672d	0.15078421
213	0xbd4af790	-0.0495525
214	0xbd30fd0f	-0.043210085
215	0x3dfb234b	0.12262591
216	0x3dcd9ad7	0.10039299
217	0x3dec62f8	0.11542314
218	0x3c92a3e7	0.01790042
219	0x3ddf0a83	0.10890677
220	0x3e2b8d7f	0.16753195
221	0x3ca3e84d	0.02000823
222	0xbe406e77	-0.18792139
223	0xbd22fb76	-0.039790593
224	0x3de6bf9d	0.11267016
225	0xbd448af5	-0.047984082
226	0x3e26eb27	0.16300641
227	0xbe532480	-0.20619392
228	0xbd4c3d5a	-0.049863197
229	0xbb2c1c33	-0.0026261925
230	0x3e1994ab	0.14998119
231	0x3d7f91e4	0.06239499
232	0x3a0641bf	0.0005121491
233	0x3e252f53	0.16131334
234	0xbd27367c	-0.040823445
235	0xbb09339d	-0.0020935305
236	0xbd939882	-0.07206823
237	0xbb165289	-0.0022937378
238	0xbd5cb042	-0.05387903
239	0xbdbbda50	-0.09172499
240	0x3e002dfe	0.12517545
241	0x3d76f3bf	0.06029105
242	0xbdb50413	-0.08838668
243	0xbc854205	-0.016266832
244	0x3dd5e699	0.10444374
245	0x3b2ec9bd	0.0026670538
246	0x3d99e888	0.07515055
247	0x3da384a3	0.07984283
248	0x3d82573a	0.063642934
249	0xbde680ef	-0.11255061
250	0x3c8ef784	0.017452009
251	0xbdc9e864	-0.09858778
252	0xbc01d9fe	-0.007925509
253	0xbd99b487	-0.07505136
254	0xbcd9ddaf	-0.026594965
255	0x3da9e526	0.0829566

network_body._body_endoder.seq_layers.2.bias f4 [128]
0	0xbcdf3910	-0.02724889
1	0x3c6a7922	0.014311107
2	0xbc893ff8	-0.016754135
3	0xbca375e7	-0.019953681
4	0x3b9224d0	0.004459955
5	0x3960bc54	0.00021432462
6	0xbc8074ec	-0.015680753
7	0xbc9a1650	-0.018809468
8	0xbd2cb59b	-0.04216538
9	0x3cbe614c	0.023239754
10	0xbc2f3cfb	-0.010695691
11	0xbaa17033	-0.0012316763
12	0xbc974bb7	-0.01846872
13	0xbc05db56	-0.00816997
14	0x3c5f31cd	0.013622713
15	0xbcd7cb3a	-0.026342023
16	0x3c4675cd	0.012113047
17	0xbd183d5d	-0.037167896
18	0xbc8a41cf	-0.016877083
19	0xbd3b7a40	-0.045770884
20	0x3c02ebd5	0.007990797
21	0x3a54a156	0.0008111199
22	0x3c21b102	0.009868862
23	0xbd260fcc	-0.04054241
24	0xbbbd5f40	-0.005779177
25	0x3c1126b8	0.008859329
26	0xbc7718b7	-0.015081576
27	0x3b884d69	0.0041596186
28	0x3cb6e3d1	0.022325428
29	0xbc5967e6	-0.0132694
30	0x3c3f4120	0.011673242
31	0x3ce66f43	0.028129226
32	0xbc8d952d	-0.017283047
33	0xbc3a5724	-0.011373315
34	0xbcd41a6e	-0.025891509
35	0x3ce2cf9e	0.02768689
36	0xbc098d88	-0.00839556
37	0xbbd9b8d8	-0.0066443495
38	0xbc983346	-0.018579137
39	0xbc2cee92	-0.0105549265
40	0x3c9ee3d6	0.01939575
41	0xba963bcc	-0.0011461913
42	0xbd0b92b3	-0.03407545
43	0xbc90a10f	-0.017654924
44	0xbcc23a41	-0.023709418
45	0xbcb9e8f8	-0.022694096
46	0xbd309435	-0.04311009
47	0x3c4179ef	0.011808856
48	0xbabb1323	-0.0014272671
49	0xbd7f28fe	-0.062294953
50	0xbd077a76	-0.033075772
51	0xbd4d7a48	-0.050165445
52	0xbd02d7e9	-0.03194419
53	0xbc148806	-0.009065634
54	0xbd1d2fc6	-0.03837564
55	0x3bf841d4	0.0075762067
56	0xbd4e5a75	-0.050379235
57	0x3bd24d21	0.006417886
58	0x3b368a02	0.0027853255
59	0x3b2e49d2	0.0026594293
60	0x3c435600	0.0119223595
61	0xbb5647c7	-0.0032696591
62	0xbb20c720	-0.002453275
63	0x3c92c504	0.01791621
64	0xbb1cd540	-0.0023930818
65	0xbc883bd9	-0.0166301
66	0xbd1c597e	-0.038171284
67	0xb9f17082	-0.00046050927
68	0x3b6736a7	0.0035280378
69	0xbceee82a	-0.029163439
70	0x3c2d16ae	0.010564489
71	0xbbadb00c	-0.0053005274
72	0xbd0a85be	-0.033818953
73	0x3bc32463	0.0059552654
74	0x3c888fd4	0.016670145
75	0x3b864577	0.0040976363
76	0xbd7d52cb	-0.061846536
77	0x3c931f74	0.017959334
78	0xbb0e8d62	-0.0021751751
79	0xbce68c4f	-0.028143076
80	0x3c928a33	0.017888164
81	0x3c49c173	0.012314188
82	0x3c8247af	0.015903322
83	0xbd0002e9	-0.031252775
84	0x3c83e8cd	0.016102219
85	0xbbdd25c0	-0.006748885
86	0x3cc000a9	0.023437815
87	0xbcc93465	-0.024561116
88	0xbcd2c302	-0.025727753
89	0xbcfae43f	-0.030626414
90	0x3c5e844d	0.013581348
91	0xbc802c32	-0.015646074
92	0xbc0741b3	-0.00825541
93	0xbc86c395	-0.016450683
94	0x3b4af0d8	0.0030966308
95	0xbb4564a8	-0.003011981
96	0xbcce310f	-0.025169877
97	0xbbdeead7	-0.0068028974
98	0xbbcdc4a1	-0.0062795435
99	0x3cbbfce9	0.022947745
100	0x3d2d6cd8	0.04234013
101	0xbc5007db	-0.012697185
102	0x3c6a8e01	0.014316083
103	0x3bce8f07	0.0063036713
104	0x3acae1a1	0.001547862
105	0xbc48a6e2	-0.012246819
106	0xbd65ea4c	-0.056131646
107	0xbca87cd2	-0.020567331
108	0xbc8a51d8	-0.01688473
109	0xbcedaa7b	-0.029011955
110	0xbd2e837b	-0.04260586
111	0x3ceb7806	0.028743755
112	0xbc9a2a41	-0.018818976
113	0xbcc58dc8	-0.024115458
114	0xbd86955d	-0.065714575
115	0xbc953f10	-0.018218547
116	0xba4c4e06	-0.0007793609
117	0x3aff09aa	0.0019457836
118	0x3ce50207	0.027955068
119	0xbd0b929b	-0.03407536
120	0xbca07192	-0.019585405
121	0xbc8671fb	-0.016411772
122	0xbd1feca9	-0.039044056
123	0x3c2481b5	0.01004069
124	0xbd6bf6a2	-0.057608254
125	0xbd86f7f7	-0.06590264
126	0xbccf82dd	-0.025330955
127	0xbc11b6e2	-0.0088937

action_model._discrete_distribution.branches.0.weight f4 [5, 128]
0	0x3d2fe264	0.042940512
1	0xbc5c61c5	-0.013451044
2	0x3cc14cc1	0.02359617
3	0x3c06d978	0.0082305595
4	0x3d048d0f	0.032361086
5	0xbb80012a	-0.0039063888
6	0xbba143ae	-0.004921398
7	0xbbf7ce39	-0.0075624255
8	0xbcb43661	-0.021998586
9	0xbb2789f7	-0.0025564411
10	0x3cad7cb0	0.02117762
11	0xbcc19d74	-0.02363465
12	0xbbe577bb	-0.0070027984
13	0xbc146669	-0.00905762
14	0xbcad96eb	-0.021190127
15	0xbc8cc473	-0.017183518
16	0xbc03061c	-0.007997062
17	0x3cc65797	0.024211688
18	0xbc86952a	-0.016428549
19	0xbc83ac92	-0.016073499
20	0x3cba9ede	0.022780832
21	0x3c116185	0.008873348
22	0x3c9b2c6c	0.01894208
23	0x3c7aa667	0.0152984625
24	0xba5eb6f0	-0.0008495888
25	0x3c7f460b	0.015580664
26	0x3c9b2903	0.018940454
27	0xbbf9210d	-0.007602817
28	0xbcb1f971	-0.021725388
29	0xbcbca9f0	-0.023030251
30	0xbc62edf2	-0.013850676
31	0xbc2c023f	-0.010498582
32	0xbbeff7b0	-0.007323228
33	0x3c8fec3d	0.017568702
34	0xbb84bcd6	-0.0040508313
35	0xbba4994e	-0.005023158
36	0xbcb26f81	-0.021781685
37	0xbb8b00c9	-0.004242037
38	0x3ba42546	0.005009326
39	0xb98dc02f	-0.00027036804
40	0x3d13a6b5	0.036047656
41	0xbd132db1	-0.035932247
42	0xbd16fa17	-0.036859598
43	0x3c6623bd	0.014046607
44	0x3c3dc292	0.011582034
45	0xbbb8c44c	-0.005638635
46	0x3d34d50d	0.044148494
47	0xbc9fcb51	-0.019506129
48	0x3d25bf18	0.040465444
49	0xbbb79afb	-0.005603192
50	0x3ce84019	0.028350877
51	0xbb337ffe	-0.0027389522
52	0xbb972f55	-0.0046137967
53	0x3bf08d56	0.0073410673
54	0xbd2305ef	-0.03980058
55	0x3d23bb93	0.039973807
56	0x3c7fc206	0.015610224
57	0x3aae6157	0.0013304156
58	0xbbd2af47	-0.006429586
59	0xbcbbacbd	-0.022909516
60	0x3c9d36d9	0.019191192
61	0x3d197d22	0.03747285
62	0xbc9efaca	-0.019406695
63	0x3c0a5e94	0.008445401
64	0xbbdf9da7	-0.0068242135
65	0xbd14c614	-0.036321715
66	0xbb68899f	-0.003548242
67	0xbd882d87	-0.06649309
68	0x3b1c6f79	0.0023870154
69	0xbcd702b6	-0.02624641
70	0xbd0c6ef6	-0.034285508
71	0x3cbba360	0.022905052
72	0xbc0b3989	-0.008497604
73	0xbbb755b8	-0.0055949353
74	0xbc4704e9	-0.012147167
75	0x3c58ac59	0.013224685
76	0x3c98c491	0.018648418
77	0x3b27028d	0.0025483698
78	0xbba88316	-0.00514258
79	0xbc6daf71	-0.0145071605
80	0x3a871635	0.0010306301
81	0xbc412d47	-0.01179058
82	0x3ad75974	0.0016429857
83	0x3b8df2a6	0.0043319045
84	0xb9ac208b	-0.00032830643
85	0x3c947cf4	0.018125989
86	0xbc9d7fd2	-0.019225989
87	0xbcfe579c	-0.031047635
88	0xbbfaae4f	-0.0076501737
89	0xbd1953ef	-0.03743356
90	0x3c831a2a	0.016003687
91	0x393eb498	0.00018187088
92	0x3c62966b	0.013829808
93	0x3ba8361c	0.0051334035
94	0x3d469658	0.048483223
95	0xbc53a01f	-0.012916594
96	0x3c9a3df2	0.018828366
97	0xbcefb3cb	-0.029260537
98	0xbd12546c	-0.035725042
99	0x3c51e796	0.012811562
100	0x3cb6e63a	0.022326577
101	0x3c30154a	0.010747263
102	0xbc6ec429	-0.014573135
103	0xbcc6525e	-0.024209198
104	0x3c0e03fe	0.008667944
105	0xb96503fd	-0.00021840628
106	0x3c5202a5	0.012818013
107	0xbc9b65f5	-0.018969515
108	0x3b7b99ce	0.0038391235
109	0xbb4519db	-0.0030075226
110	0x3ca2ca41	0.019871833
111	0x3bb7b14c	0.005605852
112	0xbccd750f	-0.025080232
113	0xbc16a4f4	-0.009194601
114	0x3c93d520	0.018045962
115	0xbb2aae5c	-0.0026043868
116	0x3c9d52dc	0.01920455
117	0xbd1f75e8	-0.038930804
118	0x3c9ae5fa	0.01890849
119	0x3d0ab740	0.033866167
120	0x3c1be3db	0.009514774
121	0x3bd34e72	0.0064485604
122	0x3d192e52	0.03739769
123	0xbc51b559	-0.012799584
124	0x3b6a3101	0.0035734775
125	0xbc5ccfe5	-0.0134773
126	0xbc97f8c4	-0.018551238
127	0x3ad45278	0.0016198894
128	0xbd322374	-0.043490842
129	0x3d4d9d1f	0.05019867
130	0xbcbb51f9	-0.022866236
131	0xbbeabcb0	-0.0071636066
132	0xbcad50c6	-0.02115668
133	0xb90e9a04	-0.0001359955
134	0xbca088ee	-0.019596543
135	0xbc9fa9a0	-0.019490063
136	0xbcbd09e1	-0.023076
137	0x3bd712e9	0.0065635336
138	0xbb216df6	-0.0024632192
139	0x3b939699	0.0045040366
140	0x3ad710a8	0.0016408162
141	0x3ceb1206	0.028695118
142	0xbb5c99ed	-0.0033661083
143	0xbd2dd5c2	-0.042440183
144	0x3d3f9e24	0.046781674
145	0x3c4ce4b9	0.012505704
146	0x3bbe9aff	0.005816817
147	0xbc9f0b6e	-0.01941463
148	0x37e6c7e7	2.7511223e-05
149	0x3ca88c37	0.020574672
150	0x3bdad9eb	0.00667881
151	0xbd140da1	-0.03614581
152	0xbc609e7d	-0.013709662
153	0x3c2d383e	0.010572491
154	0xbc363e61	-0.011123271
155	0xbbcf8cce	-0.006333924
156	0xbb1213a1	-0.0022289532
157	0x3c56c791	0.013109104
158	0x3ca529fa	0.020161618
159	0xbb9e386f	-0.0048285048
160	0x3bf8e81d	0.0075960294
161	0xbd0c75e4	-0.034292117
162	0x3c3571d4	0.011074502
163	0x3d031156	0.031998955
164	0x3c3b5f10	0.011436239
165	0xbbf9c9af	-0.0076229195
166	0x3cb40e95	0.02197961
167	0x3c08e8d8	0.0083562955
168	0xbcf0b752	-0.029384289
169	0x3a075ac3	0.0005163366
170	0xbd15e348	-0.036593705
171	0x3c88b645	0.016688475
172	0xbc6a5650	-0.014302805
173	0xbc4872ac	-0.012234371
174	0xbd2d5184	-0.042314067
175	0xbc8034ec	-0.015650235
176	0xbc10ef5c	-0.00884613
177	0xbc203a4c	-0.009779524
178	0xbd163bbf	-0.036678072
179	0xbc997e58	-0.018737003
180	0xbcddb56c	-0.027064048
181	0xbb94cc8f	-0.004540987
182	0x3ca2129a	0.01978426
183	0xbd5a92f8	-0.053362817
184	0xbc981fe4	-0.018569894
185	0xbb0b8a65	-0.0021292206
186	0xbce844b9	-0.028353082
187	0x3bb9b3a7	0.005667168
188	0xb9403e51	-0.00018333762
189	0xbc821d0f	-0.015882997
190	0xbc174f14	-0.009235162
191	0xbb85c297	-0.004082035
192	0xbc83f3cd	-0.016107464
193	0x3c06c3a7	0.008225358
194	0xbc9f05c7	-0.019411935
195	0x3c4fa504	0.01267362
196	0xbc2675b5	-0.0101598995
197	0x3a401148	0.0007326794
198	0x3b9a9203	0.004717113
199	0x3c884e44	0.016638882
200	0xbc174dad	-0.009234828
201	0xbc6411d3	-0.013920265
202	0x3c4c3cc8	0.012465663
203	0x3c66c2f0	0.014084563
204	0xbca23e35	-0.019805053
205	0x3ce01016	0.02735142
206	0x3c95a1de	0.01826566
207	0x3b8e48db	0.004342181
208	0xbb864d87	-0.0040985974
209	0xbace5d7e	-0.0015744416
210	0x3d368da1	0.04456866
211	0x3b78e50e	0.0037978324
212	0x3bcaae6a	0.0061853426
213	0x3a216553	0.0006156761
214	0x3c1c80e9	0.009552219
215	0xbc561f02	-0.013068916
216	0xbd55b41b	-0.052173715
217	0x3c927cf6	0.017881852
218	0xba759b20	-0.0009369124
219	0x3c1b112d	0.009464544
220	0xbc641c20	-0.013922721
221	0x3c35369a	0.011060381
222	0xbd009652	-0.031393357
223	0xbcd8b2e9	-0.026452499
224	0xbd07ea4d	-0.03318243
225	0xbc87607d	-0.016525501
226	0x3ccbe89d	0.024891192
227	0xbca5ace4	-0.020224042
228	0x3c917be8	0.017759278
229	0xbc2b9e93	-0.010474819
230	0x3b37d424	0.002805003
231	0x3c24800a	0.0100402925
232	0xbcbc4ab6	-0.022984844
233	0x3a311104	0.00067545497
234	0x3af4fa8b	0.001869039
235	0x3bc85716	0.006113897
236	0x3b97ee19	0.0046365377
237	0x3a15b546	0.0005710911
238	0xbc36d037	-0.011158041
239	0xbbc42cf0	-0.0059868023
240	0x3ba126de	0.0049179634
241	0x3c3bd884	0.011465196
242	0xbbc91ff1	-0.006137841
243	0x3cbde8e0	0.023182333
244	0x3c23dac5	0.010000889
245	0xbada8552	-0.0016671813
246	0x3d369753	0.044577908
247	0x3aaeb9a8	0.0013330476
248	0x3c8cafa5	0.017173598
249	0xbbfd72c2	-0.0077346275
250	0xbcc8b5dd	-0.024500782
251	0xbc9b0858	-0.018924877
252	0xba096d68	-0.0005242438
253	0xbc8bd665	-0.017070005
254	0x3c87a9e6	0.016560506
255	0xbc9ef5e6	-0.019404363

action_model._discrete_distribution.branches.0.bias f4 [5]
0	0xbafa2865	-0.0019085525
1	0x3cf9ae19	0.030478524
2	0xbd08c033	-0.03338642
3	0xbc98ef50	-0.0186688
4	0x3c0d26e5	0.00861523

onnx::Div_52 f4 [13]
0	0x3f338ffb	0.7014157
1	0x3d17153f	0.036885496
2	0x3f2c491c	0.67299056
3	0x4321c9d0	161.78833
4	0x3ab60b55	0.0013888875
5	0x3ab60b55	0.0013888875
6	0x3eda9511	0.42691854
7	0x3cc53819	0.024074601
8	0x3ed31cbb	0.41232857
9	0x43a48ec4	329.11536
10	0x3f3827a0	0.7193546
11	0x3d37cb59	0.04487166
12	0x3f3149c2	0.6925317
