Assets/ML-Agents/Models/RabbitAggressive.onnx (onnx, 81702 bytes, 8 tensors)

network_body.observation_encoder.processors.0.normalizer.running_mean f4 [13]
0	0x3e8432bb	0.25819954
1	0xba21e8c9	-0.000617635
2	0x3c0195bc	0.007909235
3	0x43c7948d	399.16055
4	0x00000000	0.0
5	0x00000000	0.0
6	0x3dc83014	0.09774795
7	0xbbbb3c02	-0.0057139406
8	0x3d7e873d	0.062140692
9	0x43a4aef7	329.3669
10	0x3b1ab900	0.0023608804
11	0x38c3c21b	9.3344795e-05
12	0x3d792967	0.0608305

network_body._body_endoder.seq_layers.0.weight f4 [128, 13]
0	0x3edcf7f3	0.4315792
1	0x3e8db83e	0.27679628
2	0x3f123ad8	0.5712104
3	0x3e0d1dfa	0.13780966
4	0x3f2825dc	0.6568277
5	0x3d4bc5e8	0.049749285
6	0xbe5d25f5	-0.2159651
7	0xbf09b857	-0.53796905
8	0xbdd75f1a	-0.10516186
9	0x3dd78b5d	0.10524628
10	0xbdbf9af7	-0.09355729
11	0x3e1178db	0.14206259
12	0x3eb92bdb	0.36166272
13	0x3cedc160	0.029022872
14	0x3eb3ca4c	0.35115278
15	0x3ee231a8	0.4417851
16	0x3c6c2082	0.014412047
17	0x3d60a451	0.054844204
18	0xbea1c9c5	-0.3159925
19	0x3e2016f3	0.15633754
20	0x3def7d5c	0.11693832
21	0x3e2a379d	0.16622777
22	0x3ed310b3	0.41223678
23	0x3e20ef2f	0.15716241
24	0xbe386990	-0.18009019
25	0xbd813445	-0.06308798
26	0xbba72a71	-0.005101495
27	0xbdbfa1c7	-0.093570285
28	0xbdf11f30	-0.11773527
29	0xbd8e6649	-0.06953103
30	0x3e2b1eaa	0.16710916
31	0xbf296d72	-0.66182625
32	0x3f0fe5ed	0.56210214
33	0x3e140d2f	0.14458154
34	0x3e7effb2	0.24902228
35	0xbe133097	-0.14374004
36	0x3bcea269	0.006305982
37	0x3d3138c4	0.043267027
38	0xbe365b6e	-0.17808315
39	0xbd9fc525	-0.07801274
40	0xbeb104fd	-0.34574118
41	0xbdd2ebb0	-0.1029886
42	0xbd9ccef7	-0.07656663
43	0x3efea044	0.49731648
44	0xbde6c491	-0.11267961
45	0xbe2f62a9	-0.1712748
46	0xbd765fbf	-0.060149904
47	0xbec67b04	-0.38765728
48	0x3b4725a8	0.0030387435
49	0x3e9e1d58	0.30881763
50	0x3e4f5b13	0.20249586
51	0xbd360545	-0.04443862
52	0xbeee6f7d	-0.46569434
53	0xbd9164fb	-0.070993386
54	0x3eef87eb	0.46783385
55	0xbd422c85	-0.04740574
56	0x3cac164a	0.021006722
57	0xbf082b44	-0.5319102
58	0x3ee4bc3f	0.4467487
59	0xbeb0e796	-0.34551686
60	0x3e9c65f2	0.30546528
61	0xbe88784e	-0.26654285
62	0xbe9cbaca	-0.3061126
63	0xbe2c4475	-0.1682299
64	0x3e6b375f	0.22970341
65	0x3f1d83e1	0.61529356
66	0xbda854ef	-0.08219325
67	0x3efe6c0e	0.49691814
68	0xbe22a6f4	-0.15884
69	0x3d9858d6	0.07438819
70	0xbd93bba6	-0.072135255
71	0xbe231ccf	-0.15928958
72	0xbee4f0e9	-0.4471505
73	0xbe017f5c	-0.1264624
74	0xbd582298	-0.052767366
75	0xbf2712cd	-0.6526306
76	0xbeb05a84	-0.34444058
77	0xbe1007aa	-0.14065424
78	0x3e01993d	0.12656112
79	0xbf14814e	-0.58009803
80	0x3ef9a3ea	0.4875787
81	0xbcb114c7	-0.021616353
82	0xbe8baa11	-0.27278188
83	0x3e3f98aa	0.1871058
84	0x3ef212d2	0.47279984
85	0x3ea06cef	0.3133311
86	0x3e91c623	0.2847148
87	0xbb3ae17d	-0.002851575
88	0xbe310279	-0.172861
89	0x3e5b2e23	0.21404319
90	0xbe196837	-0.14981161
91	0x3f0f4284	0.5596087
92	0xbec0b072	-0.37634617
93	0xbdc57188	-0.09640795
94	0xbe4d8f34	-0.20074159
95	0xbd7ced01	-0.061749462
96	0xbf24f1b8	-0.64431334
97	0xbf3eed5f	-0.7458095
98	0xbe8f287b	-0.27960572
99	0x3e8cbe0b	0.2748874
100	0xbd9156bd	-0.07096622
101	0x3ec7666e	0.38945335
102	0x3e5f15b8	0.21785629
103	0x3dcdf4cb	0.10056456
104	0xbeb535b9	-0.3539255
105	0xbe7af040	-0.2450571
106	0x3f1b9e61	0.6078854
107	0xbe901216	-0.28138798
108	0xbd29c32d	-0.0414459
109	0xbe31de23	-0.17369895
110	0xbdad07b2	-0.084487334
111	0xbebece65	-0.37266842
112	0xbe68de66	-0.22741088
113	0x3e6f4b6e	0.23368618
114	0x3edbfe6a	0.4296754
115	0x3ba6a432	0.0050854916
116	0x3e5996af	0.21248887
117	0xbe160ba6	-0.14652881
118	0x3ebbf8a0	0.36713123
119	0x3db698ad	0.08915839
120	0x3e62b24b	0.22138326
121	0xbe94b8ac	-0.29047143
122	0xbdeb1fc2	-0.11480667
123	0xbe25859c	-0.16164249
124	0xbd2b21b7	-0.0417802
125	0x3d18afc3	0.037276994
126	0x3eb037d5	0.34417596
127	0x3d39b953	0.045342755
128	0xbdab91ff	-0.08377456
129	0x3ef80f58	0.48449206
130	0x3f071fc4	0.52782845
131	0x3d8cd174	0.068758875
132	0xbdbbaaaa	-0.09163411
133	0x3d340936	0.043954097
134	0xbe53e89f	-0.20694207
135	0x3b7d5d3d	0.003866031
136	0x3e766785	0.24062927
137	0x3e1204c5	0.14259632
138	0xbe1860d4	-0.14880687
139	0x3ece49ed	0.40290776
140	0x3f20118a	0.6252676
141	0xbc24b439	-0.010052734
142	0xbd746002	-0.059661873
143	0xbd54057e	-0.05176305
144	0x3dc46489	0.09589488
145	0x3e0581d9	0.13037814
146	0xbeb2ac8f	-0.34897277
147	0xbddcba81	-0.1077776
148	0xbea24c61	-0.31698897
149	0x3dc1aa84	0.094563514
150	0xbe996b36	-0.29964608
151	0x3ee11b63	0.43966207
152	0xbd8046a2	-0.06263472
153	0x3ebaceca	0.36485893
154	0x3e244a1c	0.16043895
155	0xbdb04795	-0.08607403
156	0x3ecd3889	0.40082195
157	0x3e815d87	0.25266668
158	0xbea0c74a	-0.31402045
159	0x3dc86630	0.09785116
160	0xbc5e073e	-0.013551531
161	0x3dd230c5	0.10263208
162	0x3e26dc83	0.16295056
163	0x3f06dbba	0.52679026
164	0xbdd18c4e	-0.10231839
165	0x3dbf2d2f	0.0933479
166	0xbe07c3ce	-0.13258287
167	0xbe2d4246	-0.16919813
168	0x3e136c8f	0.1439688
169	0x3a0aaca6	0.0005290009
170	0xbf436a11	-0.7633372
171	0x3ec128ff	0.3772659
172	0xbec247d3	-0.37945423
173	0x3efe615b	0.4968365
174	0xbd4df32a	-0.050280727
175	0x3ef4b3f6	0.4779355
176	0x3c175a1c	0.009237792
177	0x3ef16ce7	0.47153398
178	0x3ca7cbf7	0.020483
179	0x3c40150b	0.011723767
180	0xbdf2a943	-0.1184869
181	0x3f25f7e8	0.648314
182	0xbd195eda	-0.037443973
183	0x3d3f79c4	0.046746984
184	0x3edac686	0.42729586
185	0xbf06ead4	-0.5270207
186	0x3cf95e9d	0.030440623
187	0x3e0146c5	0.12624653
188	0x3d8983a6	0.06714563
189	0x3dd27b16	0.10277383
190	0xbd4cbbf3	-0.04998393
191	0x3d85e94d	0.06538639
192	0x3e76f4f9	0.24116887
193	0x3e16ec15	0.14738496
194	0x3e989ca1	0.29806998
195	0xbe97d761	-0.2965651
196	0x3e5e7154	0.21722919
197	0xbe5fada9	-0.2184359
198	0x3e83354f	0.2562661
199	0xbf20adaa	-0.6276499
200	0xbf04582a	-0.5169703
201	0xbc569c33	-0.013098764
202	0x3cef46c4	0.029208548
203	0x3e44b817	0.1921085
204	0x3ed7a0af	0.4211478
205	0x3e0614d3	0.13093881
206	0x3e150159	0.14551295
207	0xbe8e35ad	-0.27775326
208	0xbd8d2523	-0.06891849
209	0x3e11d1ec	0.14240235
210	0x3df91b03	0.12163355
211	0xbefdf941	-0.49604228
212	0xbe3359cb	-0.17514722
213	0x3e95f92b	0.29291663
214	0xbf1e3e86	-0.61814153
215	0xbe8197f9	-0.25311258
216	0x3c40d93c	0.011770543
217	0x3db51086	0.08841042
218	0xbe842649	-0.2581046
219	0x3eaab68e	0.33342403
220	0xbe20a1f2	-0.15686777
221	0xbe8502cb	-0.25978693
222	0x3d7fd360	0.062457442
223	0xbe44a165	-0.19202192
224	0xbbe88712	-0.0070961798
225	0xbdcab9ec	-0.09898743
226	0x3e10ece5	0.14152868
227	0xbe63320f	-0.22187065
228	0x3df34a60	0.1187942
229	0x3edf9c39	0.43673876
230	0xbee4b6e9	-0.446708
231	0x3efbf70c	0.4921192
232	0xbddf687f	-0.10908603
233	0x3df94eac	0.121732086
234	0x3e71631d	0.23572965
235	0x3c2f2e0f	0.010692134
236	0x3eb382b6	0.35060662
237	0x3de7940d	0.11307535
238	0xbd5499ca	-0.051904477
239	0x3c38cca9	0.0112792635
240	0xbe857757	-0.26067612
241	0x3af7e301	0.0018912257
242	0xbbe092ee	-0.006853453
243	0xbf7370de	-0.95094097
244	0x3da350c3	0.079743885
245	0x3d88e63b	0.06684538
246	0x3f1a85f3	0.6036064
247	0x3e78baae	0.24289963
248	0xbf1aca14	-0.60464597
249	0x3f8d0086	1.1015785
250	0xbbfc8078	-0.0077057444
251	0x3dac3a28	0.0840953
252	0x3da31cf2	0.07964505
253	0x3e54c276	0.20777306
254	0xbe55ebe5	-0.20890768
255	0x3d26321a	0.040575124

network_body._body_endoder.seq_layers.0.bias f4 [128]
0	0x3ba52c11	0.0050406535
1	0xbd071deb	-0.032987516
2	0xbb3395b7	-0.002740247
3	0xbd23e014	-0.04000862
4	0x3bde5a9a	0.006785703
5	0x3b707b8e	0.0036694738
6	0x3c9ebbee	0.019376721
7	0xbc580136	-0.013183882
8	0x3b40f7d7	0.00294446
9	0xbd3f7be5	-0.046749014
10	0xbd19e669	-0.037573252
11	0x3b71f145	0.003691749
12	0xbcfd5389	-0.030923622
13	0xbcfd332b	-0.030908188
14	0xbcd5af71	-0.026084634
15	0xbc1af220	-0.009457141
16	0xbd14003d	-0.03613304
17	0xbc13c9ac	-0.00902025
18	0xbba76366	-0.0051082848
19	0xbcec6c4d	-0.028860236
20	0xbd053719	-0.03252325
21	0x3c215098	0.009845875
22	0xbc9a630c	-0.018846057
23	0x3a7a2703	0.00095425564
24	0x3ba5ccf3	0.0050598322
25	0xbd3bf36c	-0.045886442
26	0xbcf80368	-0.030275062
27	0xbb51cd06	-0.0032013073
28	0xbc4ee18c	-0.012627017
29	0xbd128b68	-0.03577748
30	0xbd8d984c	-0.06913814
31	0xbd289db8	-0.041166037
32	0xbd118d06	-0.03553488
33	0x3c060bdc	0.008181538
34	0xbb385c7b	-0.0028131295
35	0x3c080a8a	0.008303294
36	0xbbc2180c	-0.0059232768
37	0xbcb02644	-0.021502621
38	0x3c01e68f	0.007928505
39	0x39e88e7b	0.00044356645
40	0xbd4dca08	-0.0502415
41	0xbcf6a318	-0.030107066
42	0x3b7d8710	0.003868524
43	0xbcfbc265	-0.030732343
44	0x3bb263a4	0.005444007
45	0xbd325d04	-0.043545738
46	0xbbd05241	-0.0063574617
47	0xbc982f6d	-0.018577302
48	0xbc13952a	-0.009007731
49	0xbca46a63	-0.02007026
50	0x3cce4e65	0.025183866
51	0xbce100ec	-0.02746626
52	0xbcfaca8b	-0.030614158
53	0xbd1765bd	-0.03696226
54	0xbc15b92f	-0.0091383895
55	0xbd1f5038	-0.038894862
56	0x3bf7a90b	0.0075579933
57	0x3c7037f8	0.0146617815
58	0x3c8c54e1	0.017130317
59	0xbcc0f5b5	-0.023554662
60	0xbc21d86e	-0.009878261
61	0xbccd9470	-0.025095195
62	0xbd4099ec	-0.04702179
63	0x3c8fb557	0.017542524
64	0xbd6b2e01	-0.05741692
65	0xbc1ca2bd	-0.009560284
66	0x393a0dbe	0.00017743462
67	0x3c7bb1ca	0.015362212
68	0x3bde3052	0.0067806626
69	0xbcc388f4	-0.023869015
70	0xbcf31593	-0.029673373
71	0x3b85c6ba	0.004082528
72	0xbd27cef6	-0.040968858
73	0xbcd8851e	-0.026430663
74	0xbc651c39	-0.01398378
75	0xbbc05185	-0.005869093
76	0xbcd96050	-0.026535183
77	0xbcda6a25	-0.026661942
78	0x3cc48025	0.023986885
79	0xbce65b43	-0.028119689
80	0xbd3b5f91	-0.045745436
81	0x3d3ce38e	0.04611545
82	0x3d03aafa	0.032145478
83	0x3bad69a9	0.0052921367
84	0x3c2d6772	0.010583745
85	0x3c2bc3e9	0.01048372
86	0xbb5fa04b	-0.0034122642
87	0xbd4e74e9	-0.050404463
88	0xbd1b5061	-0.037918452
89	0xbcdb422d	-0.026764954
90	0xbc54405f	-0.0129548
91	0x3c864a45	0.016392836
92	0xbcadebfe	-0.021230694
93	0x3b5fd3bc	0.0034153303
94	0xbcd6efcd	-0.026237393
95	0x3cb6efb7	0.022331102
96	0x3c946a4f	0.018117098
97	0xbce611ad	-0.0280846
98	0xba634de5	-0.000867097
99	0xbca55cab	-0.02018579
100	0xbcbc8194	-0.023011006
101	0xbd10b88f	-0.03533226
102	0x3c548f81	0.012973667
103	0xbce9daf1	-0.028546782
104	0xbc1ffb7f	-0.009764551
105	0x3c0f47c3	0.008745137
106	0xbba79438	-0.0051141046
107	0xbb895afd	-0.004191755
108	0x3b11e258	0.0022260156
109	0xbd04b12b	-0.032395523
110	0xbc23a063	-0.00998697
111	0xbc327b29	-0.0108936215
112	0xbcc5dae2	-0.024152223
113	0xbaf97d45	-0.0019034526
114	0xbb9fee44	-0.0048806984
115	0xbd02272b	-0.031775635
116	0xb92658b2	-0.00015864035
117	0xbd06c201	-0.03289986
118	0xbd8b1a1b	-0.067920886
119	0xbd251876	-0.04030653
120	0x3cf8bd20	0.03036362
121	0xbc855807	-0.016277326
122	0xbccc5c93	-0.024946487
123	0xbc06a1e3	-0.008217308
124	0x3c6545e6	0.013993716
125	0x3bfb48d2	0.007668593
126	0xbd1f9a8c	-0.038965747
127	0xbb100a96	-0.0021978966

network_body._body_endoder.seq_layers.2.weight f4 [128, 128]
0	0xbc07eafb	-0.00829577
1	0xbddafd40	-0.10692835
2	0xbda31d8d	-0.07964621
3	0x3dc2d167	0.095125966
4	0xbdc22f44	-0.094816715
5	0x3d9661df	0.07342886
6	0xbe154db2	-0.1458042
7	0x3dcacb32	0.09902038
8	0xbb0bebfa	-0.002135037
9	0x3d8c8137	0.06860583
10	0xbd2ae731	-0.041724388
11	0xbd693230	-0.05693263
12	0xbd2cd184	-0.042191997
13	0x3d088532	0.03333015
14	0x3d23535f	0.03987443
15	0xbd4f8541	-0.05066419
16	0x3d4e3b9c	0.050349817
17	0xbdff3299	-0.124608226
18	0xbdd3d434	-0.10343209
19	0xbd3413c4	-0.043964162
20	0xbd33d447	-0.043903615
21	0xbe0855c7	-0.13313971
22	0x3c51d1ba	0.01280635
23	0x3d2f8e30	0.04286021
24	0x3ca219c6	0.01978768
25	0x3aaa5232	0.0012994467
26	0xbe37bb30	-0.179425
27	0xbdd502c4	-0.10400918
28	0xbdbd0543	-0.09229519
29	0xbda23018	-0.079193294
30	0xbd64ffb0	-0.055907905
31	0xbc02df88	-0.007987864
32	0x3e2b0e48	0.16704667
33	0xbd8cd7c1	-0.06877089
34	0xbdb36c61	-0.08760906
35	0xbd6b9231	-0.057512466
36	0xbdf599fd	-0.119922616
37	0x3d92ae64	0.071621686
38	0xbe20a17f	-0.15686606
39	0x3d9472ad	0.07248435
40	0xbde51353	-0.111853264
41	0x3e1534df	0.1457095
42	0x3d70ef32	0.058821864
43	0xbe35dc82	-0.17759898
44	0x3e2b9745	0.16756923
45	0x3d2e42b2	0.042544074
46	0x3d932d30	0.07186353
47	0xbc39c1d2	-0.011337714
48	0x3e7c7737	0.24654852
49	0x3d507e2f	0.050901588
50	0xbceaf17d	-0.028679604
51	0xbdb577ff	-0.08860778
52	0xbd81d403	-0.06339266
53	0x3df580b1	0.119874366
54	0x3dfc1916	0.12309472
55	0x3a95a598	0.0011417149
56	0xbcc047a0	-0.023471653
57	0xbd6b2af6	-0.057414018
58	0x3e1b359e	0.15157172
59	0x3aaf90f9	0.0013394646
60	0x3ced89d9	0.028996395
61	0xbd912474	-0.07087031
62	0x3cb5de95	0.022200862
63	0xbd9d4bc2	-0.07680465
64	0xbd778192	-0.060426302
65	0xbe493a57	-0.19651161
66	0xbde7b4d1	-0.11313785
67	0xbd992a28	-0.07478744
68	0xbd55b032	-0.052169986
69	0x3e62590c	0.22104281
70	0x3d4084b5	0.04700156
71	0xbe3b3204	-0.18280798
72	0xbd66f852	-0.05638916
73	0xbdc10aad	-0.09425864
74	0x3dac7e3b	0.08422514
75	0xbe3c160a	-0.18367782
76	0xbe155915	-0.14584763
77	0xbcd796af	-0.026316969
78	0xbde312ba	-0.11087556
79	0x3d3d5e84	0.046232715
80	0xbdc582cb	-0.096440874
81	0xbe936e36	-0.28795022
82	0x3de74268	0.11291963
83	0xbd9e543a	-0.07730909
84	0x3d930fa4	0.071807176
85	0x3d1b5122	0.03791917
86	0x3e053a4a	0.13010517
87	0xbdb9244a	-0.09040125
88	0x3d70a57f	0.05875158
89	0xbd8d135a	-0.06888457
90	0x3d3ffc1d	0.046871293
91	0x3df313f8	0.11869043
92	0x3ba696f0	0.005083911
93	0x3e189112	0.1489909
94	0xbe12a3f9	-0.14320363
95	0xbdd1832d	-0.10230098
96	0x3d4b9dd5	0.049711067
97	0xbdd58a1b	-0.10426732
98	0xbe2366bf	-0.15957163
99	0xbda47a8b	-0.08031186
100	0x3d319ec6	0.04336431
101	0x3ca0a78a	0.019611139
102	0x3d3d5c9d	0.0462309
103	0x3dfc179e	0.12309192
104	0xbd6569de	-0.056009166
105	0xbdc42545	-0.09577421
106	0xbcbc5f27	-0.02299459
107	0x3e3aea0e	0.18253347
108	0xbdce34aa	-0.100686386
109	0x3d597273	0.053087663
110	0x3d03e89a	0.032204248
111	0x3df1befc	0.118040055
112	0x3e2d3d87	0.16918002
113	0xbdc51c87	-0.09624582
114	0x3cd5392a	0.026028235
115	0xbd9a8852	-0.07545532
116	0xbc448b9c	-0.011996176
117	0x3dc98f14	0.09841743
118	0xbd0cdf8b	-0.034392875
119	0x3cb31b40	0.02186358
120	0xbd5c165c	-0.05373226
121	0x3d91088a	0.07081707
122	0xbd36bd0f	-0.044613894
123	0xbb6991d7	-0.0035639906
124	0xbc188c7c	-0.009310838
125	0x3d995648	0.0748716
126	0xbd27d206	-0.04097178
127	0xbdca22db	-0.098699294
128	0x3baae67e	0.005215465
129	0x3d45260d	0.04813199
130	0xbe1c1de1	-0.15245773
131	0xbd99c2fb	-0.07507893
132	0xbcfcd342	-0.030862454
133	0x3d7bf426	0.061512135
134	0xbd747dfa	-0.059690453
135	0xbca8b5a8	-0.020594433
136	0x3d8e5f4d	0.06951771
137	0x3d2af156	0.041734062
138	0xbd0ad6ff	-0.033896443
139	0x3e2b6d06	0.16740808
140	0xbc65ec01	-0.0140333185
141	0xbc7eb69b	-0.015546466
142	0x3d09b2d6	0.033617817
143	0xbe5aec22	-0.2137914
144	0x3e2f1850	0.17099118
145	0x3e4395f0	0.19100165
146	0xbd5eb2d1	-0.05436975
147	0xbe15b9b4	-0.14621621
148	0xbca0ac4e	-0.019613411
149	0xbc239259	-0.0099836225
150	0x3deeeec9	0.116666384
151	0x3cc8f83a	0.024532426
152	0xbe19cbc4	-0.15019137
153	0xbd6ef7ab	-0.058341663
154	0x3e0b3c92	0.13597324
155	0x3d421898	0.047386736
156	0xbdb5c90d	-0.08876238
157	0x3d7b3bec	0.061336443
158	0x3de05cd4	0.109552056
159	0x3dab5696	0.08366124
160	0xbcac88e0	-0.02106136
161	0x3d55ecd8	0.052227825
162	0xbdf86726	-0.12129049
163	0xbcf4226f	-0.029801575
164	0x3d8be07f	0.068299286
165	0xbd1a24b8	-0.037632674
166	0xbd9bcc61	-0.076073416
167	0x3db8d9d9	0.09025926
168	0xbdfa8638	-0.122326314
169	0x3dbf643a	0.093452886
170	0x3cd18edb	0.025580814
171	0x3d96c4e8	0.07361776
172	0x3d7020cf	0.05862504
173	0xbcdd517d	-0.027016396
174	0x3c299d63	0.010352465
175	0xbda65349	-0.08121354
176	0x3dd5f747	0.10447555
177	0x3de6be71	0.112667926
178	0x3dc2563b	0.094891034
179	0xbd978a59	-0.073994346
180	0xbd714b26	-0.058909558
181	0x3e273e53	0.16332369
182	0xbdb95529	-0.09049446
183	0x3d3ce44e	0.046116166
184	0xbd28995f	-0.04116189
185	0x3e3703da	0.17872563
186	0x3c467023	0.012111696
187	0x3e01b56f	0.12666868
188	0xbe3f0126	-0.18652782
189	0xbd21aeb1	-0.03947324
190	0xbda25cad	-0.07927833
191	0xbdd45bd6	-0.10369079
192	0x3cae02ca	0.021241564
193	0x3d121021	0.035659913
194	0xbcb85d48	-0.022505417
195	0x3db13e84	0.08654502
196	0xbda27815	-0.0793306
197	0x3b1b65ff	0.0023711917
198	0x3a075728	0.00051628286
199	0xbde9988b	-0.114060484
200	0xbc9a66d5	-0.018847862
201	0x3da07c62	0.07836224
202	0xbd919eba	-0.07110353
203	0xbbd4761b	-0.006483806
204	0xbdaadcde	-0.08342908
205	0x3d22c67f	0.039740082
206	0x3de30d21	0.110864885
207	0x3c4ee97a	0.012628907
208	0x3d5d5475	0.054035623
209	0x3d9c1883	0.07621863
210	0xbd21a4bb	-0.03946374
211	0x3d31540b	0.04329304
212	0x3bfe6be0	0.0077643245
213	0xbdcf5fee	-0.10125719
214	0x3d970382	0.07373716
215	0xbe0029d9	-0.12515964
216	0x3d7b7ff7	0.061401334
217	0xbc34f3fb	-0.011044498
218	0xbd38de0d	-0.04513364
219	0xbdcde9ce	-0.1005436
220	0xbccf6c3b	-0.025320163
221	0xbd41424f	-0.047182377
222	0xbd1fa65d	-0.038977016
223	0x3d4e9e9f	0.05044424
224	0x3c766f23	0.0150411455
225	0x3e14cb89	0.14530768
226	0x3c812e6c	0.015769206
227	0xbe2c9a44	-0.16855723
228	0x3d346ebe	0.044050924
229	0xbdf79e3a	-0.12090726
230	0xbd6ffca9	-0.058590565
231	0xbe1d616a	-0.15369192
232	0x3da32f4d	0.07968006
233	0x3dea6007	0.11444097
234	0x3e0bbdbe	0.136466
235	0x3d7b36d2	0.061331578
236	0x3d921898	0.07133597
237	0xbe5719ba	-0.21005908
238	0xbcb3f108	-0.021965519
239	0x3c9493ee	0.018136945
240	0xbe06fa1b	-0.13181345
241	0x3e0d1913	0.13779096
242	0xbdf7d4da	-0.12101145
243	0x3d64c703	0.055853855
244	0x3de5dc97	0.11223715
245	0x3df2b376	0.11850636
246	0x3e1ea6ce	0.15493318
247	0xbcccd489	-0.025003688
248	0xbcc0b030	-0.023521513
249	0x3de1785b	0.11009284
250	0xbdb3901a	-0.087677196
251	0xbcb5f24d	-0.022210265
252	0x3e0460e3	0.12927584
253	0x3da70846	0.08155875
254	0xbcdd127f	-0.026986359
255	0x3d282a05	0.041055698

network_body._body_endoder.seq_layers.2.bias f4 [128]
0	0xbc88dc8c	-0.016706727
1	0xbcb98895	-0.022648135
2	0xbccd05a6	-0.025027107
3	0x3c84db51	0.01621786
4	0xbcea35bf	-0.028590081
5	0xbb6feaa8	-0.0036608372
6	0x3bb4e502	0.005520464
7	0xbd2ca7ee	-0.042152338
8	0xbcd7ab04	-0.026326664
9	0xbcc13990	-0.023587018
10	0xbb616576	-0.003439275
11	0xbca23e62	-0.019805137
12	0xbc875ec3	-0.016524678
13	0xbc641ce0	-0.0139229
14	0xbd01bfb0	-0.031676948
15	0xbb964c3a	-0.0045867236
16	0xbd550888	-0.05201009
17	0xbc6a2c05	-0.014292722
18	0xbc17468d	-0.009233129
19	0xbc80b77a	-0.015712488
20	0xbc559cb8	-0.013037853
21	0xbc941c60	-0.018079937
22	0xb8a8c073	-8.046711e-05
23	0x3a1df744	0.000602592
24	0xbcbf8fa1	-0.023383917
25	0xbca7611e	-0.020432051
26	0xbc45af1b	-0.012065674
27	0xbcfcf8a2	-0.030880276
28	0xbd190349	-0.03735665
29	0xbd49de46	-0.049284242
30	0xbc39241d	-0.011300114
31	0xbc181e98	-0.009284638
32	0xbc885df8	-0.01664637
33	0xba918cc9	-0.0011104579
34	0xbc942ea4	-0.018088646
35	0x3b52f315	0.0032188345
36	0xbd2676da	-0.04064069
37	0xba94fb7e	-0.0011366454
38	0x3c7da444	0.0154810585
39	0x3b737a2a	0.0037151673
40	0xbce75a44	-0.028241284
41	0xbc6622f8	-0.014046423
42	0xbcf6bd44	-0.030119546
43	0xbc4d808e	-0.012542857
44	0xbcc7943c	-0.024362676
45	0xbcd923a4	-0.026506253
46	0xbc53ce4b	-0.012927602
47	0xbcbc45d1	-0.02298251
48	0x3b2ca0af	0.0026340892
49	0xbd14ff81	-0.03637648
50	0xbd156396	-0.036471926
51	0xbc3b95c1	-0.011449278
52	0x3a49587d	0.0007680727
53	0xbcb960d2	-0.022629175
54	0xbb731531	-0.0037091488
55	0x3c1b7d96	0.009490391
56	0xbca53ba6	-0.020170044
57	0xbbf40e3d	-0.0074479864
58	0x3b1c7d28	0.002387831
59	0xbce66753	-0.02812544
60	0xbd02043c	-0.03174232
61	0xbc5fc635	-0.013658096
62	0xbcec4374	-0.028840758
63	0x3cb342f6	0.021882515
64	0xbc2b0b92	-0.01043977
65	0xbcc520a5	-0.024063418
66	0xbd45e91e	-0.04831802
67	0x3c42e74a	0.011895964
68	0xbd11b9b6	-0.0355775
69	0xbb319fad	-0.002710323
70	0xbca0d54f	-0.019632963
71	0xbcb9bac2	-0.02267206
72	0x3b1065f3	0.0022033423
73	0xbcb66583	-0.022265201
74	0xbd4e5d7f	-0.050382134
75	0xbca96ded	-0.0206823
76	0xbc0464ed	-0.008080703
77	0xbd051a04	-0.032495514
78	0x3c8f6464	0.017503925
79	0xbac804ce	-0.0015260221
80	0xbca7442b	-0.020418247
81	0xbcc5ed3f	-0.02416098
82	0xbba15cf7	-0.0049244124
83	0x3c3ab7d6	0.011396369
84	0x3bd04ea0	0.006357029
85	0xbd56977c	-0.05239056
86	0xbc2b54d7	-0.010457239
87	0xbcb24ad4	-0.021764196
88	0x3c632b57	0.0138653135
89	0x3cdb56d1	0.026774796
90	0xbd44257f	-0.04788732
91	0xbd0dce4f	-0.03462058
92	0xbb094528	-0.0020945761
93	0xbb5affa6	-0.0033416538
94	0xbd09d3de	-0.033649318
95	0xbc849423	-0.016183918
96	0xbc00ca09	-0.007860669
97	0xbd1a9666	-0.037741087
98	0xbc47f5fd	-0.012204644
99	0xbcade46e	-0.021227088
100	0xbca1c601	-0.019747736
101	0xbcfea164	-0.031082816
102	0x3c8e5e0c	0.01737883
103	0xbc0e15ea	-0.008672217
104	0xbaa1ab9a	-0.0012334466
105	0xbd055444	-0.032551065
106	0xbbfef172	-0.0077802474
107	0xbceb0692	-0.028689656
108	0x3c60206e	0.013679607
109	0xbcd02563	-0.025408452
110	0xbd11f07a	-0.035629727
111	0xbcdf7556	-0.02727763
112	0xbca6f54b	-0.020380637
113	0x3b06a9ce	0.0020547989
114	0xbc1c8d8f	-0.009555235
115	0x3b1caa5d	0.0023905255
116	0xbd43e8b3	-0.04782934
117	0xbd0666fe	-0.032813065
118	0xba417774	-0.00073801656
119	0xbc4ad36c	-0.012379508
120	0xbc5e6c4b	-0.013575624
121	0x3c2718c4	0.010198776
122	0xbcaefa19	-0.02135949
123	0xbc3a8941	-0.011385263
124	0xbc132a3c	-0.008982237
125	0xbccbca51	-0.024876745
126	0x3adc228c	0.0016794964
127	0xb9fa3127	-0.00047720337

action_model._discrete_distribution.branches.0.weight f4 [5, 128]
0	0xbcc393aa	-0.023874123
1	0xbb903506	-0.004400852
2	0x3bef7e93	0.00730879
3	0x3d309ab4	0.043116286
4	0xbcbb191f	-0.022839127
5	0xbc21b7ab	-0.00987045
6	0x3bba6570	0.005688362
7	0xbd107554	-0.035268143
8	0xba9bdb23	-0.0011890869
9	0xbc639eec	-0.01389287
10	0x3d121b4a	0.035670556
11	0xbc2b21dc	-0.010445084
12	0x3cb470de	0.022026476
13	0xbd5f25a5	-0.05447926
14	0xbd72b4e2	-0.059254535
15	0xbc602bd3	-0.0136823235
16	0xbc6d65c1	-0.014489592
17	0x3d111b61	0.0354265
18	0x3ca13e00	0.019682884
19	0xbd2d425f	-0.042299625
20	0x3be3030d	0.006927854
21	0xbc6a95a0	-0.0143179
22	0xbd1ca120	-0.0382396
23	0xbd74b7c9	-0.059745584
24	0xbc9f6e5f	-0.019461809
25	0x3cb91a29	0.022595482
26	0xbc17561d	-0.00923684
27	0xbc946053	-0.018112337
28	0x3abe64dd	0.0014525909
29	0x3c29e672	0.010369884
30	0xbcc6db0f	-0.024274377
31	0x3b5e2f80	0.0033902824
32	0xbd0bfba4	-0.03417553
33	0x3bfb9dc6	0.00767872
34	0xbb9864f9	-0.0046507088
35	0xbac45dfc	-0.0014981623
36	0xbd031d65	-0.032010455
37	0x3cdb201f	0.026748715
38	0x3ce21a1d	0.027600342
39	0xbbafc3d4	-0.0053639207
40	0xbb6b6859	-0.003592035
41	0x3c08ab83	0.008341673
42	0xbcce2523	-0.025164193
43	0x3cf418f0	0.029797047
44	0xbc1f3dae	-0.009719295
45	0xbc9bf400	-0.019037247
46	0xbc3a49c2	-0.011370124
47	0xbca7a1ee	-0.020462956
48	0x3cf03944	0.029324181
49	0xbc34b445	-0.011029308
50	0x3b252a9e	0.0025202404
51	0xbc88832f	-0.016664116
52	0xbcef2be5	-0.029195735
53	0xbc969dfd	-0.018385882
54	0x3becbbb6	0.0072245253
55	0xbcb5ed74	-0.022207953
56	0x3bf9fcdc	0.00762902
57	0xbbf0b0df	-0.0073453034
58	0x3d184174	0.037171796
59	0xbcb7fea9	-0.022460299
60	0x3c9ade15	0.018904725
61	0x3a4fef5f	0.00079320924
62	0x3c951601	0.018198969
63	0xbaf18b95	-0.001842844
64	0xbca3dcdd	-0.020002777
65	0x398205fd	0.00024799994
66	0x3bcc051c	0.006226195
67	0xbc5d58ed	-0.013509971
68	0xbb99da8b	-0.004695242
69	0xbb91f125	-0.0044537955
70	0x3becb757	0.0072240043
71	0x3c8dc909	0.017307775
72	0xbbdf78c1	-0.006819815
73	0xbc12d8c0	-0.00896281
74	0xbc75e55c	-0.015008297
75	0xbc9f05ee	-0.019412007
76	0x3bee5669	0.0072734845
77	0xbd18f9e8	-0.037347704
78	0x3d6abb61	0.057307605
79	0x3d16d1c4	0.03682114
80	0xbd14f610	-0.036367476
81	0x3bd2d072	0.00643354
82	0x3c7e4776	0.015519967
83	0x3c148944	0.00906593
84	0x3d14d8e7	0.036339667
85	0xbc91f241	-0.017815711
86	0xbd146f51	-0.036238972
87	0xbd0b90a0	-0.034073472
88	0x3d0425e3	0.032262694
89	0x3ce1e1ac	0.027573429
90	0x3ce7e5a1	0.028307738
91	0xbd1dd42c	-0.03853242
92	0xba499c60	-0.0007690843
93	0xbc47db3d	-0.012198267
94	0xbd3092a4	-0.043108597
95	0x3c91845f	0.017763315
96	0x3c9a2126	0.018814635
97	0xbced1d99	-0.028944777
98	0x3d201310	0.03908068
99	0xbcb48314	-0.02203516
100	0xbce653bb	-0.028116098
101	0xbd05e408	-0.03268817
102	0xbc8f36b5	-0.017482141
103	0x398623a3	0.00025585023
104	0x3ad1d781	0.001600966
105	0xbc6484f6	-0.013947716
106	0xbca14c3d	-0.019689674
107	0xbcc4d253	-0.024026072
108	0x3cc58665	0.024111936
109	0x3c5977f2	0.013273226
110	0xbca8fa07	-0.020627035
111	0x3c0b4233	0.00849967
112	0xbc0fb5c8	-0.008771367
113	0x3caf8191	0.021424087
114	0xbb1ebed0	-0.002422262
115	0x3bfa2fe7	0.007635105
116	0x3bee0974	0.0072643105
117	0xbc17b438	-0.009259276
118	0xbd0a251e	-0.033726804
119	0x3b8e2884	0.004338326
120	0x3cd4524f	0.025918154
121	0xbcc51bd5	-0.024061123
122	0xbcd89238	-0.02643691
123	0xbca92cab	-0.020651182
124	0x3c391700	0.0112969875
125	0xbc8a1c26	-0.016859125
126	0x3ba0abad	0.004903278
127	0x3c0d3055	0.00861748
128	0x3abb3287	0.0014282026
129	0xbc2b087a	-0.010439033
130	0xbbc464f4	-0.00599348
131	0xbca25694	-0.019816674
132	0x3c051f8a	0.008125195
133	0xbc45ba4c	-0.012068342
134	0xb915be8b	-0.0001428073
135	0xbb901286	-0.0043967394
136	0xbb45f96c	-0.0030208481
137	0x3cce4a7c	0.025182001
138	0xbb5fa7db	-0.003412715
139	0x3bbd10bb	0.0057698167
140	0xbb50db56	-0.0031869016
141	0x3c890db0	0.01673016
142	0x3cb679e9	0.022274928
143	0x3ad68683	0.0016366992
144	0xbc5d4df3	-0.013507354
145	0x3bfa0c53	0.0076308637
146	0x3c6bf718	0.014402173
147	0x3cf909e9	0.030400233
148	0xbb2698d3	-0.002542068
149	0xbd052944	-0.032510057
150	0x3c813b93	0.015775478
151	0x3cb47010	0.022026092
152	0xbba32e80	-0.0049799085
153	0xbade67ab	-0.0016968151
154	0xbbbc016f	-0.0057374756
155	0x3cea244b	0.028581759
156	0xbc9f11f8	-0.019417748
157	0x3be719e5	0.0070526474
158	0xbc43c9a2	-0.0119499285
159	0x3abecb39	0.0014556415
160	0xbc530145	-0.012878721
161	0xbb2548db	-0.0025220427
162	0x3ad5e695	0.0016319329
163	0x3cd9c729	0.026584225
164	0x3c47dcf9	0.01219868
165	0xbb2b8515	-0.0026171852
166	0xbbe9c1b9	-0.0071336892
167	0x3bb1fa29	0.0054314327
168	0xbc4337d0	-0.011915162
169	0xbc902db1	-0.017599912
170	0x3b2d4893	0.0026440963
171	0x3b631da7	0.0034655125
172	0x3c337a9a	0.010954523
173	0x3cb3a6b4	0.021930076
174	0xbc284704	-0.010270838
175	0xbbab1b73	-0.005221778
176	0xbc9e011f	-0.019287644
177	0x3b8ae1b8	0.0042383336
178	0x3b1ed66e	0.0024236697
179	0xbbca7f50	-0.0061797276
180	0xbce4e98e	-0.027943399
181	0xbaef076f	-0.0018236468
182	0xbc528cf0	-0.012850985
183	0x3aa9d5c6	0.0012957386
184	0xbd43c4d0	-0.047795117
185	0x3cbe09a9	0.023197966
186	0xbb60c076	-0.0034294403
187	0xbd0cea3a	-0.034403063
188	0x3c23a515	0.009988089
189	0xbc81657e	-0.015795466
190	0xbcc2b5d6	-0.023768347
191	0x3c5ea207	0.013588435
192	0xbc811d4f	-0.015761046
193	0xbb319593	-0.002709721
194	0xbc825bc3	-0.015912896
195	0x3c900ce6	0.017584275
196	0xba5835d2	-0.0008247766
197	0xbc1e31ae	-0.009655399
198	0x3b1b79f3	0.002372381
199	0x3be493ad	0.006975612
200	0xbbd7d6c3	-0.006586881
201	0xbc02f61b	-0.007993246
202	0x3c185cc7	0.009299464
203	0x3b9e9a8a	0.0048402
204	0xbb9cb8d5	-0.004782776
205	0x3c9ce9e2	0.019154493
206	0xbcc48f78	-0.023994192
207	0xbd0ab4b2	-0.03386373
208	0x3b31f942	0.0027156626
209	0x3bb9c45e	0.0056691607
210	0xbcab6a14	-0.020924605
211	0xbce9fc1b	-0.028562596
212	0xbca56d8f	-0.020193843
213	0x3b8716d0	0.0041225925
214	0x3cdf4a3b	0.027257076
215	0x3c49096d	0.012270314
216	0x3c37911b	0.011204029
217	0x3ccb858c	0.024843954
218	0xbc5dfc0b	-0.013548861
219	0x3a663ddf	0.0008783023
220	0xbb862fb0	-0.0040950403
221	0x3c03ea57	0.008051476
222	0x3b95d441	0.004572422
223	0x3c03d365	0.008046006
224	0xbd30f980	-0.04320669
225	0xbb6fda83	-0.003659875
226	0xbbd58b63	-0.0065168603
227	0x3c85befb	0.016326418
228	0x3b8b166a	0.0042446153
229	0xbc8c445c	-0.01712244
230	0xbc7b8ff4	-0.015354145
231	0xbbfa6560	-0.0076414794
232	0x3c0ae657	0.008477769
233	0x3bcac2e5	0.006187784
234	0xbc556fb3	-0.013027119
235	0xbcd40f8a	-0.025886316
236	0xbc47a473	-0.012185204
237	0xbc49e835	-0.012323429
238	0x3b4ad568	0.0030949954
239	0x3c3c3d1d	0.01148918
240	0x3c8ecef9	0.017432677
241	0x3a4c6371	0.00077968003
242	0xbc563a06	-0.013075357
243	0x3a483f67	0.0007638842
244	0xbc8bfe6e	-0.017089095
245	0xbbd5b146	-0.006521377
246	0x3c5b8964	0.013399456
247	0x3c5ae0ad	0.013359231
248	0xbc96c5df	-0.0184049
249	0x3c386834	0.011255313
250	0xbc537afc	-0.01290774
251	0x3cc2388e	0.023708608
252	0x3b90be3c	0.004417209
253	0x3bb6f4f2	0.005583399
254	0x3c72c569	0.014817574
255	0x3c44d0b4	0.012012649

action_model._discrete_distribution.branches.0.bias f4 [5]
0	0x3ca66feb	0.020317039
1	0x3c322bb6	0.010874679
2	0xbc784532	-0.015153216
3	0xbc7ead46	-0.015544241
4	0xbbfabf97	-0.007652234

onnx::Div_52 f4 [13]
0	0x3f2a1a37	0.6644625
1	0x3cd43d90	0.025908262
2	0x3f334b44	0.7003672
3	0x432d1333	173.075
4	0x3ab60b55	0.0013888875
5	0x3ab60b55	0.0013888875
6	0x3f2add07	0.6674351
7	0x3d01c4bc	0.03168176
8	0x3f3c08be	0.7345084
9	0x431df201	157.94533
10	0x3f30b7b6	0.6903032
11	0x3d0241a1	0.03180087
12	0x3f3862a9	0.72025543
