Assets/ML-Agents/Models/RabbitTimid_old.onnx (onnx, 81702 bytes, 8 tensors)

network_body.observation_encoder.processors.0.normalizer.running_mean f4 [13]
0.22432064 -0.0010741178 0.060473975 221.50026 0.0 0.0 0.25704703 -0.004664947
0.08069395 417.47366 0.10006406 -0.0003450474 0.009036501
00000000: 4fb4 653e 6ac9 8cba 8fb3 773d 1180 5d43
00000010: 0000 0000 0000 0000 ab9b 833e 69dc 98bb
00000020: df42 a53d a1bc d043 63ee cc3d 7ae7 b4b9
00000030: d50d 143c

network_body._body_endoder.seq_layers.0.weight f4 [128, 13]
0.33590597 -0.5322218 0.04888191 0.1503841 0.42881325 0.4698065 0.21083249 0.27964526
0.48510444 0.028926946 -0.0484962 0.047515146 0.30798137 0.18650565 0.26414642 -0.19936563
-0.5106477 -0.061317474 -0.20175812 0.21796778 -0.4265995 0.06708773 -0.013886955 0.069974795
0.046631575 0.1394782 -0.010899138 0.16346645 0.42624295 0.3085178 -0.08015928 0.35097462
-0.37557927 -0.020965494 -0.2945818 0.042526204 -0.011062367 -0.17670617 0.08401298 0.41115087
0.057906516 0.37586355 -0.17415184 0.37261176 0.18535343 -0.33432996 -0.120260075 0.29597008
0.31517598 0.007900475 0.17363605 0.011511458 -0.4153429 -0.21541171 0.039606187 -0.08708007
-0.17785135 -0.3399777 -0.34390095 0.590452 -0.01491772 0.037652325 0.022431642 0.098280065
-0.27195364 -0.4484287 -0.1987051 0.12022372 0.42622828 0.03301244 0.2371634 0.6208516
0.28325212 0.4330955 0.6555422 0.099481754 0.04259579 0.2693795 0.48765734 -0.124047436
-0.077215075 -0.06465691 0.09347678 -0.035462826 0.6074542 -0.15902643 -0.35243687 0.26056775
0.09665216 0.12104695 0.29388145 -0.41806847 -0.20064749 -0.032530025 0.1750801 -0.26000527
-0.00774325 -0.33765495 -0.2173774 -0.041922435 0.3386248 0.06943054 0.022150356 0.012977935
-0.29515082 0.12743784 0.05941644 0.021965457 0.0018393884 0.3009811 0.22626345 0.09568747
-0.07951867 -0.021348977 -0.3174057 0.03179828 0.3993962 -0.3771569 -0.04632551 -0.017105555
-0.08940059 0.2033413 -0.5621416 0.43557835 -0.046381533 -0.22457871 0.20894581 -0.16397335
-0.19140294 -0.09761105 -0.3381033 -0.100965835 -0.47925135 0.6378229 0.09943507 0.06845651
-0.33801305 0.5779509 -0.27205545 -0.5740255 -0.67203075 -0.25057617 -0.258452 -0.1897926
-0.8018549 -0.1812718 -0.42050782 -0.14370836 -0.078767724 -0.12283647 -0.3189842 -0.41074744
0.38104004 0.0776307 -0.0122123305 0.007013601 -0.3082338 0.35799462 0.01204516 -0.17614332
0.09494035 -0.20958339 -0.18203226 -0.0786911 -0.33373588 0.44040868 0.16227892 -0.06659994
-0.46552718 -0.033127442 -0.025078338 0.08588748 0.14803389 -0.071687266 -0.10152361 0.08752079
0.16177446 -0.027865341 -0.37255 -0.08412677 0.2639546 -0.44926408 0.29182902 0.4244632
-0.3187569 0.10589914 -0.46593505 0.0030266182 0.40654907 0.22617812 -0.0125687765 0.09282388
-0.0116744 -0.10318563 -0.2590887 -0.22488973 0.27989322 -0.018288549 -0.08280727 0.6720069
-0.41195908 0.37892398 -0.04550175 -0.34628126 -0.09741958 -0.14765814 -0.010284584 -0.024314605
-0.6125681 -0.08713836 0.08778452 0.8581156 -0.03379657 0.2721973 0.5158056 0.27274552
-0.26049304 -0.60427606 0.20983446 0.27806556 0.06859797 -0.24070747 0.91351956 0.1655233
0.4936173 -0.0014919852 0.26667333 0.2139888 0.13453098 -0.37813473 0.15353069 -0.2566791
-0.5052632 -0.3612984 0.17089981 0.15098956 0.22527711 -0.25187334 -0.17252722 0.202391
-0.5238146 -0.14473447 -0.011837954 -0.013741693 -0.011558006 -0.08525434 0.49956578 0.28479806
-0.31417593 -0.41990682 -0.4242885 0.08416177 -0.10797212 0.61295843 0.17469554 0.5602854
00000000: defb ab3e b03f 08bf 6638 483d 4afe 193e
00000010: 698d db3e 7a8a f03e 79e4 573e aa2d 8f3e
00000020: 9c5f f83e 34f8 ec3c f4a3 46bd 3e9f 423d
00000030: bcaf 9d3e 56fb 3e3e 333e 873e 8126 4cbe
00000040: cfb9 02bf 0828 7bbd ae99 4ebe f232 5f3e
00000050: 406b dabe 4b65 893d 1c86 63bc f24e 8f3d
00000060: c000 3f3d 60d3 0e3e 4c92 32bc c063 273e
00000070: 843c da3e 0cf6 9d3e 8c2a a4bd f2b2 b33e
00000080: ed4b c0be d4bf abbc 6dd3 96be f52f 2e3d
00000090: ee3e 35bc 76f2 34be ff0e ac3d 5e82 d23e
000000a0: 622f 6d3d 3071 c03e dc54 32be f8c6 be3e
000000b0: 4acd 3d3e 4c2d abbe ea4a f6bd 6489 973e
000000c0: bf5e a13e fe70 013c a6cd 313e 8e9a 3c3c
000000d0: d3a7 d4be e394 5cbe 193a 223d 0957 b2bd
000000e0: aa1e 36be 8f11 aebe c913 b0be dd27 173f
000000f0: 7469 74bc 5339 1a3d 90c2 b73c 0f47 c93d
00000100: 823d 8bbe 7298 e5be 5a79 4bbe db37 f63d
00000110: 983a da3e 0d38 073d f6da 723e 21f0 1e3f
00000120: 6c06 913e b2be dd3e 9dd1 273f 17bd cb3d
00000130: ec78 2e3d 1cec 893e 39ae f93e 950c febd
00000140: f022 9ebd d86a 84bd c170 bf3d 7841 11bd
00000150: 1e82 1b3f d3d7 22be 9b72 b4be 2369 853e
00000160: 91f1 c53d 77e7 f73d a177 963e 120d d6be
00000170: 8976 4dbe 343e 05bd 3348 333e 691f 85be
00000180: 17bb fdbb 1ce1 acbe 2e98 5ebe dcb6 2bbd
00000190: 3b60 ad3e 9931 8e3d aa74 b53c 68a1 543c
000001a0: 021e 97be 117f 023e a75e 733d e7f0 b33c
000001b0: a217 f13a 321a 9a3e 9bb1 673e cbf7 c33d
000001c0: afda a2bd 0de4 aebc 0083 a2be ea3e 023d
000001d0: a97d cc3e b61a c1be d1bf 3dbd f320 8cbc
000001e0: a817 b7bd b438 503e 83e8 0fbf 2004 df3e
000001f0: 90fa 3dbd f6f7 65be e4f5 553e a1e8 27be
00000200: 22ff 43be 4de8 c7bd e01b adbe 2dc7 cebd
00000210: 6f60 f5be 5d48 233f 9da4 cb3d ed32 8c3d
00000220: 0c10 adbe 97f4 133f da4a 8bbe 56f3 12bf
00000230: 350a 2cbf 854b 80be d253 84be fe58 42be
00000240: 5d46 4dbf 519f 39be cd4c d7be 4928 13be
00000250: f950 a1bd b091 fbbd e651 a3be 7d4d d2be
00000260: ae17 c33e d8fc 9e3d 3a16 48bc 59d2 e53b
00000270: d2d0 9dbe 124b b73e 1059 453c ea5e 34be
00000280: 1670 c23d 079d 56be aa66 3abe cd28 a1bd
00000290: 6edf aabe 3f7d e13e 722c 263e 8d65 88bd
000002a0: 9459 eebe a4b0 07bd 1671 cdbc c6e5 af3d
000002b0: 3296 173e c6d0 92bd 9ceb cfbd 1a3e b33d
000002c0: 34a8 253e db45 e4bc e0be bebe a84a acbd
000002d0: 0f25 873e f105 e6be 9d6a 953e 3e53 d93e
000002e0: 1b34 a3be a6e1 d83d 0a8f eebe 3a5a 463b
000002f0: 3327 d03e 3d9b 673e 45ed 4dbc 721a be3d
00000300: fc45 3fbc fd52 d3bd 46a7 84be 7e49 66be
00000310: 2a4e 8f3e ded1 95bc dc96 a9bd a508 2c3f
00000320: 4dec d2be 5302 c23e 0b60 3abd c74b b1be
00000330: eb83 c7bd b233 17be ac80 28bc 6c2f c7bc
00000340: 43d1 1cbf 9975 b2bd 5fc8 b33d 77ad 5b3f
00000350: 466e 0abd 725d 8b3e d60b 043f 4da5 8b3e
00000360: 585f 85be d6b1 1abf d8de 563e 9c5e 8e3e
00000370: 187d 8c3d 057c 76be 6bdc 693f f17e 293e
00000380: 68bb fc3e b78e c3ba 6889 883e e11f 5b3e
00000390: 7dc2 093e e09a c1be 2637 1d3e 716b 83be
000003a0: ee58 01bf 1bfc b8be 5c00 2f3e 029d 1a3e
000003b0: 0baf 663e 8bf5 80be faaa 30be 963f 4f3e
000003c0: b718 06bf 4635 14be faf3 41bc d724 61bc
000003d0: ca5d 3dbc d499 aebd 16c7 ff3e 0dd1 913e
000003e0: abdb a0be 07fe d6be 583c d9be 025d ac3d
000003f0: 7d20 ddbd d8ea 1c3f 63e3 323e dd6e 0f3f

network_body._body_endoder.seq_layers.0.bias f4 [128]
0.008705419 -0.010078334 0.063716896 0.044768985 0.038168676 0.017836677 -0.03632779 0.015171736
-0.013608533 0.026085733 -0.0013148047 -0.012680012 0.022275498 -0.0031939482 -0.017798007 -0.026804067
-0.040384017 -0.04089402 -0.0047317934 -0.045537937 -0.061529826 0.002467828 0.017845197 -0.001427542
-0.0020687643 0.04013827 0.0005119267 0.01714378 -0.031030772 0.007835347 -0.011169023 -0.02723545
0.03211139 0.0070591564 -0.043269414 0.007237072 -0.0041915886 0.035002988 0.033285465 0.020726856
0.006751383 0.0047580246 0.01690063 -0.04138838 0.010089615 -0.016027054 -0.0028041126 0.038443908
0.04486543 0.0070507163 -0.005810168 0.013579427 0.0031857006 -0.0065542785 0.022420114 0.029046813
-0.07637543 -0.059926588 -0.045297835 -0.021988753 0.012632769 -0.008343626 0.006239593 0.027572345
-0.045484796 0.054727275 0.012955983 0.042059183 -0.039080217 -0.007946834 -0.06345706 0.05587406
-0.01481261 0.047265593 -0.009544441 -0.00038777292 -0.031394724 0.0071788887 0.010662829 0.02906203
-0.037939694 0.039215818 0.02428311 -0.032781288 0.0040025013 0.0070181657 -0.0048860745 -0.042375825
-0.04461405 -0.017165558 0.03615247 -0.0001065266 0.018385794 -0.0021477228 0.019306442 -0.023955898
0.016823437 0.031402707 -0.029533051 0.035328325 -0.028031854 0.03536119 0.019028736 0.021254567
-0.02176739 -0.0021768752 0.006850951 0.017397825 -0.007885074 0.016215572 -0.006818013 -0.011699035
-0.02192759 0.008604451 -0.024729611 0.028951902 0.020518223 -0.00018439244 -0.0348297 0.02775021
-0.007613431 0.023020227 -0.013455157 0.028262492 -0.009575447 0.03635104 0.019600825 -0.022173567
00000000: 2ca1 0e3c 991f 25bc 017e 823d af5f 373d
00000010: c256 1c3d 391e 923c 73cc 14bd df92 783c
00000020: 53f6 5ebc bfb1 d53c 8655 acba d3bf 4fbc
00000030: 1b7b b63c 8f51 51bb 20cd 91bc 3494 dbbc
00000040: b669 25bd 7d80 27bd 290d 9bbb fd85 3abd
00000050: b306 7cbd 49bb 213b 1730 923c 5c1c bbba
00000060: 1b94 07bb 0768 243d d232 063a 1d71 8c3c
00000070: 3f34 febc d45f 003c 47fe 36bc e11c dfbc
00000080: 3c87 033d 7f50 e73b 453b 31bd f624 ed3b
00000090: 9859 89bb 4b5f 0f3d 5756 083d 5ecb a93c
000000a0: b53a dd3b 34e9 9b3b 3173 8a3c dd86 29bd
000000b0: ea4e 253c 2b4b 83bc 34c5 37bb 5c77 1d3d
000000c0: d0c4 373d b209 e73b 3963 bebb 3f7c 5e3c
000000d0: 30c7 503b 46c5 d6bb 63aa b73c 95f3 ed3c
000000e0: b96a 9cbd 9575 75bd 398a 39bd c221 b4bc
000000f0: acf9 4e3c b4b3 08bc 8075 cc3b 66df e13c
00000100: 444e 3abd b529 603d 5545 543c 4046 2c3d
00000110: 9412 20bd 7033 02bc c6f5 81bd 33dc 643d
00000120: 97b0 72bc 9199 413d 4960 1cbc 004e cbb9
00000130: c197 00bd e23c eb3b 25b3 2e3c 7f13 ee3c
00000140: a766 1bbd c4a0 203d 5fed c63c ac45 06bd
00000150: 6a27 833b a4f8 e53b 5d1b a0bb 4692 2dbd
00000160: 39bd 36bd c99e 8cbc 9d14 143d 0867 dfb8
00000170: ce9d 963c cfc0 0cbb 8b28 9e3c 293f c4bc
00000180: 4ed1 893c 20a0 003d 4cef f1bc 6fb4 103d
00000190: 0fa3 e5bc e5d6 103d 27e2 9b3c 0f1e ae3c
000001a0: 8751 b2bc e8a9 0ebb f17d e03b e285 8e3c
000001b0: 6630 01bc 85d6 843c a369 dfbb 4fad 3fbc
000001c0: 7da1 b3bc aff9 0c3c c195 cabc 8a2c ed3c
000001d0: d515 a83c 7859 41b9 96a9 0ebd 6954 e33c
000001e0: 177a f9bb ea94 bc3c 0573 5cbc be86 e73c
000001f0: 56e2 1cbc d4e4 143d e991 a03c 57a5 b5bc

network_body._body_endoder.seq_layers.2.weight f4 [128, 128]
0.024756735 -0.051771607 -0.13021009 0.09704977 0.050753903 0.03671418 -0.031797282 0.13045917
-0.047618065 0.025548326 0.018401919 -0.070243455 0.24139309 0.046466786 0.17750461 0.016870383
-0.0758171 0.005313631 -0.08181983 -0.10466718 0.032080196 0.0017962888 0.07127266 0.20318413
-0.06895399 -0.0008742613 0.07497121 -0.012075056 0.0051886435 0.04090562 -0.014695713 -0.095881276
-0.07876547 -0.12849271 0.12819341 0.14225884 0.010831714 -0.16545108 -0.06144642 -0.12249795
-0.068797454 -0.14491911 0.029088857 -0.067493565 -0.101693295 -0.04708763 0.13699485 0.12018395
0.030637952 0.03913043 0.01816369 0.23058869 -0.10966759 -0.0628922 0.0025623033 0.15588081
-0.16406374 0.0012441084 -0.03726572 -0.013454777 -0.109136835 0.034336254 -0.02780411 -0.0030024003
-0.0018764479 0.032424968 -0.052304674 -0.01963854 -0.07949613 -0.050534084 0.025610698 0.10074419
-0.024015883 -0.11190298 -0.12649284 0.043676324 -0.029475318 -0.0022063288 0.03359833 0.07945663
-0.1531996 -0.034418873 0.14173414 -0.13952069 0.002638105 -0.034792878 -0.08408768 -0.076011375
0.0860038 0.032492675 -0.01243596 0.030557197 0.14630868 0.051513255 -0.04467214 -0.12966847
0.027633691 0.06834489 0.05062411 -0.0062251836 -0.06708204 -0.0055634934 -0.12882 -0.08009734
-0.039593145 0.026851734 -0.023503846 -0.08358649 0.041923907 -0.150423 0.028458443 0.03681886
-0.03610192 -0.061569158 0.049600046 -0.037580643 -0.019389885 0.07392174 0.08970637 0.06651626
-0.07727008 -0.120057695 0.0029458837 0.0065735686 -0.08393695 0.24524966 0.06788038 0.045930024
0.006856586 0.0020336644 -0.27662903 -0.009514275 0.09542361 -0.010225221 0.0079973955 -0.18084227
0.0061474536 -0.061432622 -0.09093097 0.01585141 -0.012217213 0.13826425 -0.04012459 0.013419407
-0.02231571 0.08145188 -0.15807354 -0.043110427 0.006603287 -0.021986907 -0.027094556 -0.017985607
-0.01985456 -0.0010689656 -0.0050256858 0.09720529 0.004943847 0.13920678 0.021749692 -0.018726781
0.11954848 -0.09279224 0.03071704 0.05747539 0.0807578 -0.048143733 0.04430032 0.034184985
-0.11772632 0.07003229 -0.114782974 0.0498115 -0.011170428 0.03284493 -0.0034539758 0.119140916
0.04803948 0.1656561 0.00024804487 0.010289604 -0.022019934 -0.039892692 0.05381705 -0.17964564
0.13729268 -0.04794656 0.048685413 0.053486183 -0.19676764 -0.0044480534 -0.06998551 -0.047493383
0.041078236 0.20039532 -0.012429135 -0.04810578 -0.047310602 0.023001308 0.07154522 -0.010315961
0.14262597 -0.054562602 0.09533273 0.017309554 0.04933278 -0.01843307 0.0671597 -0.012479682
-0.24542412 0.19349785 0.10181623 0.14497328 0.124686375 0.022901505 0.096667655 0.08694023
-0.094687946 0.17197244 0.12581238 0.011087965 -0.049101807 0.20761086 -0.0037834104 0.052830685
0.07266346 0.056273025 -0.14018747 -0.033518862 -0.05378098 0.060745306 0.0786261 -0.04949977
-0.12481703 -0.14885938 0.049086306 -0.1016041 0.046538603 -0.03221189 0.0006784765 -0.02206089
0.09802542 0.1163913 0.11706355 0.16104499 -0.04190104 0.09698577 -0.081157394 -0.036735818
-0.13168293 -0.18610764 0.115762696 -0.047737088 0.05116776 -0.048815995 -0.071959876 0.11709373
00000000: a3ce ca3c 770e 54bd cb55 05be 08c2 c63d
00000010: 53e3 4f3d 9c61 163d de3d 02bd 1797 053e
00000020: 290b 43bd b94a d13c 9fbf 963c cddb 8fbd
00000030: c02f 773e f553 3e3d c5c3 353e c233 8a3c
00000040: ff45 9bbd f81d ae3b 2891 a7bd bf5b d6bd
00000050: 8666 033d 7371 eb3a 66f7 913d 800f 503e
00000060: c037 8dbd af2e 65ba 818a 993d 75d6 45bc
00000070: 7f05 aa3b a78c 273d 4ac6 70bc 675d c4bd
00000080: ca4f a1bd 9893 03be 2245 033e 4dac 113e
00000090: 8077 313c 026c 29be 3eaf 7bbd 35e0 fabd
000000a0: aee5 8cbd ad65 14be c14b ee3c 113a 8abd
000000b0: 9344 d0bd f5de 40bd 6148 0c3e 0123 f63d
000000c0: 71fc fa3c 3b47 203d 05cc 943c 711f 6c3e
000000d0: 6799 e0bd a0cd 80bd 51ec 273b 389f 1f3e
000000e0: 5300 28be 5a11 a33a f1a3 18bd 6d71 5cbc
000000f0: 2283 dfbd 2ca4 0c3d 72c5 e3bc ebc3 44bb
00000100: 25f3 f5ba 0bd0 043d 6d3d 56bd 01e1 a0bc
00000110: dece a2bd d4fc 4ebd 87cd d13c f852 ce3d
00000120: f5bc c4bc 642d e5bd 5787 01be f2e5 323d
00000130: 3976 f1bc 0e98 10bb 679e 093d 28ba a23d
00000140: 5be0 1cbe cefa 0cbd c122 113e 83de 0ebe
00000150: 0fe4 2c3b fa82 0ebd 2936 acbd daab 9bbd
00000160: c322 b03d 0a17 053d 32c0 4bbc 1653 fa3c
00000170: f1d1 153e 90ff 523d 22fa 36bd d0c7 04be
00000180: 0d60 e23c 68f8 8b3d 3a5b 4f3d a0fc cbbb
00000190: 4f62 89bd f74d b6bb 64e9 03be 130a a4bd
000001a0: 6c2c 22bd 2bf8 db3c 238b c0bc 652f abbd
000001b0: 67b8 2b3d 7d08 1abe ae21 e93c 5fcf 163d
000001c0: 9bdf 13bd f12f 7cbd 6b29 4b3d 29ee 19bd
000001d0: 89d7 9ebc 4864 973d f9b7 b73d ad39 883d
000001e0: c73f 9ebd cfe0 f5bd ba0f 413b 1767 d73b
000001f0: 23e7 abbd ba22 7b3e de04 8b3d 1f21 3c3d
00000200: 36ad e03b 3a47 053b 52a2 8dbe c3e1 1bbc
00000210: 746d c33d af87 27bc 8207 033c b72e 39be
00000220: 9470 c93b c6a0 7bbd 043a babd d1da 813c
00000230: b52a 48bc 2595 0d3e af59 24bd 13dd 5b3c
00000240: 70cf b6bc 3ed0 a63d 08de 21be 8f94 30bd
00000250: 6360 d83b e31d b4bc 67f5 ddbc 8d56 93bc
00000260: 08a6 a2bc 891c 8cba 82ae a4bb 9113 c73d
00000270: ffff a13b 398c 0e3e 692c b23c e868 99bc
00000280: d5d5 f43d dc09 bebd 4da2 fb3c 516b 6b3d
00000290: 5864 a53d 5d32 45bd 4174 353d 8e05 0c3d
000002a0: 7f1a f1bd 176d 8f3d 5613 ebbd 2507 4c3d
000002b0: 2c04 37bc 6888 063d 195c 62bb 2700 f43d
000002c0: 0cc5 443d c1a1 293e 050c 8239 ba95 283c
000002d0: 2663 b4bc 8566 23bd 446f 5c3d 07f5 37be
000002e0: 7496 0c3e 9d63 44bd 5b6a 473d 5414 5b3d
000002f0: 757d 49be fac0 91bb 9054 8fbd 6c88 42bd
00000300: a741 283d 6e34 4d3e 92a3 4bbc 910a 45bd
00000310: c3c8 41bd 3d6d bc3c 4d86 923d 4704 29bc
00000320: 8b0c 123e 097d 5fbd ce3d c33d c4cc 8d3c
00000330: 2b11 4a3d f300 97bc 068b 893d 9577 4cbc
00000340: 7650 7bbe 4d24 463e 0785 d03d e073 143e
00000350: 925b ff3d f09b bb3c b1f9 c53d b80d b23d
00000360: c1eb c1bd 8b19 303e f6d4 003e 4caa 353c
00000370: fa1e 49bd f197 543e 18f3 77bb fd64 583d
00000380: 95d0 943d 8b7e 663d 4e8d 0fbe 134b 09bd
00000390: 7249 5cbd 12d0 783d b906 a13d 45c0 4abd
000003a0: 12a0 ffbd 986e 18be b90e 493d cf15 d0bd
000003b0: 439f 3e3d 9df0 03bd cadb 313a 0ab9 b4bc
000003c0: 8dc1 c83d 905e ee3d 04bf ef3d fae8 243e
000003d0: 6da0 2bbd 7aa0 c63d d935 a6bd 4c78 16bd
000003e0: e4d7 06be 0093 3ebe fe14 ed3d f787 43bd
000003f0: 4995 513d 48f3 47bd b35f 93bd d6ce ef3d

network_body._body_endoder.seq_layers.2.bias f4 [128]
0.024426233 0.010700213 -0.011815257 0.021168023 0.050100744 0.036899265 0.024106672 -0.011710226
0.0105305975 0.00313241 0.013345138 0.019023264 -0.016414752 -0.006615045 -0.0001752842 -0.05055342
-0.0040152394 0.033334438 0.01844558 -0.009697692 -0.053280465 0.014488405 -0.01726268 -0.030645363
-0.041655306 -0.047206 -0.010645153 0.054737773 -0.010290171 -0.033244535 0.0068124486 -0.04310967
0.022325974 0.00125786 0.028981842 0.04726347 -0.03750581 -0.031409625 -0.035022974 0.03093591
0.02712794 -0.028438542 -0.05623363 0.0075755944 0.015251023 0.0021540683 0.010138574 0.011270066
0.0313002 -0.022691233 -0.0370808 -0.0050019394 0.026345316 0.032034244 0.03208209 0.043667905
0.03353776 0.043114517 -0.04101502 -0.029812431 -0.026640546 0.024958888 0.06982791 0.015302332
-0.031225048 0.02242736 0.010662089 -0.036069132 0.04413196 0.036222853 0.0011285222 0.006448916
0.01799966 0.021599278 0.004652588 0.021461928 0.019097986 -0.027627131 0.012977021 0.01727487
0.041739248 -0.0611919 0.028957443 -0.011169826 -0.01007174 -0.052842796 -0.051865734 0.026517987
-0.024165917 -0.029290568 0.025015192 -0.025636453 -0.013001233 -0.049397375 0.040362436 -0.051174752
-0.037622746 -0.041245703 -0.018816339 0.03967292 0.011802924 0.051223733 -0.050503545 -0.006417098
-0.036880888 0.031247225 0.00798463 -0.012542291 0.04958026 -0.04742139 -0.028114108 0.010164013
-0.04793086 0.0026370261 0.026107136 -0.027510025 0.023307359 0.010352338 -0.006402837 -0.030511577
0.03160687 -0.027981242 -0.025164496 0.0007216217 -0.019470016 -0.012907658 0.010814093 -0.049581558
00000000: 8619 c83c f24f 2f3c c894 41bc 9068 ad3c
00000010: 7036 4d3d af23 173d 5b7b c53c 3fdc 3fbc
00000020: 8788 2c3c 1f49 4d3b 91a5 5a3c add6 9b3c
00000030: 3b78 86bc 05c3 d8bb 7fcc 37b9 1a11 4fbd
00000040: 4592 83bb b189 083d 2f1b 973c 11e3 1ebc
00000050: 9e3c 5abd c660 6d3c 776a 8dbc fc0b fbbc
00000060: c19e 2abd 145b 41bd 0269 2ebc b734 603d
00000070: 1b98 28bc 6c2b 08bd f63a df3b c493 30bd
00000080: f6e4 b63c c7de a43a 546b ed3c 5797 413d
00000090: b19f 19bd 61a7 00bd 4074 0fbd 4e6d fd3c
000000a0: 6a3b de3c f2f7 e8bc 3c55 66bd b13c f83b
000000b0: 6ddf 793c 452b 0d3b 431c 263c 15a6 383c
000000c0: a334 003d f7e2 b9bc 09e2 17bd 4fe7 a3bb
000000d0: 22d2 d73c 5736 033d 8268 033d 1edd 323d
000000e0: e45e 093d d998 303d 5eff 27bd 3339 f4bc
000000f0: 463d dabc 9576 cc3c ef01 8f3d a2b6 7a3c
00000100: accb ffbc 95b9 b73c 0bb0 2e3c 3abd 13bd
00000110: b7c3 343d 6a5e 143d ecea 933a 6e51 d33b
00000120: 0674 933c f8f0 b03c bd74 983b edd0 af3c
00000130: 6173 9c3c 4b52 e2bc 929d 543c 0784 8d3c
00000140: c6f6 2a3d 5ca4 7abd 2938 ed3c a501 37bc
00000150: f003 25bc b071 58bd 2a71 54bd 403c d93c
00000160: 9af7 c5bc c6f2 efbc a9ec cc3c 8a03 d2bc
00000170: 2003 55bc e754 4abd 1553 253d 9e9c 51bd
00000180: 4f1a 1abd 41f1 28bd b924 9abc 1280 223d
00000190: 0d61 413c facf 513d cedc 4ebd 8546 d2bb
000001a0: 6a10 17bd 2efa ff3c f7d1 023c 2e7e 4dbc
000001b0: ac14 4b3d ee3c 42bd 8f4f e6bc f686 263c
000001c0: 2653 44bd f5d1 2c3b a2de d53c b45c e1bc
000001d0: 13ef be3c da9c 293c e4ce d1bb 6af3 f9bc
000001e0: 3576 013d eb38 e5bc c625 cebc 362b 3d3a
000001f0: 957f 9fbc a47a 53bc 982d 313c 0816 4bbd

action_model._discrete_distribution.branches.0.weight f4 [5, 128]
0.01206136 -0.02125547 0.008564778 0.0029819866 -0.010017248 -0.019390432 0.0016735814 -0.007832871
0.0038260065 -0.0018893932 0.004580527 0.0031102174 -0.013295003 -0.006879555 -0.012704 -0.0071971966
0.012491772 -0.004243389 0.010253935 -0.006219196 -0.018149836 0.004113464 0.024386141 -0.009511659
-0.012092652 -0.02192178 0.0003317994 -0.012638665 0.0040006908 0.009721926 -0.0081559885 -0.03493583
-0.01196985 0.01902989 0.012001459 -0.002472955 -0.0058418 -0.004917194 -0.010533818 -0.005554209
0.00017194587 -0.024146933 -0.03278059 0.017931564 0.015354883 2.2985228e-05 -0.008109431 0.003360309
0.005900367 -0.013350365 -0.009180736 -0.014719357 0.006660583 0.02020844 0.009476155 -0.005342153
0.001377278 -0.0055069164 -0.018990852 0.004141376 -0.015602993 0.0050075483 0.009526713 0.013223216
-0.02651915 0.014129457 -0.0008779694 -0.019690547 -0.010780169 0.0033652093 -0.0045765205 0.008449609
-0.013044335 -0.0015888431 -0.02074319 0.0011667709 -0.006902392 -0.0033011604 -0.044587966 0.018767156
0.0062549035 -0.011562354 0.010610734 -0.009845515 0.027464861 -0.017692275 -0.027916819 0.009935942
0.00087630836 -0.030536555 -0.03482684 0.0103708925 -0.0041767755 -0.0076791146 -0.0104246065 -0.0045222025
-0.011681209 0.032603443 -0.0021215577 0.011791422 -0.0015705868 0.00019733328 0.02196586 -0.008272332
-0.007886072 0.002838613 -0.019115148 -0.0026043362 0.014881306 -0.010704934 0.007349633 0.0016505596
0.00976288 0.009525188 0.018210143 0.006891975 0.010709576 -0.013566186 0.010705694 -0.009379656
-0.00093405263 0.020365153 -0.05076599 -0.011214504 -0.00685869 -0.0011599048 -0.025440233 -0.04664277
-0.0030639186 -0.015257071 0.0064644674 0.01487184 -0.0502437 -0.03308381 0.03539444 -0.00962301
-0.001878745 -0.04159607 -0.043282773 -0.063292675 0.0023090949 -0.02924615 -0.0048192926 0.023097454
-0.046773743 -0.03077581 -0.043015063 0.012485244 0.058411274 -0.027432408 0.04416861 0.01868224
0.008535776 0.026341036 -0.010634353 -0.08095292 0.019381573 0.009680434 0.0037464835 0.055125415
-0.044404108 -0.024837025 -0.0041998094 -0.021647952 0.053134922 0.026905261 0.030997172 -0.014745702
-0.027148908 0.017720718 0.06537106 -0.03077201 -0.00610156 0.0059186793 -0.01185899 -0.01919722
-0.024806943 0.0020529411 -0.0018376535 -0.031121539 -0.025926914 -0.022834467 -0.0095332125 -0.03489229
-0.048400566 -0.06626641 0.061564755 0.06294429 0.032304578 -0.020250654 -0.04438542 -0.03249688
0.039601196 -0.03036998 0.00014194274 0.07538346 -0.0633897 -0.04056586 0.0057185767 -0.013325454
-0.034219347 -0.034389857 0.017632555 -0.019358113 -0.038431503 0.042522334 0.048472658 -0.027943231
-0.05085891 0.010488556 -0.04581681 -0.042510338 0.006410447 0.018425057 0.010218252 -0.015052096
0.0077788043 0.020481588 -0.013604882 0.009933681 -0.07265315 0.04596174 -0.030201593 0.0735202
0.05463552 0.007286923 0.02570279 -0.019448178 -0.021818047 -0.057340406 0.015787765 0.008808895
0.018824318 0.0003295635 -0.027341932 0.0006724669 -0.056490563 0.06458967 0.029487224 -0.0038962727
-0.037102714 -0.0052972436 0.029507598 -0.011287947 0.009576712 0.029311303 0.013991901 0.05426069
-0.036056418 0.04878252 0.07312947 -0.055349346 0.019400114 -0.00064493896 0.0059563112 0.033316422
00000000: 039d 453c f41f aebc 4853 0c3c 6f6d 433b
00000010: 621f 24bc afd8 9ebc 135c db3a 7155 00bc
00000020: bdbd 7a3b 84a5 f7ba 3f18 963b cad4 4b3b
00000030: 49d3 59bc e46d e1bb 7024 50bc 76d6 ebbb
00000040: 4aaa 4c3c 200c 8bbb 1f00 283c 66ca cbbb
00000050: f7ae 94bc 3dca 863b 72c5 c73c cad6 1bbc
00000060: 4220 46bc 4e95 b3bc 5df5 ad39 6712 4fbc
00000070: 3a18 833b b748 1f3c b2a0 05bc df18 0fbd
00000080: 311d 44bc 92e4 9b3c c4a1 443c 4d11 22bb
00000090: 926c bfbb 6a20 a1bb 0996 2cbc 1500 b6bb
000000a0: 5e4c 3439 cacf c5bc f144 06bd 37e5 923c
000000b0: 0c93 7b3c 67d0 c037 6bdd 04bc a138 5c3b
000000c0: de57 c13b 7dbb 5abc cc6a 16bc 7529 71bc
000000d0: 0541 da3b 2c8c a53c e041 1b3c 3a0d afbb
000000e0: c885 b43a 5d73 b4bb b492 9bbc 61b4 873b
000000f0: b2a3 7fbc 5c16 a43b ee15 1c3c 30a6 583c
00000100: b03e d9bc 3d7f 673c 8727 66ba 124e a1bc
00000110: 4e9f 30bc d88a 5c3b a3f6 95bb 3b70 0a3c
00000120: e8b7 55bc ba40 d0ba 9fed a9bc 56ee 983a
00000130: 762d e2bb 4858 58bb dfa1 36bd 94bd 993c
00000140: eff5 cc3b 0770 3dbc a5d8 2d3c 154f 21bc
00000150: fdfd e03c 64ef 90bc d0b1 e4bc 5cca 223c
00000160: 0fb8 653a cc27 fabc 97a6 0ebd adea 293c
00000170: 55dd 88bb 15a1 fbbb f8cb 2abc fc2e 94bb
00000180: 8b62 3fbc 308b 053d d509 0bbb cf30 413c
00000190: 26dc cdba 40eb 4e39 bff1 b33c ad88 07bc
000001a0: 9534 01bc 0608 3a3b 5f97 9cbc 83ad 2abb
000001b0: b9d0 733c bf63 2fbc 31d5 f03b 9757 d83a
000001c0: 7df4 1f3c 890f 1c3c 702d 953c 14d6 e13b
000001d0: 3877 2f3c b544 5ebc ef66 2f3c 21ad 19bc
000001e0: 36db 74ba d2d4 a63c 00f0 4fbd 0abd 37bc
000001f0: ddbe e0bb f207 98ba 0968 d0bc 7d0c 3fbd
00000200: 06cc 48bb cbf8 79bc e2d3 d33b 05a9 733c
00000210: 57cc 4dbd e482 07bd c3f9 103d d4a9 1dbc
00000220: 3940 f6ba a460 2abd 4749 31bd 979f 81bd
00000230: 2f54 173b 9f95 efbc 28eb 9dbb df36 bd3c
00000240: d395 3fbd 8d1d fcbc 9030 30bd e98e 4c3c
00000250: a940 6f3d eeb9 e0bc 25ea 343d 7f0b 993c
00000260: a4d9 0b3c 28c9 d73c b63b 2ebc a5ca a5bd
00000270: 1bc6 9e3c af9a 1e3c 9087 753b 30cb 613d
00000280: 15e1 35bd 0477 cbbc 8e9e 89bb 0c57 b1bc
00000290: 01a4 593d 6c68 dc3c c8ed fd3c f597 71bc
000002a0: 6367 debc 0a2b 913c 43e1 853d 9515 fcbc
000002b0: 98ef c7bb 7bf1 c13b 364c 42bc 7d43 9dbc
000002c0: ee37 cbbc a38a 063b 6bdd f0ba 99f2 febc
000002d0: ae64 d4bc 590f bbbc 3131 1cbc 38eb 0ebd
000002e0: ac3f 46bd afb6 87bd 532b 7c3d f0e8 803d
000002f0: ce51 043d b3e4 a5bc 7ccd 35bd 731b 05bd
00000300: dd34 223d 77ca f8bc 77d6 1439 a562 9a3d
00000310: 76d2 81bd 6328 26bd e662 bb3b 0153 5abc
00000320: 9629 0cbd 61dc 0cbd 2672 903c e894 9ebc
00000330: 5a6a 1dbd e62b 2e3d 448b 463d 34e9 e4bc
00000340: 6f51 50bd 31d8 2b3c 68aa 3bbd 521f 2ebd
00000350: ba0e d23b 25f0 963c 756a 273c 119d 76bc
00000360: 57e5 fe3b 01c9 a73c 03e7 5ebc e1c0 223c
00000370: 2dcb 94bd 6142 3c3d 5569 f7bc c291 963d
00000380: 7fc9 5f3d 24c7 ee3b a88e d23c c951 9fbc
00000390: c3bb b2bc c6dd 6abd 5855 813c 2f53 103c
000003a0: 7535 9a3c 44c9 ac39 30fc dfbc 7d48 303a
000003b0: a662 67bd 9747 843d 318f f13c 9c58 7fbb
000003c0: 04f9 17bd 8094 adbb ebb9 f13c 15f1 38bc
000003d0: a4e7 1c3c 421e f03c 493e 653c 7540 5e3d
000003e0: e5af 13bd 2ed0 473d e7c4 953d ffb5 62bd
000003f0: fdec 9e3c 1f11 29ba 292d c33b cd76 083d

action_model._discrete_distribution.branches.0.bias f4 [5]
0.010938604 -0.06322057 -0.0039292905 -0.0024402458 0.052168623
00000000: d537 333c c979 81bd 47c1 80bb 88ec 1fbb
00000010: c4ae 553d

onnx::Div_52 f4 [13]
0.72717154 0.054319136 0.6435052 178.76743 0.0014063586 0.0014063586 0.64638793 0.035263833
0.5318478 350.36557 0.74643296 0.07610715 0.6534176
00000000: ea27 3a3f be7d 5e3d c2bc 243f 76c4 3243
00000010: 9055 b83a 9055 b83a ae79 253f cf70 103d
00000020: 2d27 083f cb2e af43 3b16 3f3f 11de 9b3d
00000030: 6046 273f
